…
I1218 14:29:04.637697 40060 net.cpp:322] The NetState phase (0) differed from the phase (1) specified by a rule in layer data
I1218 14:29:04.638002 40060 net.cpp:58] Initializing net from parameters: 
state {
  phase: TRAIN
  level: 0
  stage: ""
}
layer {
  name: "data"
  type: "Data"
  top: "data"
  top: "label"
  include {
    phase: TRAIN
  }
  transform_param {
    scale: 0.0078125
    mirror: true
    mean_value: 127.5
    mean_value: 127.5
    mean_value: 127.5
  }
  data_param {
    source: "/data/zeng/webface_160x160_train_lmdb"
    batch_size: 64
    backend: LMDB
  }
}
layer {
  name: "conv1_1"
  type: "Convolution"
  bottom: "data"
  top: "conv1_1"
  param {
    lr_mult: 1
    decay_mult: 1
  }
  param {
    lr_mult: 2
    decay_mult: 0
  }
  convolution_param {
    num_output: 64
    pad: 1
    kernel_size: 6
    stride: 2
    weight_filler {
      type: "xavier"
    }
    bias_filler {
      type: "constant"
      value: 0
    }
  }
}
layer {
  name: "relu1_1"
  type: "PReLU"
  bottom: "conv1_1"
  top: "conv1_1"
}
layer {
  name: "conv1_2"
  type: "Convolution"
  bottom: "conv1_1"
  top: "conv1_2"
  param {
    lr_mult: 1
    decay_mult: 1
  }
  param {
    lr_mult: 0
    decay_mult: 0
  }
  convolution_param {
    num_output: 64
    pad: 1
    kernel_size: 3
    stride: 1
    weight_filler {
      type: "gaussian"
      std: 0.01
    }
    bias_filler {
      type: "constant"
      value: 0
    }
  }
}
layer {
  name: "relu1_2"
  type: "PReLU"
  bottom: "conv1_2"
  top: "conv1_2"
}
layer {
  name: "conv1_3"
  type: "Convolution"
  bottom: "conv1_2"
  top: "conv1_3"
  param {
    lr_mult: 1
    decay_mult: 1
  }
  param {
    lr_mult: 0
    decay_mult: 0
  }
  convolution_param {
    num_output: 64
    pad: 1
    kernel_size: 3
    stride: 1
    weight_filler {
      type: "gaussian"
      std: 0.01
    }
    bias_filler {
      type: "constant"
      value: 0
    }
  }
}
layer {
  name: "relu1_3"
  type: "PReLU"
  bottom: "conv1_3"
  top: "conv1_3"
}
layer {
  name: "res1_3"
  type: "Eltwise"
  bottom: "conv1_1"
  bottom: "conv1_3"
  top: "res1_3"
  eltwise_param {
    operation: SUM
  }
}
layer {
  name: "conv2_1"
  type: "Convolution"
  bottom: "res1_3"
  top: "conv2_1"
  param {
    lr_mult: 1
    decay_mult: 1
  }
  param {
    lr_mult: 2
    decay_mult: 0
  }
  convolution_param {
    num_output: 128
    pad: 1
    kernel_size: 3
    stride: 2
    weight_filler {
      type: "xavier"
    }
    bias_filler {
      type: "constant"
      value: 0
    }
  }
}
layer {
  name: "relu2_1"
  type: "PReLU"
  bottom: "conv2_1"
  top: "conv2_1"
}
layer {
  name: "conv2_2"
  type: "Convolution"
  bottom: "conv2_1"
  top: "conv2_2"
  param {
    lr_mult: 1
    decay_mult: 1
  }
  param {
    lr_mult: 0
    decay_mult: 0
  }
  convolution_param {
    num_output: 128
    pad: 1
    kernel_size: 3
    stride: 1
    weight_filler {
      type: "gaussian"
      std: 0.01
    }
    bias_filler {
      type: "constant"
      value: 0
    }
  }
}
layer {
  name: "relu2_2"
  type: "PReLU"
  bottom: "conv2_2"
  top: "conv2_2"
}
layer {
  name: "conv2_3"
  type: "Convolution"
  bottom: "conv2_2"
  top: "conv2_3"
  param {
    lr_mult: 1
    decay_mult: 1
  }
  param {
    lr_mult: 0
    decay_mult: 0
  }
  convolution_param {
    num_output: 128
    pad: 1
    kernel_size: 3
    stride: 1
    weight_filler {
      type: "gaussian"
      std: 0.01
    }
    bias_filler {
      type: "constant"
      value: 0
    }
  }
}
layer {
  name: "relu2_3"
  type: "PReLU"
  bottom: "conv2_3"
  top: "conv2_3"
}
layer {
  name: "res2_3"
  type: "Eltwise"
  bottom: "conv2_1"
  bottom: "conv2_3"
  top: "res2_3"
  eltwise_param {
    operation: SUM
  }
}
layer {
  name: "conv2_4"
  type: "Convolution"
  bottom: "res2_3"
  top: "conv2_4"
  param {
    lr_mult: 1
    decay_mult: 1
  }
  param {
    lr_mult: 0
    decay_mult: 0
  }
  convolution_param {
    num_output: 128
    pad: 1
    kernel_size: 3
    stride: 1
    weight_filler {
      type: "gaussian"
      std: 0.01
    }
    bias_filler {
      type: "constant"
      value: 0
    }
  }
}
layer {
  name: "relu2_4"
  type: "PReLU"
  bottom: "conv2_4"
  top: "conv2_4"
}
layer {
  name: "conv2_5"
  type: "Convolution"
  bottom: "conv2_4"
  top: "conv2_5"
  param {
    lr_mult: 1
    decay_mult: 1
  }
  param {
    lr_mult: 0
    decay_mult: 0
  }
  convolution_param {
    num_output: 128
    pad: 1
    kernel_size: 3
    stride: 1
    weight_filler {
      type: "gaussian"
      std: 0.01
    }
    bias_filler {
      type: "constant"
      value: 0
    }
  }
}
layer {
  name: "relu2_5"
  type: "PReLU"
  bottom: "conv2_5"
  top: "conv2_5"
}
layer {
  name: "res2_5"
  type: "Eltwise"
  bottom: "res2_3"
  bottom: "conv2_5"
  top: "res2_5"
  eltwise_param {
    operation: SUM
  }
}
layer {
  name: "conv3_1"
  type: "Convolution"
  bottom: "res2_5"
  top: "conv3_1"
  param {
    lr_mult: 1
    decay_mult: 1
  }
  param {
    lr_mult: 2
    decay_mult: 0
  }
  convolution_param {
    num_output: 256
    pad: 1
    kernel_size: 3
    stride: 2
    weight_filler {
      type: "xavier"
    }
    bias_filler {
      type: "constant"
      value: 0
    }
  }
}
layer {
  name: "relu3_1"
  type: "PReLU"
  bottom: "conv3_1"
  top: "conv3_1"
}
layer {
  name: "conv3_2"
  type: "Convolution"
  bottom: "conv3_1"
  top: "conv3_2"
  param {
    lr_mult: 1
    decay_mult: 1
  }
  param {
    lr_mult: 0
    decay_mult: 0
  }
  convolution_param {
    num_output: 256
    pad: 1
    kernel_size: 3
    stride: 1
    weight_filler {
      type: "gaussian"
      std: 0.01
    }
    bias_filler {
      type: "constant"
      value: 0
    }
  }
}
layer {
  name: "relu3_2"
  type: "PReLU"
  bottom: "conv3_2"
  top: "conv3_2"
}
layer {
  name: "conv3_3"
  type: "Convolution"
  bottom: "conv3_2"
  top: "conv3_3"
  param {
    lr_mult: 1
    decay_mult: 1
  }
  param {
    lr_mult: 0
    decay_mult: 0
  }
  convolution_param {
    num_output: 256
    pad: 1
    kernel_size: 3
    stride: 1
    weight_filler {
      type: "gaussian"
      std: 0.01
    }
    bias_filler {
      type: "constant"
      value: 0
    }
  }
}
layer {
  name: "relu3_3"
  type: "PReLU"
  bottom: "conv3_3"
  top: "conv3_3"
}
layer {
  name: "res3_3"
  type: "Eltwise"
  bottom: "conv3_1"
  bottom: "conv3_3"
  top: "res3_3"
  eltwise_param {
    operation: SUM
  }
}
layer {
  name: "conv3_4"
  type: "Convolution"
  bottom: "res3_3"
  top: "conv3_4"
  param {
    lr_mult: 1
    decay_mult: 1
  }
  param {
    lr_mult: 0
    decay_mult: 0
  }
  convolution_param {
    num_output: 256
    pad: 1
    kernel_size: 3
    stride: 1
    weight_filler {
      type: "gaussian"
      std: 0.01
    }
    bias_filler {
      type: "constant"
      value: 0
    }
  }
}
layer {
  name: "relu3_4"
  type: "PReLU"
  bottom: "conv3_4"
  top: "conv3_4"
}
layer {
  name: "conv3_5"
  type: "Convolution"
  bottom: "conv3_4"
  top: "conv3_5"
  param {
    lr_mult: 1
    decay_mult: 1
  }
  param {
    lr_mult: 0
    decay_mult: 0
  }
  convolution_param {
    num_output: 256
    pad: 1
    kernel_size: 3
    stride: 1
    weight_filler {
      type: "gaussian"
      std: 0.01
    }
    bias_filler {
      type: "constant"
      value: 0
    }
  }
}
layer {
  name: "relu3_5"
  type: "PReLU"
  bottom: "conv3_5"
  top: "conv3_5"
}
layer {
  name: "res3_5"
  type: "Eltwise"
  bottom: "res3_3"
  bottom: "conv3_5"
  top: "res3_5"
  eltwise_param {
    operation: SUM
  }
}
layer {
  name: "conv3_6"
  type: "Convolution"
  bottom: "res3_5"
  top: "conv3_6"
  param {
    lr_mult: 1
    decay_mult: 1
  }
  param {
    lr_mult: 0
    decay_mult: 0
  }
  convolution_param {
    num_output: 256
    pad: 1
    kernel_size: 3
    stride: 1
    weight_filler {
      type: "gaussian"
      std: 0.01
    }
    bias_filler {
      type: "constant"
      value: 0
    }
  }
}
layer {
  name: "relu3_6"
  type: "PReLU"
  bottom: "conv3_6"
  top: "conv3_6"
}
layer {
  name: "conv3_7"
  type: "Convolution"
  bottom: "conv3_6"
  top: "conv3_7"
  param {
    lr_mult: 1
    decay_mult: 1
  }
  param {
    lr_mult: 0
    decay_mult: 0
  }
  convolution_param {
    num_output: 256
    pad: 1
    kernel_size: 3
    stride: 1
    weight_filler {
      type: "gaussian"
      std: 0.01
    }
    bias_filler {
      type: "constant"
      value: 0
    }
  }
}
layer {
  name: "relu3_7"
  type: "PReLU"
  bottom: "conv3_7"
  top: "conv3_7"
}
layer {
  name: "res3_7"
  type: "Eltwise"
  bottom: "res3_5"
  bottom: "conv3_7"
  top: "res3_7"
  eltwise_param {
    operation: SUM
  }
}
layer {
  name: "conv3_8"
  type: "Convolution"
  bottom: "res3_7"
  top: "conv3_8"
  param {
    lr_mult: 1
    decay_mult: 1
  }
  param {
    lr_mult: 0
    decay_mult: 0
  }
  convolution_param {
    num_output: 256
    pad: 1
    kernel_size: 3
    stride: 1
    weight_filler {
      type: "gaussian"
      std: 0.01
    }
    bias_filler {
      type: "constant"
      value: 0
    }
  }
}
layer {
  name: "relu3_8"
  type: "PReLU"
  bottom: "conv3_8"
  top: "conv3_8"
}
layer {
  name: "conv3_9"
  type: "Convolution"
  bottom: "conv3_8"
  top: "conv3_9"
  param {
    lr_mult: 1
    decay_mult: 1
  }
  param {
    lr_mult: 0
    decay_mult: 0
  }
  convolution_param {
    num_output: 256
    pad: 1
    kernel_size: 3
    stride: 1
    weight_filler {
      type: "gaussian"
      std: 0.01
    }
    bias_filler {
      type: "constant"
      value: 0
    }
  }
}
layer {
  name: "relu3_9"
  type: "PReLU"
  bottom: "conv3_9"
  top: "conv3_9"
}
layer {
  name: "res3_9"
  type: "Eltwise"
  bottom: "res3_7"
  bottom: "conv3_9"
  top: "res3_9"
  eltwise_param {
    operation: SUM
  }
}
layer {
  name: "conv4_1"
  type: "Convolution"
  bottom: "res3_9"
  top: "conv4_1"
  param {
    lr_mult: 1
    decay_mult: 1
  }
  param {
    lr_mult: 2
    decay_mult: 0
  }
  convolution_param {
    num_output: 512
    pad: 1
    kernel_size: 3
    stride: 2
    weight_filler {
      type: "xavier"
    }
    bias_filler {
      type: "constant"
      value: 0
    }
  }
}
layer {
  name: "relu4_1"
  type: "PReLU"
  bottom: "conv4_1"
  top: "conv4_1"
}
layer {
  name: "conv4_2"
  type: "Convolution"
  bottom: "conv4_1"
  top: "conv4_2"
  param {
    lr_mult: 1
    decay_mult: 1
  }
  param {
    lr_mult: 0
    decay_mult: 0
  }
  convolution_param {
    num_output: 512
    pad: 1
    kernel_size: 3
    stride: 1
    weight_filler {
      type: "gaussian"
      std: 0.01
    }
    bias_filler {
      type: "constant"
      value: 0
    }
  }
}
layer {
  name: "relu4_2"
  type: "PReLU"
  bottom: "conv4_2"
  top: "conv4_2"
}
layer {
  name: "conv4_3"
  type: "Convolution"
  bottom: "conv4_2"
  top: "conv4_3"
  param {
    lr_mult: 1
    decay_mult: 1
  }
  param {
    lr_mult: 0
    decay_mult: 0
  }
  convolution_param {
    num_output: 512
    pad: 1
    kernel_size: 3
    stride: 1
    weight_filler {
      type: "gaussian"
      std: 0.01
    }
    bias_filler {
      type: "constant"
      value: 0
    }
  }
}
layer {
  name: "relu4_3"
  type: "PReLU"
  bottom: "conv4_3"
  top: "conv4_3"
}
layer {
  name: "res4_3"
  type: "Eltwise"
  bottom: "conv4_1"
  bottom: "conv4_3"
  top: "res4_3"
  eltwise_param {
    operation: SUM
  }
}
layer {
  name: "fc5"
  type: "InnerProduct"
  bottom: "res4_3"
  top: "fc5"
  param {
    lr_mult: 1
    decay_mult: 1
  }
  param {
    lr_mult: 2
    decay_mult: 0
  }
  inner_product_param {
    num_output: 512
    weight_filler {
      type: "xavier"
    }
    bias_filler {
      type: "constant"
      value: 0
    }
  }
}
layer {
  name: "fc6"
  type: "InnerProduct"
  bottom: "fc5"
  top: "fc6"
  param {
    lr_mult: 1
    decay_mult: 1
  }
  param {
    lr_mult: 2
    decay_mult: 0
  }
  inner_product_param {
    num_output: 121039
    weight_filler {
      type: "xavier"
      std: 0.01
    }
    bias_filler {
      type: "constant"
      value: 0
    }
  }
}
layer {
  name: "softmax_loss"
  type: "SoftmaxWithLoss"
  bottom: "fc6"
  bottom: "label"
  top: "softmax_loss"
}
layer {
  name: "center_loss"
  type: "CenterLoss"
  bottom: "fc5"
  bottom: "label"
  top: "center_loss"
  loss_weight: 0.0008
  param {
    lr_mult: 1
    decay_mult: 2
  }
  center_loss_param {
    num_output: 121039
    center_filler {
      type: "xavier"
    }
  }
}
I1218 14:29:04.639925 40060 layer_factory.hpp:77] Creating layer data
I1218 14:29:04.640377 40060 net.cpp:100] Creating Layer data
I1218 14:29:04.640420 40060 net.cpp:408] data -> data
I1218 14:29:04.640450 40060 net.cpp:408] data -> label
I1218 14:29:04.641654 40142 db_lmdb.cpp:35] Opened lmdb /data/zeng/webface_160x160_train_lmdb
I1218 14:29:04.653237 40060 data_layer.cpp:41] output data size: 64,3,160,160
I1218 14:29:04.684458 40060 net.cpp:150] Setting up data
I1218 14:29:04.684517 40060 net.cpp:157] Top shape: 64 3 160 160 (4915200)
I1218 14:29:04.684527 40060 net.cpp:157] Top shape: 64 (64)
I1218 14:29:04.684533 40060 net.cpp:165] Memory required for data: 19661056
I1218 14:29:04.684551 40060 layer_factory.hpp:77] Creating layer label_data_1_split
I1218 14:29:04.684576 40060 net.cpp:100] Creating Layer label_data_1_split
I1218 14:29:04.684587 40060 net.cpp:434] label_data_1_split <- label
I1218 14:29:04.684607 40060 net.cpp:408] label_data_1_split -> label_data_1_split_0
I1218 14:29:04.684622 40060 net.cpp:408] label_data_1_split -> label_data_1_split_1
I1218 14:29:04.684691 40060 net.cpp:150] Setting up label_data_1_split
I1218 14:29:04.684702 40060 net.cpp:157] Top shape: 64 (64)
I1218 14:29:04.684710 40060 net.cpp:157] Top shape: 64 (64)
I1218 14:29:04.684715 40060 net.cpp:165] Memory required for data: 19661568
I1218 14:29:04.684722 40060 layer_factory.hpp:77] Creating layer conv1_1
I1218 14:29:04.684747 40060 net.cpp:100] Creating Layer conv1_1
I1218 14:29:04.684756 40060 net.cpp:434] conv1_1 <- data
I1218 14:29:04.684763 40060 net.cpp:408] conv1_1 -> conv1_1
I1218 14:29:04.688463 40143 blocking_queue.cpp:50] Waiting for data
I1218 14:29:04.921037 40060 net.cpp:150] Setting up conv1_1
I1218 14:29:04.921092 40060 net.cpp:157] Top shape: 64 64 79 79 (25563136)
I1218 14:29:04.921099 40060 net.cpp:165] Memory required for data: 121914112
I1218 14:29:04.921121 40060 layer_factory.hpp:77] Creating layer relu1_1
I1218 14:29:04.921138 40060 net.cpp:100] Creating Layer relu1_1
I1218 14:29:04.921145 40060 net.cpp:434] relu1_1 <- conv1_1
I1218 14:29:04.921154 40060 net.cpp:395] relu1_1 -> conv1_1 (in-place)
I1218 14:29:04.922401 40060 net.cpp:150] Setting up relu1_1
I1218 14:29:04.922437 40060 net.cpp:157] Top shape: 64 64 79 79 (25563136)
I1218 14:29:04.922444 40060 net.cpp:165] Memory required for data: 224166656
I1218 14:29:04.922456 40060 layer_factory.hpp:77] Creating layer conv1_1_relu1_1_0_split
I1218 14:29:04.922467 40060 net.cpp:100] Creating Layer conv1_1_relu1_1_0_split
I1218 14:29:04.922474 40060 net.cpp:434] conv1_1_relu1_1_0_split <- conv1_1
I1218 14:29:04.922482 40060 net.cpp:408] conv1_1_relu1_1_0_split -> conv1_1_relu1_1_0_split_0
I1218 14:29:04.922492 40060 net.cpp:408] conv1_1_relu1_1_0_split -> conv1_1_relu1_1_0_split_1
I1218 14:29:04.922526 40060 net.cpp:150] Setting up conv1_1_relu1_1_0_split
I1218 14:29:04.922554 40060 net.cpp:157] Top shape: 64 64 79 79 (25563136)
I1218 14:29:04.922560 40060 net.cpp:157] Top shape: 64 64 79 79 (25563136)
I1218 14:29:04.922566 40060 net.cpp:165] Memory required for data: 428671744
I1218 14:29:04.922574 40060 layer_factory.hpp:77] Creating layer conv1_2
I1218 14:29:04.922588 40060 net.cpp:100] Creating Layer conv1_2
I1218 14:29:04.922595 40060 net.cpp:434] conv1_2 <- conv1_1_relu1_1_0_split_0
I1218 14:29:04.922629 40060 net.cpp:408] conv1_2 -> conv1_2
I1218 14:29:04.925469 40060 net.cpp:150] Setting up conv1_2
I1218 14:29:04.925505 40060 net.cpp:157] Top shape: 64 64 79 79 (25563136)
I1218 14:29:04.925513 40060 net.cpp:165] Memory required for data: 530924288
I1218 14:29:04.925524 40060 layer_factory.hpp:77] Creating layer relu1_2
I1218 14:29:04.925534 40060 net.cpp:100] Creating Layer relu1_2
I1218 14:29:04.925541 40060 net.cpp:434] relu1_2 <- conv1_2
I1218 14:29:04.925549 40060 net.cpp:395] relu1_2 -> conv1_2 (in-place)
I1218 14:29:04.926832 40060 net.cpp:150] Setting up relu1_2
I1218 14:29:04.926868 40060 net.cpp:157] Top shape: 64 64 79 79 (25563136)
I1218 14:29:04.926875 40060 net.cpp:165] Memory required for data: 633176832
I1218 14:29:04.926883 40060 layer_factory.hpp:77] Creating layer conv1_3
I1218 14:29:04.926897 40060 net.cpp:100] Creating Layer conv1_3
I1218 14:29:04.926903 40060 net.cpp:434] conv1_3 <- conv1_2
I1218 14:29:04.926913 40060 net.cpp:408] conv1_3 -> conv1_3
I1218 14:29:04.928741 40060 net.cpp:150] Setting up conv1_3
I1218 14:29:04.928761 40060 net.cpp:157] Top shape: 64 64 79 79 (25563136)
I1218 14:29:04.928768 40060 net.cpp:165] Memory required for data: 735429376
I1218 14:29:04.928777 40060 layer_factory.hpp:77] Creating layer relu1_3
I1218 14:29:04.928786 40060 net.cpp:100] Creating Layer relu1_3
I1218 14:29:04.928793 40060 net.cpp:434] relu1_3 <- conv1_3
I1218 14:29:04.928802 40060 net.cpp:395] relu1_3 -> conv1_3 (in-place)
I1218 14:29:04.930006 40060 net.cpp:150] Setting up relu1_3
I1218 14:29:04.930024 40060 net.cpp:157] Top shape: 64 64 79 79 (25563136)
I1218 14:29:04.930032 40060 net.cpp:165] Memory required for data: 837681920
I1218 14:29:04.930042 40060 layer_factory.hpp:77] Creating layer res1_3
I1218 14:29:04.930058 40060 net.cpp:100] Creating Layer res1_3
I1218 14:29:04.930064 40060 net.cpp:434] res1_3 <- conv1_1_relu1_1_0_split_1
I1218 14:29:04.930071 40060 net.cpp:434] res1_3 <- conv1_3
I1218 14:29:04.930078 40060 net.cpp:408] res1_3 -> res1_3
I1218 14:29:04.930105 40060 net.cpp:150] Setting up res1_3
I1218 14:29:04.930115 40060 net.cpp:157] Top shape: 64 64 79 79 (25563136)
I1218 14:29:04.930138 40060 net.cpp:165] Memory required for data: 939934464
I1218 14:29:04.930145 40060 layer_factory.hpp:77] Creating layer conv2_1
I1218 14:29:04.930156 40060 net.cpp:100] Creating Layer conv2_1
I1218 14:29:04.930162 40060 net.cpp:434] conv2_1 <- res1_3
I1218 14:29:04.930171 40060 net.cpp:408] conv2_1 -> conv2_1
I1218 14:29:04.932615 40060 net.cpp:150] Setting up conv2_1
I1218 14:29:04.932651 40060 net.cpp:157] Top shape: 64 128 40 40 (13107200)
I1218 14:29:04.932658 40060 net.cpp:165] Memory required for data: 992363264
I1218 14:29:04.932668 40060 layer_factory.hpp:77] Creating layer relu2_1
I1218 14:29:04.932677 40060 net.cpp:100] Creating Layer relu2_1
I1218 14:29:04.932684 40060 net.cpp:434] relu2_1 <- conv2_1
I1218 14:29:04.932691 40060 net.cpp:395] relu2_1 -> conv2_1 (in-place)
I1218 14:29:04.933825 40060 net.cpp:150] Setting up relu2_1
I1218 14:29:04.933859 40060 net.cpp:157] Top shape: 64 128 40 40 (13107200)
I1218 14:29:04.933866 40060 net.cpp:165] Memory required for data: 1044792064
I1218 14:29:04.933876 40060 layer_factory.hpp:77] Creating layer conv2_1_relu2_1_0_split
I1218 14:29:04.933884 40060 net.cpp:100] Creating Layer conv2_1_relu2_1_0_split
I1218 14:29:04.933892 40060 net.cpp:434] conv2_1_relu2_1_0_split <- conv2_1
I1218 14:29:04.933899 40060 net.cpp:408] conv2_1_relu2_1_0_split -> conv2_1_relu2_1_0_split_0
I1218 14:29:04.933908 40060 net.cpp:408] conv2_1_relu2_1_0_split -> conv2_1_relu2_1_0_split_1
I1218 14:29:04.933940 40060 net.cpp:150] Setting up conv2_1_relu2_1_0_split
I1218 14:29:04.933950 40060 net.cpp:157] Top shape: 64 128 40 40 (13107200)
I1218 14:29:04.933957 40060 net.cpp:157] Top shape: 64 128 40 40 (13107200)
I1218 14:29:04.933964 40060 net.cpp:165] Memory required for data: 1149649664
I1218 14:29:04.933969 40060 layer_factory.hpp:77] Creating layer conv2_2
I1218 14:29:04.933980 40060 net.cpp:100] Creating Layer conv2_2
I1218 14:29:04.933987 40060 net.cpp:434] conv2_2 <- conv2_1_relu2_1_0_split_0
I1218 14:29:04.934007 40060 net.cpp:408] conv2_2 -> conv2_2
I1218 14:29:04.938594 40060 net.cpp:150] Setting up conv2_2
I1218 14:29:04.938632 40060 net.cpp:157] Top shape: 64 128 40 40 (13107200)
I1218 14:29:04.938639 40060 net.cpp:165] Memory required for data: 1202078464
I1218 14:29:04.938664 40060 layer_factory.hpp:77] Creating layer relu2_2
I1218 14:29:04.938673 40060 net.cpp:100] Creating Layer relu2_2
I1218 14:29:04.938679 40060 net.cpp:434] relu2_2 <- conv2_2
I1218 14:29:04.938688 40060 net.cpp:395] relu2_2 -> conv2_2 (in-place)
I1218 14:29:04.939837 40060 net.cpp:150] Setting up relu2_2
I1218 14:29:04.939857 40060 net.cpp:157] Top shape: 64 128 40 40 (13107200)
I1218 14:29:04.939862 40060 net.cpp:165] Memory required for data: 1254507264
I1218 14:29:04.939870 40060 layer_factory.hpp:77] Creating layer conv2_3
I1218 14:29:04.939882 40060 net.cpp:100] Creating Layer conv2_3
I1218 14:29:04.939890 40060 net.cpp:434] conv2_3 <- conv2_2
I1218 14:29:04.939898 40060 net.cpp:408] conv2_3 -> conv2_3
I1218 14:29:04.944504 40060 net.cpp:150] Setting up conv2_3
I1218 14:29:04.944525 40060 net.cpp:157] Top shape: 64 128 40 40 (13107200)
I1218 14:29:04.944531 40060 net.cpp:165] Memory required for data: 1306936064
I1218 14:29:04.944545 40060 layer_factory.hpp:77] Creating layer relu2_3
I1218 14:29:04.944556 40060 net.cpp:100] Creating Layer relu2_3
I1218 14:29:04.944563 40060 net.cpp:434] relu2_3 <- conv2_3
I1218 14:29:04.944571 40060 net.cpp:395] relu2_3 -> conv2_3 (in-place)
I1218 14:29:04.945729 40060 net.cpp:150] Setting up relu2_3
I1218 14:29:04.945749 40060 net.cpp:157] Top shape: 64 128 40 40 (13107200)
I1218 14:29:04.945755 40060 net.cpp:165] Memory required for data: 1359364864
I1218 14:29:04.945762 40060 layer_factory.hpp:77] Creating layer res2_3
I1218 14:29:04.945771 40060 net.cpp:100] Creating Layer res2_3
I1218 14:29:04.945777 40060 net.cpp:434] res2_3 <- conv2_1_relu2_1_0_split_1
I1218 14:29:04.945785 40060 net.cpp:434] res2_3 <- conv2_3
I1218 14:29:04.945791 40060 net.cpp:408] res2_3 -> res2_3
I1218 14:29:04.945818 40060 net.cpp:150] Setting up res2_3
I1218 14:29:04.945827 40060 net.cpp:157] Top shape: 64 128 40 40 (13107200)
I1218 14:29:04.945833 40060 net.cpp:165] Memory required for data: 1411793664
I1218 14:29:04.945838 40060 layer_factory.hpp:77] Creating layer res2_3_res2_3_0_split
I1218 14:29:04.945847 40060 net.cpp:100] Creating Layer res2_3_res2_3_0_split
I1218 14:29:04.945870 40060 net.cpp:434] res2_3_res2_3_0_split <- res2_3
I1218 14:29:04.945878 40060 net.cpp:408] res2_3_res2_3_0_split -> res2_3_res2_3_0_split_0
I1218 14:29:04.945888 40060 net.cpp:408] res2_3_res2_3_0_split -> res2_3_res2_3_0_split_1
I1218 14:29:04.945924 40060 net.cpp:150] Setting up res2_3_res2_3_0_split
I1218 14:29:04.945937 40060 net.cpp:157] Top shape: 64 128 40 40 (13107200)
I1218 14:29:04.945945 40060 net.cpp:157] Top shape: 64 128 40 40 (13107200)
I1218 14:29:04.945950 40060 net.cpp:165] Memory required for data: 1516651264
I1218 14:29:04.945955 40060 layer_factory.hpp:77] Creating layer conv2_4
I1218 14:29:04.945968 40060 net.cpp:100] Creating Layer conv2_4
I1218 14:29:04.945981 40060 net.cpp:434] conv2_4 <- res2_3_res2_3_0_split_0
I1218 14:29:04.945989 40060 net.cpp:408] conv2_4 -> conv2_4
I1218 14:29:04.950778 40060 net.cpp:150] Setting up conv2_4
I1218 14:29:04.950814 40060 net.cpp:157] Top shape: 64 128 40 40 (13107200)
I1218 14:29:04.950820 40060 net.cpp:165] Memory required for data: 1569080064
I1218 14:29:04.950831 40060 layer_factory.hpp:77] Creating layer relu2_4
I1218 14:29:04.950840 40060 net.cpp:100] Creating Layer relu2_4
I1218 14:29:04.950847 40060 net.cpp:434] relu2_4 <- conv2_4
I1218 14:29:04.950855 40060 net.cpp:395] relu2_4 -> conv2_4 (in-place)
I1218 14:29:04.952003 40060 net.cpp:150] Setting up relu2_4
I1218 14:29:04.952038 40060 net.cpp:157] Top shape: 64 128 40 40 (13107200)
I1218 14:29:04.952044 40060 net.cpp:165] Memory required for data: 1621508864
I1218 14:29:04.952054 40060 layer_factory.hpp:77] Creating layer conv2_5
I1218 14:29:04.952067 40060 net.cpp:100] Creating Layer conv2_5
I1218 14:29:04.952085 40060 net.cpp:434] conv2_5 <- conv2_4
I1218 14:29:04.952096 40060 net.cpp:408] conv2_5 -> conv2_5
I1218 14:29:04.956257 40060 net.cpp:150] Setting up conv2_5
I1218 14:29:04.956277 40060 net.cpp:157] Top shape: 64 128 40 40 (13107200)
I1218 14:29:04.956284 40060 net.cpp:165] Memory required for data: 1673937664
I1218 14:29:04.956292 40060 layer_factory.hpp:77] Creating layer relu2_5
I1218 14:29:04.956302 40060 net.cpp:100] Creating Layer relu2_5
I1218 14:29:04.956310 40060 net.cpp:434] relu2_5 <- conv2_5
I1218 14:29:04.956317 40060 net.cpp:395] relu2_5 -> conv2_5 (in-place)
I1218 14:29:04.957473 40060 net.cpp:150] Setting up relu2_5
I1218 14:29:04.957492 40060 net.cpp:157] Top shape: 64 128 40 40 (13107200)
I1218 14:29:04.957499 40060 net.cpp:165] Memory required for data: 1726366464
I1218 14:29:04.957506 40060 layer_factory.hpp:77] Creating layer res2_5
I1218 14:29:04.957517 40060 net.cpp:100] Creating Layer res2_5
I1218 14:29:04.957525 40060 net.cpp:434] res2_5 <- res2_3_res2_3_0_split_1
I1218 14:29:04.957540 40060 net.cpp:434] res2_5 <- conv2_5
I1218 14:29:04.957546 40060 net.cpp:408] res2_5 -> res2_5
I1218 14:29:04.957572 40060 net.cpp:150] Setting up res2_5
I1218 14:29:04.957581 40060 net.cpp:157] Top shape: 64 128 40 40 (13107200)
I1218 14:29:04.957587 40060 net.cpp:165] Memory required for data: 1778795264
I1218 14:29:04.957593 40060 layer_factory.hpp:77] Creating layer conv3_1
I1218 14:29:04.957609 40060 net.cpp:100] Creating Layer conv3_1
I1218 14:29:04.957617 40060 net.cpp:434] conv3_1 <- res2_5
I1218 14:29:04.957624 40060 net.cpp:408] conv3_1 -> conv3_1
I1218 14:29:04.961351 40060 net.cpp:150] Setting up conv3_1
I1218 14:29:04.961371 40060 net.cpp:157] Top shape: 64 256 20 20 (6553600)
I1218 14:29:04.961378 40060 net.cpp:165] Memory required for data: 1805009664
I1218 14:29:04.961386 40060 layer_factory.hpp:77] Creating layer relu3_1
I1218 14:29:04.961397 40060 net.cpp:100] Creating Layer relu3_1
I1218 14:29:04.961405 40060 net.cpp:434] relu3_1 <- conv3_1
I1218 14:29:04.961411 40060 net.cpp:395] relu3_1 -> conv3_1 (in-place)
I1218 14:29:04.961550 40060 net.cpp:150] Setting up relu3_1
I1218 14:29:04.961565 40060 net.cpp:157] Top shape: 64 256 20 20 (6553600)
I1218 14:29:04.961570 40060 net.cpp:165] Memory required for data: 1831224064
I1218 14:29:04.961577 40060 layer_factory.hpp:77] Creating layer conv3_1_relu3_1_0_split
I1218 14:29:04.961586 40060 net.cpp:100] Creating Layer conv3_1_relu3_1_0_split
I1218 14:29:04.961592 40060 net.cpp:434] conv3_1_relu3_1_0_split <- conv3_1
I1218 14:29:04.961602 40060 net.cpp:408] conv3_1_relu3_1_0_split -> conv3_1_relu3_1_0_split_0
I1218 14:29:04.961611 40060 net.cpp:408] conv3_1_relu3_1_0_split -> conv3_1_relu3_1_0_split_1
I1218 14:29:04.961647 40060 net.cpp:150] Setting up conv3_1_relu3_1_0_split
I1218 14:29:04.961658 40060 net.cpp:157] Top shape: 64 256 20 20 (6553600)
I1218 14:29:04.961665 40060 net.cpp:157] Top shape: 64 256 20 20 (6553600)
I1218 14:29:04.961670 40060 net.cpp:165] Memory required for data: 1883652864
I1218 14:29:04.961676 40060 layer_factory.hpp:77] Creating layer conv3_2
I1218 14:29:04.961690 40060 net.cpp:100] Creating Layer conv3_2
I1218 14:29:04.961699 40060 net.cpp:434] conv3_2 <- conv3_1_relu3_1_0_split_0
I1218 14:29:04.961707 40060 net.cpp:408] conv3_2 -> conv3_2
I1218 14:29:04.976179 40060 net.cpp:150] Setting up conv3_2
I1218 14:29:04.976202 40060 net.cpp:157] Top shape: 64 256 20 20 (6553600)
I1218 14:29:04.976208 40060 net.cpp:165] Memory required for data: 1909867264
I1218 14:29:04.976217 40060 layer_factory.hpp:77] Creating layer relu3_2
I1218 14:29:04.976225 40060 net.cpp:100] Creating Layer relu3_2
I1218 14:29:04.976233 40060 net.cpp:434] relu3_2 <- conv3_2
I1218 14:29:04.976241 40060 net.cpp:395] relu3_2 -> conv3_2 (in-place)
I1218 14:29:04.976380 40060 net.cpp:150] Setting up relu3_2
I1218 14:29:04.976394 40060 net.cpp:157] Top shape: 64 256 20 20 (6553600)
I1218 14:29:04.976400 40060 net.cpp:165] Memory required for data: 1936081664
I1218 14:29:04.976408 40060 layer_factory.hpp:77] Creating layer conv3_3
I1218 14:29:04.976433 40060 net.cpp:100] Creating Layer conv3_3
I1218 14:29:04.976439 40060 net.cpp:434] conv3_3 <- conv3_2
I1218 14:29:04.976449 40060 net.cpp:408] conv3_3 -> conv3_3
I1218 14:29:04.990890 40060 net.cpp:150] Setting up conv3_3
I1218 14:29:04.990911 40060 net.cpp:157] Top shape: 64 256 20 20 (6553600)
I1218 14:29:04.990918 40060 net.cpp:165] Memory required for data: 1962296064
I1218 14:29:04.990926 40060 layer_factory.hpp:77] Creating layer relu3_3
I1218 14:29:04.990937 40060 net.cpp:100] Creating Layer relu3_3
I1218 14:29:04.990944 40060 net.cpp:434] relu3_3 <- conv3_3
I1218 14:29:04.990959 40060 net.cpp:395] relu3_3 -> conv3_3 (in-place)
I1218 14:29:04.991101 40060 net.cpp:150] Setting up relu3_3
I1218 14:29:04.991113 40060 net.cpp:157] Top shape: 64 256 20 20 (6553600)
I1218 14:29:04.991120 40060 net.cpp:165] Memory required for data: 1988510464
I1218 14:29:04.991133 40060 layer_factory.hpp:77] Creating layer res3_3
I1218 14:29:04.991142 40060 net.cpp:100] Creating Layer res3_3
I1218 14:29:04.991149 40060 net.cpp:434] res3_3 <- conv3_1_relu3_1_0_split_1
I1218 14:29:04.991158 40060 net.cpp:434] res3_3 <- conv3_3
I1218 14:29:04.991166 40060 net.cpp:408] res3_3 -> res3_3
I1218 14:29:04.991191 40060 net.cpp:150] Setting up res3_3
I1218 14:29:04.991202 40060 net.cpp:157] Top shape: 64 256 20 20 (6553600)
I1218 14:29:04.991207 40060 net.cpp:165] Memory required for data: 2014724864
I1218 14:29:04.991214 40060 layer_factory.hpp:77] Creating layer res3_3_res3_3_0_split
I1218 14:29:04.991225 40060 net.cpp:100] Creating Layer res3_3_res3_3_0_split
I1218 14:29:04.991232 40060 net.cpp:434] res3_3_res3_3_0_split <- res3_3
I1218 14:29:04.991241 40060 net.cpp:408] res3_3_res3_3_0_split -> res3_3_res3_3_0_split_0
I1218 14:29:04.991250 40060 net.cpp:408] res3_3_res3_3_0_split -> res3_3_res3_3_0_split_1
I1218 14:29:04.991283 40060 net.cpp:150] Setting up res3_3_res3_3_0_split
I1218 14:29:04.991295 40060 net.cpp:157] Top shape: 64 256 20 20 (6553600)
I1218 14:29:04.991302 40060 net.cpp:157] Top shape: 64 256 20 20 (6553600)
I1218 14:29:04.991308 40060 net.cpp:165] Memory required for data: 2067153664
I1218 14:29:04.991313 40060 layer_factory.hpp:77] Creating layer conv3_4
I1218 14:29:04.991327 40060 net.cpp:100] Creating Layer conv3_4
I1218 14:29:04.991333 40060 net.cpp:434] conv3_4 <- res3_3_res3_3_0_split_0
I1218 14:29:04.991341 40060 net.cpp:408] conv3_4 -> conv3_4
I1218 14:29:05.005726 40060 net.cpp:150] Setting up conv3_4
I1218 14:29:05.005764 40060 net.cpp:157] Top shape: 64 256 20 20 (6553600)
I1218 14:29:05.005770 40060 net.cpp:165] Memory required for data: 2093368064
I1218 14:29:05.005782 40060 layer_factory.hpp:77] Creating layer relu3_4
I1218 14:29:05.005791 40060 net.cpp:100] Creating Layer relu3_4
I1218 14:29:05.005798 40060 net.cpp:434] relu3_4 <- conv3_4
I1218 14:29:05.005805 40060 net.cpp:395] relu3_4 -> conv3_4 (in-place)
I1218 14:29:05.005939 40060 net.cpp:150] Setting up relu3_4
I1218 14:29:05.005952 40060 net.cpp:157] Top shape: 64 256 20 20 (6553600)
I1218 14:29:05.005959 40060 net.cpp:165] Memory required for data: 2119582464
I1218 14:29:05.005965 40060 layer_factory.hpp:77] Creating layer conv3_5
I1218 14:29:05.005980 40060 net.cpp:100] Creating Layer conv3_5
I1218 14:29:05.005987 40060 net.cpp:434] conv3_5 <- conv3_4
I1218 14:29:05.005995 40060 net.cpp:408] conv3_5 -> conv3_5
I1218 14:29:05.020404 40060 net.cpp:150] Setting up conv3_5
I1218 14:29:05.020426 40060 net.cpp:157] Top shape: 64 256 20 20 (6553600)
I1218 14:29:05.020432 40060 net.cpp:165] Memory required for data: 2145796864
I1218 14:29:05.020440 40060 layer_factory.hpp:77] Creating layer relu3_5
I1218 14:29:05.020449 40060 net.cpp:100] Creating Layer relu3_5
I1218 14:29:05.020457 40060 net.cpp:434] relu3_5 <- conv3_5
I1218 14:29:05.020465 40060 net.cpp:395] relu3_5 -> conv3_5 (in-place)
I1218 14:29:05.020632 40060 net.cpp:150] Setting up relu3_5
I1218 14:29:05.020645 40060 net.cpp:157] Top shape: 64 256 20 20 (6553600)
I1218 14:29:05.020651 40060 net.cpp:165] Memory required for data: 2172011264
I1218 14:29:05.020669 40060 layer_factory.hpp:77] Creating layer res3_5
I1218 14:29:05.020681 40060 net.cpp:100] Creating Layer res3_5
I1218 14:29:05.020689 40060 net.cpp:434] res3_5 <- res3_3_res3_3_0_split_1
I1218 14:29:05.020697 40060 net.cpp:434] res3_5 <- conv3_5
I1218 14:29:05.020705 40060 net.cpp:408] res3_5 -> res3_5
I1218 14:29:05.020733 40060 net.cpp:150] Setting up res3_5
I1218 14:29:05.020743 40060 net.cpp:157] Top shape: 64 256 20 20 (6553600)
I1218 14:29:05.020750 40060 net.cpp:165] Memory required for data: 2198225664
I1218 14:29:05.020756 40060 layer_factory.hpp:77] Creating layer res3_5_res3_5_0_split
I1218 14:29:05.020766 40060 net.cpp:100] Creating Layer res3_5_res3_5_0_split
I1218 14:29:05.020771 40060 net.cpp:434] res3_5_res3_5_0_split <- res3_5
I1218 14:29:05.020778 40060 net.cpp:408] res3_5_res3_5_0_split -> res3_5_res3_5_0_split_0
I1218 14:29:05.020792 40060 net.cpp:408] res3_5_res3_5_0_split -> res3_5_res3_5_0_split_1
I1218 14:29:05.020826 40060 net.cpp:150] Setting up res3_5_res3_5_0_split
I1218 14:29:05.020838 40060 net.cpp:157] Top shape: 64 256 20 20 (6553600)
I1218 14:29:05.020845 40060 net.cpp:157] Top shape: 64 256 20 20 (6553600)
I1218 14:29:05.020850 40060 net.cpp:165] Memory required for data: 2250654464
I1218 14:29:05.020856 40060 layer_factory.hpp:77] Creating layer conv3_6
I1218 14:29:05.020871 40060 net.cpp:100] Creating Layer conv3_6
I1218 14:29:05.020879 40060 net.cpp:434] conv3_6 <- res3_5_res3_5_0_split_0
I1218 14:29:05.020887 40060 net.cpp:408] conv3_6 -> conv3_6
I1218 14:29:05.035388 40060 net.cpp:150] Setting up conv3_6
I1218 14:29:05.035425 40060 net.cpp:157] Top shape: 64 256 20 20 (6553600)
I1218 14:29:05.035432 40060 net.cpp:165] Memory required for data: 2276868864
I1218 14:29:05.035441 40060 layer_factory.hpp:77] Creating layer relu3_6
I1218 14:29:05.035452 40060 net.cpp:100] Creating Layer relu3_6
I1218 14:29:05.035459 40060 net.cpp:434] relu3_6 <- conv3_6
I1218 14:29:05.035467 40060 net.cpp:395] relu3_6 -> conv3_6 (in-place)
I1218 14:29:05.035636 40060 net.cpp:150] Setting up relu3_6
I1218 14:29:05.035650 40060 net.cpp:157] Top shape: 64 256 20 20 (6553600)
I1218 14:29:05.035656 40060 net.cpp:165] Memory required for data: 2303083264
I1218 14:29:05.035665 40060 layer_factory.hpp:77] Creating layer conv3_7
I1218 14:29:05.035677 40060 net.cpp:100] Creating Layer conv3_7
I1218 14:29:05.035684 40060 net.cpp:434] conv3_7 <- conv3_6
I1218 14:29:05.035696 40060 net.cpp:408] conv3_7 -> conv3_7
I1218 14:29:05.050235 40060 net.cpp:150] Setting up conv3_7
I1218 14:29:05.050271 40060 net.cpp:157] Top shape: 64 256 20 20 (6553600)
I1218 14:29:05.050278 40060 net.cpp:165] Memory required for data: 2329297664
I1218 14:29:05.050288 40060 layer_factory.hpp:77] Creating layer relu3_7
I1218 14:29:05.050299 40060 net.cpp:100] Creating Layer relu3_7
I1218 14:29:05.050307 40060 net.cpp:434] relu3_7 <- conv3_7
I1218 14:29:05.050314 40060 net.cpp:395] relu3_7 -> conv3_7 (in-place)
I1218 14:29:05.051486 40060 net.cpp:150] Setting up relu3_7
I1218 14:29:05.051506 40060 net.cpp:157] Top shape: 64 256 20 20 (6553600)
I1218 14:29:05.051512 40060 net.cpp:165] Memory required for data: 2355512064
I1218 14:29:05.051520 40060 layer_factory.hpp:77] Creating layer res3_7
I1218 14:29:05.051529 40060 net.cpp:100] Creating Layer res3_7
I1218 14:29:05.051537 40060 net.cpp:434] res3_7 <- res3_5_res3_5_0_split_1
I1218 14:29:05.051543 40060 net.cpp:434] res3_7 <- conv3_7
I1218 14:29:05.051550 40060 net.cpp:408] res3_7 -> res3_7
I1218 14:29:05.051579 40060 net.cpp:150] Setting up res3_7
I1218 14:29:05.051589 40060 net.cpp:157] Top shape: 64 256 20 20 (6553600)
I1218 14:29:05.051594 40060 net.cpp:165] Memory required for data: 2381726464
I1218 14:29:05.051600 40060 layer_factory.hpp:77] Creating layer res3_7_res3_7_0_split
I1218 14:29:05.051626 40060 net.cpp:100] Creating Layer res3_7_res3_7_0_split
I1218 14:29:05.051643 40060 net.cpp:434] res3_7_res3_7_0_split <- res3_7
I1218 14:29:05.051651 40060 net.cpp:408] res3_7_res3_7_0_split -> res3_7_res3_7_0_split_0
I1218 14:29:05.051659 40060 net.cpp:408] res3_7_res3_7_0_split -> res3_7_res3_7_0_split_1
I1218 14:29:05.051712 40060 net.cpp:150] Setting up res3_7_res3_7_0_split
I1218 14:29:05.051722 40060 net.cpp:157] Top shape: 64 256 20 20 (6553600)
I1218 14:29:05.051728 40060 net.cpp:157] Top shape: 64 256 20 20 (6553600)
I1218 14:29:05.051734 40060 net.cpp:165] Memory required for data: 2434155264
I1218 14:29:05.051739 40060 layer_factory.hpp:77] Creating layer conv3_8
I1218 14:29:05.051753 40060 net.cpp:100] Creating Layer conv3_8
I1218 14:29:05.051760 40060 net.cpp:434] conv3_8 <- res3_7_res3_7_0_split_0
I1218 14:29:05.051769 40060 net.cpp:408] conv3_8 -> conv3_8
I1218 14:29:05.066359 40060 net.cpp:150] Setting up conv3_8
I1218 14:29:05.066396 40060 net.cpp:157] Top shape: 64 256 20 20 (6553600)
I1218 14:29:05.066403 40060 net.cpp:165] Memory required for data: 2460369664
I1218 14:29:05.066413 40060 layer_factory.hpp:77] Creating layer relu3_8
I1218 14:29:05.066424 40060 net.cpp:100] Creating Layer relu3_8
I1218 14:29:05.066432 40060 net.cpp:434] relu3_8 <- conv3_8
I1218 14:29:05.066439 40060 net.cpp:395] relu3_8 -> conv3_8 (in-place)
I1218 14:29:05.066579 40060 net.cpp:150] Setting up relu3_8
I1218 14:29:05.066594 40060 net.cpp:157] Top shape: 64 256 20 20 (6553600)
I1218 14:29:05.066601 40060 net.cpp:165] Memory required for data: 2486584064
I1218 14:29:05.066608 40060 layer_factory.hpp:77] Creating layer conv3_9
I1218 14:29:05.066622 40060 net.cpp:100] Creating Layer conv3_9
I1218 14:29:05.066629 40060 net.cpp:434] conv3_9 <- conv3_8
I1218 14:29:05.066639 40060 net.cpp:408] conv3_9 -> conv3_9
I1218 14:29:05.081086 40060 net.cpp:150] Setting up conv3_9
I1218 14:29:05.081107 40060 net.cpp:157] Top shape: 64 256 20 20 (6553600)
I1218 14:29:05.081113 40060 net.cpp:165] Memory required for data: 2512798464
I1218 14:29:05.081125 40060 layer_factory.hpp:77] Creating layer relu3_9
I1218 14:29:05.081135 40060 net.cpp:100] Creating Layer relu3_9
I1218 14:29:05.081140 40060 net.cpp:434] relu3_9 <- conv3_9
I1218 14:29:05.081148 40060 net.cpp:395] relu3_9 -> conv3_9 (in-place)
I1218 14:29:05.081293 40060 net.cpp:150] Setting up relu3_9
I1218 14:29:05.081318 40060 net.cpp:157] Top shape: 64 256 20 20 (6553600)
I1218 14:29:05.081326 40060 net.cpp:165] Memory required for data: 2539012864
I1218 14:29:05.081332 40060 layer_factory.hpp:77] Creating layer res3_9
I1218 14:29:05.081341 40060 net.cpp:100] Creating Layer res3_9
I1218 14:29:05.081347 40060 net.cpp:434] res3_9 <- res3_7_res3_7_0_split_1
I1218 14:29:05.081354 40060 net.cpp:434] res3_9 <- conv3_9
I1218 14:29:05.081363 40060 net.cpp:408] res3_9 -> res3_9
I1218 14:29:05.081390 40060 net.cpp:150] Setting up res3_9
I1218 14:29:05.081400 40060 net.cpp:157] Top shape: 64 256 20 20 (6553600)
I1218 14:29:05.081405 40060 net.cpp:165] Memory required for data: 2565227264
I1218 14:29:05.081411 40060 layer_factory.hpp:77] Creating layer conv4_1
I1218 14:29:05.081425 40060 net.cpp:100] Creating Layer conv4_1
I1218 14:29:05.081434 40060 net.cpp:434] conv4_1 <- res3_9
I1218 14:29:05.081441 40060 net.cpp:408] conv4_1 -> conv4_1
I1218 14:29:05.088390 40060 net.cpp:150] Setting up conv4_1
I1218 14:29:05.088426 40060 net.cpp:157] Top shape: 64 512 10 10 (3276800)
I1218 14:29:05.088433 40060 net.cpp:165] Memory required for data: 2578334464
I1218 14:29:05.088443 40060 layer_factory.hpp:77] Creating layer relu4_1
I1218 14:29:05.088454 40060 net.cpp:100] Creating Layer relu4_1
I1218 14:29:05.088461 40060 net.cpp:434] relu4_1 <- conv4_1
I1218 14:29:05.088469 40060 net.cpp:395] relu4_1 -> conv4_1 (in-place)
I1218 14:29:05.088600 40060 net.cpp:150] Setting up relu4_1
I1218 14:29:05.088614 40060 net.cpp:157] Top shape: 64 512 10 10 (3276800)
I1218 14:29:05.088621 40060 net.cpp:165] Memory required for data: 2591441664
I1218 14:29:05.088629 40060 layer_factory.hpp:77] Creating layer conv4_1_relu4_1_0_split
I1218 14:29:05.088639 40060 net.cpp:100] Creating Layer conv4_1_relu4_1_0_split
I1218 14:29:05.088644 40060 net.cpp:434] conv4_1_relu4_1_0_split <- conv4_1
I1218 14:29:05.088652 40060 net.cpp:408] conv4_1_relu4_1_0_split -> conv4_1_relu4_1_0_split_0
I1218 14:29:05.088671 40060 net.cpp:408] conv4_1_relu4_1_0_split -> conv4_1_relu4_1_0_split_1
I1218 14:29:05.088712 40060 net.cpp:150] Setting up conv4_1_relu4_1_0_split
I1218 14:29:05.088722 40060 net.cpp:157] Top shape: 64 512 10 10 (3276800)
I1218 14:29:05.088729 40060 net.cpp:157] Top shape: 64 512 10 10 (3276800)
I1218 14:29:05.088734 40060 net.cpp:165] Memory required for data: 2617656064
I1218 14:29:05.088740 40060 layer_factory.hpp:77] Creating layer conv4_2
I1218 14:29:05.088753 40060 net.cpp:100] Creating Layer conv4_2
I1218 14:29:05.088760 40060 net.cpp:434] conv4_2 <- conv4_1_relu4_1_0_split_0
I1218 14:29:05.088773 40060 net.cpp:408] conv4_2 -> conv4_2
I1218 14:29:05.139250 40060 net.cpp:150] Setting up conv4_2
I1218 14:29:05.139271 40060 net.cpp:157] Top shape: 64 512 10 10 (3276800)
I1218 14:29:05.139278 40060 net.cpp:165] Memory required for data: 2630763264
I1218 14:29:05.139286 40060 layer_factory.hpp:77] Creating layer relu4_2
I1218 14:29:05.139297 40060 net.cpp:100] Creating Layer relu4_2
I1218 14:29:05.139304 40060 net.cpp:434] relu4_2 <- conv4_2
I1218 14:29:05.139313 40060 net.cpp:395] relu4_2 -> conv4_2 (in-place)
I1218 14:29:05.139457 40060 net.cpp:150] Setting up relu4_2
I1218 14:29:05.139472 40060 net.cpp:157] Top shape: 64 512 10 10 (3276800)
I1218 14:29:05.139477 40060 net.cpp:165] Memory required for data: 2643870464
I1218 14:29:05.139484 40060 layer_factory.hpp:77] Creating layer conv4_3
I1218 14:29:05.139497 40060 net.cpp:100] Creating Layer conv4_3
I1218 14:29:05.139504 40060 net.cpp:434] conv4_3 <- conv4_2
I1218 14:29:05.139514 40060 net.cpp:408] conv4_3 -> conv4_3
I1218 14:29:05.189720 40060 net.cpp:150] Setting up conv4_3
I1218 14:29:05.189743 40060 net.cpp:157] Top shape: 64 512 10 10 (3276800)
I1218 14:29:05.189749 40060 net.cpp:165] Memory required for data: 2656977664
I1218 14:29:05.189759 40060 layer_factory.hpp:77] Creating layer relu4_3
I1218 14:29:05.189769 40060 net.cpp:100] Creating Layer relu4_3
I1218 14:29:05.189776 40060 net.cpp:434] relu4_3 <- conv4_3
I1218 14:29:05.189784 40060 net.cpp:395] relu4_3 -> conv4_3 (in-place)
I1218 14:29:05.189921 40060 net.cpp:150] Setting up relu4_3
I1218 14:29:05.189934 40060 net.cpp:157] Top shape: 64 512 10 10 (3276800)
I1218 14:29:05.189940 40060 net.cpp:165] Memory required for data: 2670084864
I1218 14:29:05.189947 40060 layer_factory.hpp:77] Creating layer res4_3
I1218 14:29:05.189959 40060 net.cpp:100] Creating Layer res4_3
I1218 14:29:05.189965 40060 net.cpp:434] res4_3 <- conv4_1_relu4_1_0_split_1
I1218 14:29:05.189971 40060 net.cpp:434] res4_3 <- conv4_3
I1218 14:29:05.189983 40060 net.cpp:408] res4_3 -> res4_3
I1218 14:29:05.190011 40060 net.cpp:150] Setting up res4_3
I1218 14:29:05.190022 40060 net.cpp:157] Top shape: 64 512 10 10 (3276800)
I1218 14:29:05.190027 40060 net.cpp:165] Memory required for data: 2683192064
I1218 14:29:05.190033 40060 layer_factory.hpp:77] Creating layer fc5
I1218 14:29:05.190047 40060 net.cpp:100] Creating Layer fc5
I1218 14:29:05.190053 40060 net.cpp:434] fc5 <- res4_3
I1218 14:29:05.190063 40060 net.cpp:408] fc5 -> fc5
I1218 14:29:05.329524 40060 net.cpp:150] Setting up fc5
I1218 14:29:05.329591 40060 net.cpp:157] Top shape: 64 512 (32768)
I1218 14:29:05.329598 40060 net.cpp:165] Memory required for data: 2683323136
I1218 14:29:05.329612 40060 layer_factory.hpp:77] Creating layer fc5_fc5_0_split
I1218 14:29:05.329627 40060 net.cpp:100] Creating Layer fc5_fc5_0_split
I1218 14:29:05.329635 40060 net.cpp:434] fc5_fc5_0_split <- fc5
I1218 14:29:05.329651 40060 net.cpp:408] fc5_fc5_0_split -> fc5_fc5_0_split_0
I1218 14:29:05.329663 40060 net.cpp:408] fc5_fc5_0_split -> fc5_fc5_0_split_1
I1218 14:29:05.329704 40060 net.cpp:150] Setting up fc5_fc5_0_split
I1218 14:29:05.329715 40060 net.cpp:157] Top shape: 64 512 (32768)
I1218 14:29:05.329721 40060 net.cpp:157] Top shape: 64 512 (32768)
I1218 14:29:05.329726 40060 net.cpp:165] Memory required for data: 2683585280
I1218 14:29:05.329732 40060 layer_factory.hpp:77] Creating layer fc6
I1218 14:29:05.329746 40060 net.cpp:100] Creating Layer fc6
I1218 14:29:05.329751 40060 net.cpp:434] fc6 <- fc5_fc5_0_split_0
I1218 14:29:05.329808 40060 net.cpp:408] fc6 -> fc6
I1218 14:29:05.658308 40060 net.cpp:150] Setting up fc6
I1218 14:29:05.658382 40060 net.cpp:157] Top shape: 64 121039 (7746496)
I1218 14:29:05.658390 40060 net.cpp:165] Memory required for data: 2714571264
I1218 14:29:05.658403 40060 layer_factory.hpp:77] Creating layer softmax_loss
I1218 14:29:05.658416 40060 net.cpp:100] Creating Layer softmax_loss
I1218 14:29:05.658427 40060 net.cpp:434] softmax_loss <- fc6
I1218 14:29:05.658435 40060 net.cpp:434] softmax_loss <- label_data_1_split_0
I1218 14:29:05.658448 40060 net.cpp:408] softmax_loss -> softmax_loss
…
I1218 14:29:06.006975 40060 net.cpp:322] The NetState phase (1) differed from the phase (0) specified by a rule in layer data
I1218 14:29:06.007272 40060 net.cpp:58] Initializing net from parameters: 
state {
  phase: TEST
}
layer {
  name: "data"
  type: "Data"
  top: "data"
  top: "label"
  include {
    phase: TEST
  }
  transform_param {
    scale: 0.0078125
    mirror: true
    mean_value: 127.5
    mean_value: 127.5
    mean_value: 127.5
  }
  data_param {
    source: "/data/zeng/webface_160x160_val_lmdb"
    batch_size: 16
    backend: LMDB
  }
}
layer {
  name: "conv1_1"
  type: "Convolution"
  bottom: "data"
  top: "conv1_1"
  param {
    lr_mult: 1
    decay_mult: 1
  }
  param {
    lr_mult: 2
    decay_mult: 0
  }
  convolution_param {
    num_output: 64
    pad: 1
    kernel_size: 6
    stride: 2
    weight_filler {
      type: "xavier"
    }
    bias_filler {
      type: "constant"
      value: 0
    }
  }
}
layer {
  name: "relu1_1"
  type: "PReLU"
  bottom: "conv1_1"
  top: "conv1_1"
}
layer {
  name: "conv1_2"
  type: "Convolution"
  bottom: "conv1_1"
  top: "conv1_2"
  param {
    lr_mult: 1
    decay_mult: 1
  }
  param {
    lr_mult: 0
    decay_mult: 0
  }
  convolution_param {
    num_output: 64
    pad: 1
    kernel_size: 3
    stride: 1
    weight_filler {
      type: "gaussian"
      std: 0.01
    }
    bias_filler {
      type: "constant"
      value: 0
    }
  }
}
layer {
  name: "relu1_2"
  type: "PReLU"
  bottom: "conv1_2"
  top: "conv1_2"
}
layer {
  name: "conv1_3"
  type: "Convolution"
  bottom: "conv1_2"
  top: "conv1_3"
  param {
    lr_mult: 1
    decay_mult: 1
  }
  param {
    lr_mult: 0
    decay_mult: 0
  }
  convolution_param {
    num_output: 64
    pad: 1
    kernel_size: 3
    stride: 1
    weight_filler {
      type: "gaussian"
      std: 0.01
    }
    bias_filler {
      type: "constant"
      value: 0
    }
  }
}
layer {
  name: "relu1_3"
  type: "PReLU"
  bottom: "conv1_3"
  top: "conv1_3"
}
layer {
  name: "res1_3"
  type: "Eltwise"
  bottom: "conv1_1"
  bottom: "conv1_3"
  top: "res1_3"
  eltwise_param {
    operation: SUM
  }
}
layer {
  name: "conv2_1"
  type: "Convolution"
  bottom: "res1_3"
  top: "conv2_1"
  param {
    lr_mult: 1
    decay_mult: 1
  }
  param {
    lr_mult: 2
    decay_mult: 0
  }
  convolution_param {
    num_output: 128
    pad: 1
    kernel_size: 3
    stride: 2
    weight_filler {
      type: "xavier"
    }
    bias_filler {
      type: "constant"
      value: 0
    }
  }
}
layer {
  name: "relu2_1"
  type: "PReLU"
  bottom: "conv2_1"
  top: "conv2_1"
}
layer {
  name: "conv2_2"
  type: "Convolution"
  bottom: "conv2_1"
  top: "conv2_2"
  param {
    lr_mult: 1
    decay_mult: 1
  }
  param {
    lr_mult: 0
    decay_mult: 0
  }
  convolution_param {
    num_output: 128
    pad: 1
    kernel_size: 3
    stride: 1
    weight_filler {
      type: "gaussian"
      std: 0.01
    }
    bias_filler {
      type: "constant"
      value: 0
    }
  }
}
layer {
  name: "relu2_2"
  type: "PReLU"
  bottom: "conv2_2"
  top: "conv2_2"
}
layer {
  name: "conv2_3"
  type: "Convolution"
  bottom: "conv2_2"
  top: "conv2_3"
  param {
    lr_mult: 1
    decay_mult: 1
  }
  param {
    lr_mult: 0
    decay_mult: 0
  }
  convolution_param {
    num_output: 128
    pad: 1
    kernel_size: 3
    stride: 1
    weight_filler {
      type: "gaussian"
      std: 0.01
    }
    bias_filler {
      type: "constant"
      value: 0
    }
  }
}
layer {
  name: "relu2_3"
  type: "PReLU"
  bottom: "conv2_3"
  top: "conv2_3"
}
layer {
  name: "res2_3"
  type: "Eltwise"
  bottom: "conv2_1"
  bottom: "conv2_3"
  top: "res2_3"
  eltwise_param {
    operation: SUM
  }
}
layer {
  name: "conv2_4"
  type: "Convolution"
  bottom: "res2_3"
  top: "conv2_4"
  param {
    lr_mult: 1
    decay_mult: 1
  }
  param {
    lr_mult: 0
    decay_mult: 0
  }
  convolution_param {
    num_output: 128
    pad: 1
    kernel_size: 3
    stride: 1
    weight_filler {
      type: "gaussian"
      std: 0.01
    }
    bias_filler {
      type: "constant"
      value: 0
    }
  }
}
layer {
  name: "relu2_4"
  type: "PReLU"
  bottom: "conv2_4"
  top: "conv2_4"
}
layer {
  name: "conv2_5"
  type: "Convolution"
  bottom: "conv2_4"
  top: "conv2_5"
  param {
    lr_mult: 1
    decay_mult: 1
  }
  param {
    lr_mult: 0
    decay_mult: 0
  }
  convolution_param {
    num_output: 128
    pad: 1
    kernel_size: 3
    stride: 1
    weight_filler {
      type: "gaussian"
      std: 0.01
    }
    bias_filler {
      type: "constant"
      value: 0
    }
  }
}
layer {
  name: "relu2_5"
  type: "PReLU"
  bottom: "conv2_5"
  top: "conv2_5"
}
layer {
  name: "res2_5"
  type: "Eltwise"
  bottom: "res2_3"
  bottom: "conv2_5"
  top: "res2_5"
  eltwise_param {
    operation: SUM
  }
}
layer {
  name: "conv3_1"
  type: "Convolution"
  bottom: "res2_5"
  top: "conv3_1"
  param {
    lr_mult: 1
    decay_mult: 1
  }
  param {
    lr_mult: 2
    decay_mult: 0
  }
  convolution_param {
    num_output: 256
    pad: 1
    kernel_size: 3
    stride: 2
    weight_filler {
      type: "xavier"
    }
    bias_filler {
      type: "constant"
      value: 0
    }
  }
}
layer {
  name: "relu3_1"
  type: "PReLU"
  bottom: "conv3_1"
  top: "conv3_1"
}
layer {
  name: "conv3_2"
  type: "Convolution"
  bottom: "conv3_1"
  top: "conv3_2"
  param {
    lr_mult: 1
    decay_mult: 1
  }
  param {
    lr_mult: 0
    decay_mult: 0
  }
  convolution_param {
    num_output: 256
    pad: 1
    kernel_size: 3
    stride: 1
    weight_filler {
      type: "gaussian"
      std: 0.01
    }
    bias_filler {
      type: "constant"
      value: 0
    }
  }
}
layer {
  name: "relu3_2"
  type: "PReLU"
  bottom: "conv3_2"
  top: "conv3_2"
}
layer {
  name: "conv3_3"
  type: "Convolution"
  bottom: "conv3_2"
  top: "conv3_3"
  param {
    lr_mult: 1
    decay_mult: 1
  }
  param {
    lr_mult: 0
    decay_mult: 0
  }
  convolution_param {
    num_output: 256
    pad: 1
    kernel_size: 3
    stride: 1
    weight_filler {
      type: "gaussian"
      std: 0.01
    }
    bias_filler {
      type: "constant"
      value: 0
    }
  }
}
layer {
  name: "relu3_3"
  type: "PReLU"
  bottom: "conv3_3"
  top: "conv3_3"
}
layer {
  name: "res3_3"
  type: "Eltwise"
  bottom: "conv3_1"
  bottom: "conv3_3"
  top: "res3_3"
  eltwise_param {
    operation: SUM
  }
}
layer {
  name: "conv3_4"
  type: "Convolution"
  bottom: "res3_3"
  top: "conv3_4"
  param {
    lr_mult: 1
    decay_mult: 1
  }
  param {
    lr_mult: 0
    decay_mult: 0
  }
  convolution_param {
    num_output: 256
    pad: 1
    kernel_size: 3
    stride: 1
    weight_filler {
      type: "gaussian"
      std: 0.01
    }
    bias_filler {
      type: "constant"
      value: 0
    }
  }
}
layer {
  name: "relu3_4"
  type: "PReLU"
  bottom: "conv3_4"
  top: "conv3_4"
}
layer {
  name: "conv3_5"
  type: "Convolution"
  bottom: "conv3_4"
  top: "conv3_5"
  param {
    lr_mult: 1
    decay_mult: 1
  }
  param {
    lr_mult: 0
    decay_mult: 0
  }
  convolution_param {
    num_output: 256
    pad: 1
    kernel_size: 3
    stride: 1
    weight_filler {
      type: "gaussian"
      std: 0.01
    }
    bias_filler {
      type: "constant"
      value: 0
    }
  }
}
layer {
  name: "relu3_5"
  type: "PReLU"
  bottom: "conv3_5"
  top: "conv3_5"
}
layer {
  name: "res3_5"
  type: "Eltwise"
  bottom: "res3_3"
  bottom: "conv3_5"
  top: "res3_5"
  eltwise_param {
    operation: SUM
  }
}
layer {
  name: "conv3_6"
  type: "Convolution"
  bottom: "res3_5"
  top: "conv3_6"
  param {
    lr_mult: 1
    decay_mult: 1
  }
  param {
    lr_mult: 0
    decay_mult: 0
  }
  convolution_param {
    num_output: 256
    pad: 1
    kernel_size: 3
    stride: 1
    weight_filler {
      type: "gaussian"
      std: 0.01
    }
    bias_filler {
      type: "constant"
      value: 0
    }
  }
}
layer {
  name: "relu3_6"
  type: "PReLU"
  bottom: "conv3_6"
  top: "conv3_6"
}
layer {
  name: "conv3_7"
  type: "Convolution"
  bottom: "conv3_6"
  top: "conv3_7"
  param {
    lr_mult: 1
    decay_mult: 1
  }
  param {
    lr_mult: 0
    decay_mult: 0
  }
  convolution_param {
    num_output: 256
    pad: 1
    kernel_size: 3
    stride: 1
    weight_filler {
      type: "gaussian"
      std: 0.01
    }
    bias_filler {
      type: "constant"
      value: 0
    }
  }
}
layer {
  name: "relu3_7"
  type: "PReLU"
  bottom: "conv3_7"
  top: "conv3_7"
}
layer {
  name: "res3_7"
  type: "Eltwise"
  bottom: "res3_5"
  bottom: "conv3_7"
  top: "res3_7"
  eltwise_param {
    operation: SUM
  }
}
layer {
  name: "conv3_8"
  type: "Convolution"
  bottom: "res3_7"
  top: "conv3_8"
  param {
    lr_mult: 1
    decay_mult: 1
  }
  param {
    lr_mult: 0
    decay_mult: 0
  }
  convolution_param {
    num_output: 256
    pad: 1
    kernel_size: 3
    stride: 1
    weight_filler {
      type: "gaussian"
      std: 0.01
    }
    bias_filler {
      type: "constant"
      value: 0
    }
  }
}
layer {
  name: "relu3_8"
  type: "PReLU"
  bottom: "conv3_8"
  top: "conv3_8"
}
layer {
  name: "conv3_9"
  type: "Convolution"
  bottom: "conv3_8"
  top: "conv3_9"
  param {
    lr_mult: 1
    decay_mult: 1
  }
  param {
    lr_mult: 0
    decay_mult: 0
  }
  convolution_param {
    num_output: 256
    pad: 1
    kernel_size: 3
    stride: 1
    weight_filler {
      type: "gaussian"
      std: 0.01
    }
    bias_filler {
      type: "constant"
      value: 0
    }
  }
}
layer {
  name: "relu3_9"
  type: "PReLU"
  bottom: "conv3_9"
  top: "conv3_9"
}
layer {
  name: "res3_9"
  type: "Eltwise"
  bottom: "res3_7"
  bottom: "conv3_9"
  top: "res3_9"
  eltwise_param {
    operation: SUM
  }
}
layer {
  name: "conv4_1"
  type: "Convolution"
  bottom: "res3_9"
  top: "conv4_1"
  param {
    lr_mult: 1
    decay_mult: 1
  }
  param {
    lr_mult: 2
    decay_mult: 0
  }
  convolution_param {
    num_output: 512
    pad: 1
    kernel_size: 3
    stride: 2
    weight_filler {
      type: "xavier"
    }
    bias_filler {
      type: "constant"
      value: 0
    }
  }
}
layer {
  name: "relu4_1"
  type: "PReLU"
  bottom: "conv4_1"
  top: "conv4_1"
}
layer {
  name: "conv4_2"
  type: "Convolution"
  bottom: "conv4_1"
  top: "conv4_2"
  param {
    lr_mult: 1
    decay_mult: 1
  }
  param {
    lr_mult: 0
    decay_mult: 0
  }
  convolution_param {
    num_output: 512
    pad: 1
    kernel_size: 3
    stride: 1
    weight_filler {
      type: "gaussian"
      std: 0.01
    }
    bias_filler {
      type: "constant"
      value: 0
    }
  }
}
layer {
  name: "relu4_2"
  type: "PReLU"
  bottom: "conv4_2"
  top: "conv4_2"
}
layer {
  name: "conv4_3"
  type: "Convolution"
  bottom: "conv4_2"
  top: "conv4_3"
  param {
    lr_mult: 1
    decay_mult: 1
  }
  param {
    lr_mult: 0
    decay_mult: 0
  }
  convolution_param {
    num_output: 512
    pad: 1
    kernel_size: 3
    stride: 1
    weight_filler {
      type: "gaussian"
      std: 0.01
    }
    bias_filler {
      type: "constant"
      value: 0
    }
  }
}
layer {
  name: "relu4_3"
  type: "PReLU"
  bottom: "conv4_3"
  top: "conv4_3"
}
layer {
  name: "res4_3"
  type: "Eltwise"
  bottom: "conv4_1"
  bottom: "conv4_3"
  top: "res4_3"
  eltwise_param {
    operation: SUM
  }
}
layer {
  name: "fc5"
  type: "InnerProduct"
  bottom: "res4_3"
  top: "fc5"
  param {
    lr_mult: 1
    decay_mult: 1
  }
  param {
    lr_mult: 2
    decay_mult: 0
  }
  inner_product_param {
    num_output: 512
    weight_filler {
      type: "xavier"
    }
    bias_filler {
      type: "constant"
      value: 0
    }
  }
}
layer {
  name: "fc6"
  type: "InnerProduct"
  bottom: "fc5"
  top: "fc6"
  param {
    lr_mult: 1
    decay_mult: 1
  }
  param {
    lr_mult: 2
    decay_mult: 0
  }
  inner_product_param {
    num_output: 121039
    weight_filler {
      type: "xavier"
      std: 0.01
    }
    bias_filler {
      type: "constant"
      value: 0
    }
  }
}
layer {
  name: "softmax_loss"
  type: "SoftmaxWithLoss"
  bottom: "fc6"
  bottom: "label"
  top: "softmax_loss"
}
layer {
  name: "center_loss"
  type: "CenterLoss"
  bottom: "fc5"
  bottom: "label"
  top: "center_loss"
  loss_weight: 0.0008
  param {
    lr_mult: 1
    decay_mult: 2
  }
  center_loss_param {
    num_output: 121039
    center_filler {
      type: "xavier"
    }
  }
}
I1218 14:29:06.009014 40060 layer_factory.hpp:77] Creating layer data
I1218 14:29:06.009546 40060 net.cpp:100] Creating Layer data
I1218 14:29:06.009577 40060 net.cpp:408] data -> data
I1218 14:29:06.009589 40060 net.cpp:408] data -> label
I1218 14:29:06.011152 40145 db_lmdb.cpp:35] Opened lmdb /data/zeng/webface_160x160_val_lmdb
I1218 14:29:06.011526 40060 data_layer.cpp:41] output data size: 16,3,160,160
I1218 14:29:06.022133 40060 net.cpp:150] Setting up data
I1218 14:29:06.022172 40060 net.cpp:157] Top shape: 16 3 160 160 (1228800)
I1218 14:29:06.022181 40060 net.cpp:157] Top shape: 16 (16)
I1218 14:29:06.022188 40060 net.cpp:165] Memory required for data: 4915264
I1218 14:29:06.022195 40060 layer_factory.hpp:77] Creating layer label_data_1_split
I1218 14:29:06.022207 40060 net.cpp:100] Creating Layer label_data_1_split
I1218 14:29:06.022214 40060 net.cpp:434] label_data_1_split <- label
I1218 14:29:06.022223 40060 net.cpp:408] label_data_1_split -> label_data_1_split_0
I1218 14:29:06.022233 40060 net.cpp:408] label_data_1_split -> label_data_1_split_1
I1218 14:29:06.022307 40060 net.cpp:150] Setting up label_data_1_split
I1218 14:29:06.022320 40060 net.cpp:157] Top shape: 16 (16)
I1218 14:29:06.022333 40060 net.cpp:157] Top shape: 16 (16)
I1218 14:29:06.022351 40060 net.cpp:165] Memory required for data: 4915392
I1218 14:29:06.022359 40060 layer_factory.hpp:77] Creating layer conv1_1
I1218 14:29:06.022374 40060 net.cpp:100] Creating Layer conv1_1
I1218 14:29:06.022382 40060 net.cpp:434] conv1_1 <- data
I1218 14:29:06.022392 40060 net.cpp:408] conv1_1 -> conv1_1
I1218 14:29:06.024124 40060 net.cpp:150] Setting up conv1_1
I1218 14:29:06.024161 40060 net.cpp:157] Top shape: 16 64 79 79 (6390784)
I1218 14:29:06.024169 40060 net.cpp:165] Memory required for data: 30478528
I1218 14:29:06.024181 40060 layer_factory.hpp:77] Creating layer relu1_1
I1218 14:29:06.024194 40060 net.cpp:100] Creating Layer relu1_1
I1218 14:29:06.024200 40060 net.cpp:434] relu1_1 <- conv1_1
I1218 14:29:06.024207 40060 net.cpp:395] relu1_1 -> conv1_1 (in-place)
I1218 14:29:06.024912 40060 net.cpp:150] Setting up relu1_1
I1218 14:29:06.024925 40060 net.cpp:157] Top shape: 16 64 79 79 (6390784)
I1218 14:29:06.024952 40060 net.cpp:165] Memory required for data: 56041664
I1218 14:29:06.024962 40060 layer_factory.hpp:77] Creating layer conv1_1_relu1_1_0_split
I1218 14:29:06.024972 40060 net.cpp:100] Creating Layer conv1_1_relu1_1_0_split
I1218 14:29:06.024979 40060 net.cpp:434] conv1_1_relu1_1_0_split <- conv1_1
I1218 14:29:06.024986 40060 net.cpp:408] conv1_1_relu1_1_0_split -> conv1_1_relu1_1_0_split_0
I1218 14:29:06.024996 40060 net.cpp:408] conv1_1_relu1_1_0_split -> conv1_1_relu1_1_0_split_1
I1218 14:29:06.025053 40060 net.cpp:150] Setting up conv1_1_relu1_1_0_split
I1218 14:29:06.025065 40060 net.cpp:157] Top shape: 16 64 79 79 (6390784)
I1218 14:29:06.025072 40060 net.cpp:157] Top shape: 16 64 79 79 (6390784)
I1218 14:29:06.025079 40060 net.cpp:165] Memory required for data: 107167936
I1218 14:29:06.025084 40060 layer_factory.hpp:77] Creating layer conv1_2
I1218 14:29:06.025096 40060 net.cpp:100] Creating Layer conv1_2
I1218 14:29:06.025104 40060 net.cpp:434] conv1_2 <- conv1_1_relu1_1_0_split_0
I1218 14:29:06.025113 40060 net.cpp:408] conv1_2 -> conv1_2
I1218 14:29:06.027281 40060 net.cpp:150] Setting up conv1_2
I1218 14:29:06.027318 40060 net.cpp:157] Top shape: 16 64 79 79 (6390784)
I1218 14:29:06.027325 40060 net.cpp:165] Memory required for data: 132731072
I1218 14:29:06.027336 40060 layer_factory.hpp:77] Creating layer relu1_2
I1218 14:29:06.027348 40060 net.cpp:100] Creating Layer relu1_2
I1218 14:29:06.027355 40060 net.cpp:434] relu1_2 <- conv1_2
I1218 14:29:06.027364 40060 net.cpp:395] relu1_2 -> conv1_2 (in-place)
I1218 14:29:06.028707 40060 net.cpp:150] Setting up relu1_2
I1218 14:29:06.028743 40060 net.cpp:157] Top shape: 16 64 79 79 (6390784)
I1218 14:29:06.028749 40060 net.cpp:165] Memory required for data: 158294208
I1218 14:29:06.028758 40060 layer_factory.hpp:77] Creating layer conv1_3
I1218 14:29:06.028771 40060 net.cpp:100] Creating Layer conv1_3
I1218 14:29:06.028779 40060 net.cpp:434] conv1_3 <- conv1_2
I1218 14:29:06.028789 40060 net.cpp:408] conv1_3 -> conv1_3
I1218 14:29:06.030974 40060 net.cpp:150] Setting up conv1_3
I1218 14:29:06.031009 40060 net.cpp:157] Top shape: 16 64 79 79 (6390784)
I1218 14:29:06.031018 40060 net.cpp:165] Memory required for data: 183857344
I1218 14:29:06.031026 40060 layer_factory.hpp:77] Creating layer relu1_3
I1218 14:29:06.031038 40060 net.cpp:100] Creating Layer relu1_3
I1218 14:29:06.031045 40060 net.cpp:434] relu1_3 <- conv1_3
I1218 14:29:06.031055 40060 net.cpp:395] relu1_3 -> conv1_3 (in-place)
I1218 14:29:06.032416 40060 net.cpp:150] Setting up relu1_3
I1218 14:29:06.032438 40060 net.cpp:157] Top shape: 16 64 79 79 (6390784)
I1218 14:29:06.032445 40060 net.cpp:165] Memory required for data: 209420480
I1218 14:29:06.032467 40060 layer_factory.hpp:77] Creating layer res1_3
I1218 14:29:06.032477 40060 net.cpp:100] Creating Layer res1_3
I1218 14:29:06.032483 40060 net.cpp:434] res1_3 <- conv1_1_relu1_1_0_split_1
I1218 14:29:06.032490 40060 net.cpp:434] res1_3 <- conv1_3
I1218 14:29:06.032503 40060 net.cpp:408] res1_3 -> res1_3
I1218 14:29:06.032551 40060 net.cpp:150] Setting up res1_3
I1218 14:29:06.032562 40060 net.cpp:157] Top shape: 16 64 79 79 (6390784)
I1218 14:29:06.032579 40060 net.cpp:165] Memory required for data: 234983616
I1218 14:29:06.032586 40060 layer_factory.hpp:77] Creating layer conv2_1
I1218 14:29:06.032599 40060 net.cpp:100] Creating Layer conv2_1
I1218 14:29:06.032606 40060 net.cpp:434] conv2_1 <- res1_3
I1218 14:29:06.032615 40060 net.cpp:408] conv2_1 -> conv2_1
I1218 14:29:06.034220 40060 net.cpp:150] Setting up conv2_1
I1218 14:29:06.034255 40060 net.cpp:157] Top shape: 16 128 40 40 (3276800)
I1218 14:29:06.034263 40060 net.cpp:165] Memory required for data: 248090816
I1218 14:29:06.034272 40060 layer_factory.hpp:77] Creating layer relu2_1
I1218 14:29:06.034281 40060 net.cpp:100] Creating Layer relu2_1
I1218 14:29:06.034287 40060 net.cpp:434] relu2_1 <- conv2_1
I1218 14:29:06.034296 40060 net.cpp:395] relu2_1 -> conv2_1 (in-place)
I1218 14:29:06.035574 40060 net.cpp:150] Setting up relu2_1
I1218 14:29:06.035610 40060 net.cpp:157] Top shape: 16 128 40 40 (3276800)
I1218 14:29:06.035617 40060 net.cpp:165] Memory required for data: 261198016
I1218 14:29:06.035626 40060 layer_factory.hpp:77] Creating layer conv2_1_relu2_1_0_split
I1218 14:29:06.035637 40060 net.cpp:100] Creating Layer conv2_1_relu2_1_0_split
I1218 14:29:06.035643 40060 net.cpp:434] conv2_1_relu2_1_0_split <- conv2_1
I1218 14:29:06.035652 40060 net.cpp:408] conv2_1_relu2_1_0_split -> conv2_1_relu2_1_0_split_0
I1218 14:29:06.035661 40060 net.cpp:408] conv2_1_relu2_1_0_split -> conv2_1_relu2_1_0_split_1
I1218 14:29:06.035706 40060 net.cpp:150] Setting up conv2_1_relu2_1_0_split
I1218 14:29:06.035732 40060 net.cpp:157] Top shape: 16 128 40 40 (3276800)
I1218 14:29:06.035738 40060 net.cpp:157] Top shape: 16 128 40 40 (3276800)
I1218 14:29:06.035744 40060 net.cpp:165] Memory required for data: 287412416
I1218 14:29:06.035750 40060 layer_factory.hpp:77] Creating layer conv2_2
I1218 14:29:06.035763 40060 net.cpp:100] Creating Layer conv2_2
I1218 14:29:06.035770 40060 net.cpp:434] conv2_2 <- conv2_1_relu2_1_0_split_0
I1218 14:29:06.035785 40060 net.cpp:408] conv2_2 -> conv2_2
I1218 14:29:06.040851 40060 net.cpp:150] Setting up conv2_2
I1218 14:29:06.040889 40060 net.cpp:157] Top shape: 16 128 40 40 (3276800)
I1218 14:29:06.040895 40060 net.cpp:165] Memory required for data: 300519616
I1218 14:29:06.040905 40060 layer_factory.hpp:77] Creating layer relu2_2
I1218 14:29:06.040916 40060 net.cpp:100] Creating Layer relu2_2
I1218 14:29:06.040923 40060 net.cpp:434] relu2_2 <- conv2_2
I1218 14:29:06.040931 40060 net.cpp:395] relu2_2 -> conv2_2 (in-place)
I1218 14:29:06.042177 40060 net.cpp:150] Setting up relu2_2
I1218 14:29:06.042212 40060 net.cpp:157] Top shape: 16 128 40 40 (3276800)
I1218 14:29:06.042219 40060 net.cpp:165] Memory required for data: 313626816
I1218 14:29:06.042228 40060 layer_factory.hpp:77] Creating layer conv2_3
I1218 14:29:06.042243 40060 net.cpp:100] Creating Layer conv2_3
I1218 14:29:06.042250 40060 net.cpp:434] conv2_3 <- conv2_2
I1218 14:29:06.042260 40060 net.cpp:408] conv2_3 -> conv2_3
I1218 14:29:06.047793 40060 net.cpp:150] Setting up conv2_3
I1218 14:29:06.047829 40060 net.cpp:157] Top shape: 16 128 40 40 (3276800)
I1218 14:29:06.047837 40060 net.cpp:165] Memory required for data: 326734016
I1218 14:29:06.047849 40060 layer_factory.hpp:77] Creating layer relu2_3
I1218 14:29:06.047861 40060 net.cpp:100] Creating Layer relu2_3
I1218 14:29:06.047868 40060 net.cpp:434] relu2_3 <- conv2_3
I1218 14:29:06.047878 40060 net.cpp:395] relu2_3 -> conv2_3 (in-place)
I1218 14:29:06.049188 40060 net.cpp:150] Setting up relu2_3
I1218 14:29:06.049208 40060 net.cpp:157] Top shape: 16 128 40 40 (3276800)
I1218 14:29:06.049216 40060 net.cpp:165] Memory required for data: 339841216
I1218 14:29:06.049223 40060 layer_factory.hpp:77] Creating layer res2_3
I1218 14:29:06.049234 40060 net.cpp:100] Creating Layer res2_3
I1218 14:29:06.049242 40060 net.cpp:434] res2_3 <- conv2_1_relu2_1_0_split_1
I1218 14:29:06.049249 40060 net.cpp:434] res2_3 <- conv2_3
I1218 14:29:06.049257 40060 net.cpp:408] res2_3 -> res2_3
I1218 14:29:06.049305 40060 net.cpp:150] Setting up res2_3
I1218 14:29:06.049329 40060 net.cpp:157] Top shape: 16 128 40 40 (3276800)
I1218 14:29:06.049335 40060 net.cpp:165] Memory required for data: 352948416
I1218 14:29:06.049341 40060 layer_factory.hpp:77] Creating layer res2_3_res2_3_0_split
I1218 14:29:06.049352 40060 net.cpp:100] Creating Layer res2_3_res2_3_0_split
I1218 14:29:06.049358 40060 net.cpp:434] res2_3_res2_3_0_split <- res2_3
I1218 14:29:06.049367 40060 net.cpp:408] res2_3_res2_3_0_split -> res2_3_res2_3_0_split_0
I1218 14:29:06.049377 40060 net.cpp:408] res2_3_res2_3_0_split -> res2_3_res2_3_0_split_1
I1218 14:29:06.049422 40060 net.cpp:150] Setting up res2_3_res2_3_0_split
I1218 14:29:06.049434 40060 net.cpp:157] Top shape: 16 128 40 40 (3276800)
I1218 14:29:06.049441 40060 net.cpp:157] Top shape: 16 128 40 40 (3276800)
I1218 14:29:06.049448 40060 net.cpp:165] Memory required for data: 379162816
I1218 14:29:06.049453 40060 layer_factory.hpp:77] Creating layer conv2_4
I1218 14:29:06.049466 40060 net.cpp:100] Creating Layer conv2_4
I1218 14:29:06.049474 40060 net.cpp:434] conv2_4 <- res2_3_res2_3_0_split_0
I1218 14:29:06.049482 40060 net.cpp:408] conv2_4 -> conv2_4
I1218 14:29:06.054632 40060 net.cpp:150] Setting up conv2_4
I1218 14:29:06.054683 40060 net.cpp:157] Top shape: 16 128 40 40 (3276800)
I1218 14:29:06.054690 40060 net.cpp:165] Memory required for data: 392270016
I1218 14:29:06.054700 40060 layer_factory.hpp:77] Creating layer relu2_4
I1218 14:29:06.054709 40060 net.cpp:100] Creating Layer relu2_4
I1218 14:29:06.054716 40060 net.cpp:434] relu2_4 <- conv2_4
I1218 14:29:06.054726 40060 net.cpp:395] relu2_4 -> conv2_4 (in-place)
I1218 14:29:06.056022 40060 net.cpp:150] Setting up relu2_4
I1218 14:29:06.056043 40060 net.cpp:157] Top shape: 16 128 40 40 (3276800)
I1218 14:29:06.056051 40060 net.cpp:165] Memory required for data: 405377216
I1218 14:29:06.056059 40060 layer_factory.hpp:77] Creating layer conv2_5
I1218 14:29:06.056072 40060 net.cpp:100] Creating Layer conv2_5
I1218 14:29:06.056080 40060 net.cpp:434] conv2_5 <- conv2_4
I1218 14:29:06.056089 40060 net.cpp:408] conv2_5 -> conv2_5
I1218 14:29:06.061048 40060 net.cpp:150] Setting up conv2_5
I1218 14:29:06.061069 40060 net.cpp:157] Top shape: 16 128 40 40 (3276800)
I1218 14:29:06.061074 40060 net.cpp:165] Memory required for data: 418484416
I1218 14:29:06.061085 40060 layer_factory.hpp:77] Creating layer relu2_5
I1218 14:29:06.061094 40060 net.cpp:100] Creating Layer relu2_5
I1218 14:29:06.061100 40060 net.cpp:434] relu2_5 <- conv2_5
I1218 14:29:06.061110 40060 net.cpp:395] relu2_5 -> conv2_5 (in-place)
I1218 14:29:06.062366 40060 net.cpp:150] Setting up relu2_5
I1218 14:29:06.062399 40060 net.cpp:157] Top shape: 16 128 40 40 (3276800)
I1218 14:29:06.062407 40060 net.cpp:165] Memory required for data: 431591616
I1218 14:29:06.062414 40060 layer_factory.hpp:77] Creating layer res2_5
I1218 14:29:06.062427 40060 net.cpp:100] Creating Layer res2_5
I1218 14:29:06.062433 40060 net.cpp:434] res2_5 <- res2_3_res2_3_0_split_1
I1218 14:29:06.062439 40060 net.cpp:434] res2_5 <- conv2_5
I1218 14:29:06.062448 40060 net.cpp:408] res2_5 -> res2_5
I1218 14:29:06.062496 40060 net.cpp:150] Setting up res2_5
I1218 14:29:06.062507 40060 net.cpp:157] Top shape: 16 128 40 40 (3276800)
I1218 14:29:06.062515 40060 net.cpp:165] Memory required for data: 444698816
I1218 14:29:06.062520 40060 layer_factory.hpp:77] Creating layer conv3_1
I1218 14:29:06.062533 40060 net.cpp:100] Creating Layer conv3_1
I1218 14:29:06.062541 40060 net.cpp:434] conv3_1 <- res2_5
I1218 14:29:06.062553 40060 net.cpp:408] conv3_1 -> conv3_1
I1218 14:29:06.064978 40060 net.cpp:150] Setting up conv3_1
I1218 14:29:06.064998 40060 net.cpp:157] Top shape: 16 256 20 20 (1638400)
I1218 14:29:06.065006 40060 net.cpp:165] Memory required for data: 451252416
I1218 14:29:06.065013 40060 layer_factory.hpp:77] Creating layer relu3_1
I1218 14:29:06.065023 40060 net.cpp:100] Creating Layer relu3_1
I1218 14:29:06.065030 40060 net.cpp:434] relu3_1 <- conv3_1
I1218 14:29:06.065037 40060 net.cpp:395] relu3_1 -> conv3_1 (in-place)
I1218 14:29:06.065186 40060 net.cpp:150] Setting up relu3_1
I1218 14:29:06.065209 40060 net.cpp:157] Top shape: 16 256 20 20 (1638400)
I1218 14:29:06.065217 40060 net.cpp:165] Memory required for data: 457806016
I1218 14:29:06.065223 40060 layer_factory.hpp:77] Creating layer conv3_1_relu3_1_0_split
I1218 14:29:06.065234 40060 net.cpp:100] Creating Layer conv3_1_relu3_1_0_split
I1218 14:29:06.065240 40060 net.cpp:434] conv3_1_relu3_1_0_split <- conv3_1
I1218 14:29:06.065248 40060 net.cpp:408] conv3_1_relu3_1_0_split -> conv3_1_relu3_1_0_split_0
I1218 14:29:06.065258 40060 net.cpp:408] conv3_1_relu3_1_0_split -> conv3_1_relu3_1_0_split_1
I1218 14:29:06.065301 40060 net.cpp:150] Setting up conv3_1_relu3_1_0_split
I1218 14:29:06.065311 40060 net.cpp:157] Top shape: 16 256 20 20 (1638400)
I1218 14:29:06.065318 40060 net.cpp:157] Top shape: 16 256 20 20 (1638400)
I1218 14:29:06.065323 40060 net.cpp:165] Memory required for data: 470913216
I1218 14:29:06.065330 40060 layer_factory.hpp:77] Creating layer conv3_2
I1218 14:29:06.065341 40060 net.cpp:100] Creating Layer conv3_2
I1218 14:29:06.065348 40060 net.cpp:434] conv3_2 <- conv3_1_relu3_1_0_split_0
I1218 14:29:06.065357 40060 net.cpp:408] conv3_2 -> conv3_2
I1218 14:29:06.080016 40060 net.cpp:150] Setting up conv3_2
I1218 14:29:06.080039 40060 net.cpp:157] Top shape: 16 256 20 20 (1638400)
I1218 14:29:06.080045 40060 net.cpp:165] Memory required for data: 477466816
I1218 14:29:06.080054 40060 layer_factory.hpp:77] Creating layer relu3_2
I1218 14:29:06.080065 40060 net.cpp:100] Creating Layer relu3_2
I1218 14:29:06.080071 40060 net.cpp:434] relu3_2 <- conv3_2
I1218 14:29:06.080078 40060 net.cpp:395] relu3_2 -> conv3_2 (in-place)
I1218 14:29:06.080237 40060 net.cpp:150] Setting up relu3_2
I1218 14:29:06.080250 40060 net.cpp:157] Top shape: 16 256 20 20 (1638400)
I1218 14:29:06.080256 40060 net.cpp:165] Memory required for data: 484020416
I1218 14:29:06.080265 40060 layer_factory.hpp:77] Creating layer conv3_3
I1218 14:29:06.080278 40060 net.cpp:100] Creating Layer conv3_3
I1218 14:29:06.080286 40060 net.cpp:434] conv3_3 <- conv3_2
I1218 14:29:06.080293 40060 net.cpp:408] conv3_3 -> conv3_3
I1218 14:29:06.094187 40060 net.cpp:150] Setting up conv3_3
I1218 14:29:06.094208 40060 net.cpp:157] Top shape: 16 256 20 20 (1638400)
I1218 14:29:06.094214 40060 net.cpp:165] Memory required for data: 490574016
I1218 14:29:06.094223 40060 layer_factory.hpp:77] Creating layer relu3_3
I1218 14:29:06.094231 40060 net.cpp:100] Creating Layer relu3_3
I1218 14:29:06.094239 40060 net.cpp:434] relu3_3 <- conv3_3
I1218 14:29:06.094249 40060 net.cpp:395] relu3_3 -> conv3_3 (in-place)
I1218 14:29:06.094439 40060 net.cpp:150] Setting up relu3_3
I1218 14:29:06.094455 40060 net.cpp:157] Top shape: 16 256 20 20 (1638400)
I1218 14:29:06.094461 40060 net.cpp:165] Memory required for data: 497127616
I1218 14:29:06.094475 40060 layer_factory.hpp:77] Creating layer res3_3
I1218 14:29:06.094486 40060 net.cpp:100] Creating Layer res3_3
I1218 14:29:06.094492 40060 net.cpp:434] res3_3 <- conv3_1_relu3_1_0_split_1
I1218 14:29:06.094501 40060 net.cpp:434] res3_3 <- conv3_3
I1218 14:29:06.094511 40060 net.cpp:408] res3_3 -> res3_3
I1218 14:29:06.094542 40060 net.cpp:150] Setting up res3_3
I1218 14:29:06.094554 40060 net.cpp:157] Top shape: 16 256 20 20 (1638400)
I1218 14:29:06.094560 40060 net.cpp:165] Memory required for data: 503681216
I1218 14:29:06.094568 40060 layer_factory.hpp:77] Creating layer res3_3_res3_3_0_split
I1218 14:29:06.094578 40060 net.cpp:100] Creating Layer res3_3_res3_3_0_split
I1218 14:29:06.094584 40060 net.cpp:434] res3_3_res3_3_0_split <- res3_3
I1218 14:29:06.094594 40060 net.cpp:408] res3_3_res3_3_0_split -> res3_3_res3_3_0_split_0
I1218 14:29:06.094602 40060 net.cpp:408] res3_3_res3_3_0_split -> res3_3_res3_3_0_split_1
I1218 14:29:06.094645 40060 net.cpp:150] Setting up res3_3_res3_3_0_split
I1218 14:29:06.094656 40060 net.cpp:157] Top shape: 16 256 20 20 (1638400)
I1218 14:29:06.094663 40060 net.cpp:157] Top shape: 16 256 20 20 (1638400)
I1218 14:29:06.094669 40060 net.cpp:165] Memory required for data: 516788416
I1218 14:29:06.094703 40060 layer_factory.hpp:77] Creating layer conv3_4
I1218 14:29:06.094718 40060 net.cpp:100] Creating Layer conv3_4
I1218 14:29:06.094725 40060 net.cpp:434] conv3_4 <- res3_3_res3_3_0_split_0
I1218 14:29:06.094736 40060 net.cpp:408] conv3_4 -> conv3_4
I1218 14:29:06.109442 40060 net.cpp:150] Setting up conv3_4
I1218 14:29:06.109480 40060 net.cpp:157] Top shape: 16 256 20 20 (1638400)
I1218 14:29:06.109488 40060 net.cpp:165] Memory required for data: 523342016
I1218 14:29:06.109496 40060 layer_factory.hpp:77] Creating layer relu3_4
I1218 14:29:06.109506 40060 net.cpp:100] Creating Layer relu3_4
I1218 14:29:06.109513 40060 net.cpp:434] relu3_4 <- conv3_4
I1218 14:29:06.109522 40060 net.cpp:395] relu3_4 -> conv3_4 (in-place)
I1218 14:29:06.109680 40060 net.cpp:150] Setting up relu3_4
I1218 14:29:06.109694 40060 net.cpp:157] Top shape: 16 256 20 20 (1638400)
I1218 14:29:06.109700 40060 net.cpp:165] Memory required for data: 529895616
I1218 14:29:06.109709 40060 layer_factory.hpp:77] Creating layer conv3_5
I1218 14:29:06.109724 40060 net.cpp:100] Creating Layer conv3_5
I1218 14:29:06.109731 40060 net.cpp:434] conv3_5 <- conv3_4
I1218 14:29:06.109740 40060 net.cpp:408] conv3_5 -> conv3_5
I1218 14:29:06.124332 40060 net.cpp:150] Setting up conv3_5
I1218 14:29:06.124352 40060 net.cpp:157] Top shape: 16 256 20 20 (1638400)
I1218 14:29:06.124359 40060 net.cpp:165] Memory required for data: 536449216
I1218 14:29:06.124368 40060 layer_factory.hpp:77] Creating layer relu3_5
I1218 14:29:06.124377 40060 net.cpp:100] Creating Layer relu3_5
I1218 14:29:06.124383 40060 net.cpp:434] relu3_5 <- conv3_5
I1218 14:29:06.124393 40060 net.cpp:395] relu3_5 -> conv3_5 (in-place)
I1218 14:29:06.124583 40060 net.cpp:150] Setting up relu3_5
I1218 14:29:06.124596 40060 net.cpp:157] Top shape: 16 256 20 20 (1638400)
I1218 14:29:06.124603 40060 net.cpp:165] Memory required for data: 543002816
I1218 14:29:06.124609 40060 layer_factory.hpp:77] Creating layer res3_5
I1218 14:29:06.124619 40060 net.cpp:100] Creating Layer res3_5
I1218 14:29:06.124624 40060 net.cpp:434] res3_5 <- res3_3_res3_3_0_split_1
I1218 14:29:06.124631 40060 net.cpp:434] res3_5 <- conv3_5
I1218 14:29:06.124641 40060 net.cpp:408] res3_5 -> res3_5
I1218 14:29:06.124671 40060 net.cpp:150] Setting up res3_5
I1218 14:29:06.124685 40060 net.cpp:157] Top shape: 16 256 20 20 (1638400)
I1218 14:29:06.124691 40060 net.cpp:165] Memory required for data: 549556416
I1218 14:29:06.124697 40060 layer_factory.hpp:77] Creating layer res3_5_res3_5_0_split
I1218 14:29:06.124706 40060 net.cpp:100] Creating Layer res3_5_res3_5_0_split
I1218 14:29:06.124711 40060 net.cpp:434] res3_5_res3_5_0_split <- res3_5
I1218 14:29:06.124718 40060 net.cpp:408] res3_5_res3_5_0_split -> res3_5_res3_5_0_split_0
I1218 14:29:06.124730 40060 net.cpp:408] res3_5_res3_5_0_split -> res3_5_res3_5_0_split_1
I1218 14:29:06.124771 40060 net.cpp:150] Setting up res3_5_res3_5_0_split
I1218 14:29:06.124783 40060 net.cpp:157] Top shape: 16 256 20 20 (1638400)
I1218 14:29:06.124789 40060 net.cpp:157] Top shape: 16 256 20 20 (1638400)
I1218 14:29:06.124795 40060 net.cpp:165] Memory required for data: 562663616
I1218 14:29:06.124801 40060 layer_factory.hpp:77] Creating layer conv3_6
I1218 14:29:06.124816 40060 net.cpp:100] Creating Layer conv3_6
I1218 14:29:06.124824 40060 net.cpp:434] conv3_6 <- res3_5_res3_5_0_split_0
I1218 14:29:06.124832 40060 net.cpp:408] conv3_6 -> conv3_6
I1218 14:29:06.139586 40060 net.cpp:150] Setting up conv3_6
I1218 14:29:06.139607 40060 net.cpp:157] Top shape: 16 256 20 20 (1638400)
I1218 14:29:06.139631 40060 net.cpp:165] Memory required for data: 569217216
I1218 14:29:06.139642 40060 layer_factory.hpp:77] Creating layer relu3_6
I1218 14:29:06.139650 40060 net.cpp:100] Creating Layer relu3_6
I1218 14:29:06.139657 40060 net.cpp:434] relu3_6 <- conv3_6
I1218 14:29:06.139667 40060 net.cpp:395] relu3_6 -> conv3_6 (in-place)
I1218 14:29:06.140887 40060 net.cpp:150] Setting up relu3_6
I1218 14:29:06.140921 40060 net.cpp:157] Top shape: 16 256 20 20 (1638400)
I1218 14:29:06.140928 40060 net.cpp:165] Memory required for data: 575770816
I1218 14:29:06.140946 40060 layer_factory.hpp:77] Creating layer conv3_7
I1218 14:29:06.140961 40060 net.cpp:100] Creating Layer conv3_7
I1218 14:29:06.140969 40060 net.cpp:434] conv3_7 <- conv3_6
I1218 14:29:06.140980 40060 net.cpp:408] conv3_7 -> conv3_7
I1218 14:29:06.155654 40060 net.cpp:150] Setting up conv3_7
I1218 14:29:06.155675 40060 net.cpp:157] Top shape: 16 256 20 20 (1638400)
I1218 14:29:06.155683 40060 net.cpp:165] Memory required for data: 582324416
I1218 14:29:06.155691 40060 layer_factory.hpp:77] Creating layer relu3_7
I1218 14:29:06.155702 40060 net.cpp:100] Creating Layer relu3_7
I1218 14:29:06.155709 40060 net.cpp:434] relu3_7 <- conv3_7
I1218 14:29:06.155716 40060 net.cpp:395] relu3_7 -> conv3_7 (in-place)
I1218 14:29:06.155874 40060 net.cpp:150] Setting up relu3_7
I1218 14:29:06.155889 40060 net.cpp:157] Top shape: 16 256 20 20 (1638400)
I1218 14:29:06.155894 40060 net.cpp:165] Memory required for data: 588878016
I1218 14:29:06.155902 40060 layer_factory.hpp:77] Creating layer res3_7
I1218 14:29:06.155915 40060 net.cpp:100] Creating Layer res3_7
I1218 14:29:06.155922 40060 net.cpp:434] res3_7 <- res3_5_res3_5_0_split_1
I1218 14:29:06.155930 40060 net.cpp:434] res3_7 <- conv3_7
I1218 14:29:06.155939 40060 net.cpp:408] res3_7 -> res3_7
I1218 14:29:06.155971 40060 net.cpp:150] Setting up res3_7
I1218 14:29:06.155985 40060 net.cpp:157] Top shape: 16 256 20 20 (1638400)
I1218 14:29:06.155992 40060 net.cpp:165] Memory required for data: 595431616
I1218 14:29:06.156008 40060 layer_factory.hpp:77] Creating layer res3_7_res3_7_0_split
I1218 14:29:06.156019 40060 net.cpp:100] Creating Layer res3_7_res3_7_0_split
I1218 14:29:06.156025 40060 net.cpp:434] res3_7_res3_7_0_split <- res3_7
I1218 14:29:06.156033 40060 net.cpp:408] res3_7_res3_7_0_split -> res3_7_res3_7_0_split_0
I1218 14:29:06.156041 40060 net.cpp:408] res3_7_res3_7_0_split -> res3_7_res3_7_0_split_1
I1218 14:29:06.156083 40060 net.cpp:150] Setting up res3_7_res3_7_0_split
I1218 14:29:06.156093 40060 net.cpp:157] Top shape: 16 256 20 20 (1638400)
I1218 14:29:06.156100 40060 net.cpp:157] Top shape: 16 256 20 20 (1638400)
I1218 14:29:06.156105 40060 net.cpp:165] Memory required for data: 608538816
I1218 14:29:06.156111 40060 layer_factory.hpp:77] Creating layer conv3_8
I1218 14:29:06.156124 40060 net.cpp:100] Creating Layer conv3_8
I1218 14:29:06.156131 40060 net.cpp:434] conv3_8 <- res3_7_res3_7_0_split_0
I1218 14:29:06.156141 40060 net.cpp:408] conv3_8 -> conv3_8
I1218 14:29:06.170994 40060 net.cpp:150] Setting up conv3_8
I1218 14:29:06.171030 40060 net.cpp:157] Top shape: 16 256 20 20 (1638400)
I1218 14:29:06.171037 40060 net.cpp:165] Memory required for data: 615092416
I1218 14:29:06.171046 40060 layer_factory.hpp:77] Creating layer relu3_8
I1218 14:29:06.171058 40060 net.cpp:100] Creating Layer relu3_8
I1218 14:29:06.171066 40060 net.cpp:434] relu3_8 <- conv3_8
I1218 14:29:06.171072 40060 net.cpp:395] relu3_8 -> conv3_8 (in-place)
I1218 14:29:06.171216 40060 net.cpp:150] Setting up relu3_8
I1218 14:29:06.171229 40060 net.cpp:157] Top shape: 16 256 20 20 (1638400)
I1218 14:29:06.171236 40060 net.cpp:165] Memory required for data: 621646016
I1218 14:29:06.171242 40060 layer_factory.hpp:77] Creating layer conv3_9
I1218 14:29:06.171262 40060 net.cpp:100] Creating Layer conv3_9
I1218 14:29:06.171269 40060 net.cpp:434] conv3_9 <- conv3_8
I1218 14:29:06.171279 40060 net.cpp:408] conv3_9 -> conv3_9
I1218 14:29:06.185942 40060 net.cpp:150] Setting up conv3_9
I1218 14:29:06.185962 40060 net.cpp:157] Top shape: 16 256 20 20 (1638400)
I1218 14:29:06.185969 40060 net.cpp:165] Memory required for data: 628199616
I1218 14:29:06.185979 40060 layer_factory.hpp:77] Creating layer relu3_9
I1218 14:29:06.185989 40060 net.cpp:100] Creating Layer relu3_9
I1218 14:29:06.185997 40060 net.cpp:434] relu3_9 <- conv3_9
I1218 14:29:06.186004 40060 net.cpp:395] relu3_9 -> conv3_9 (in-place)
I1218 14:29:06.186161 40060 net.cpp:150] Setting up relu3_9
I1218 14:29:06.186175 40060 net.cpp:157] Top shape: 16 256 20 20 (1638400)
I1218 14:29:06.186192 40060 net.cpp:165] Memory required for data: 634753216
I1218 14:29:06.186200 40060 layer_factory.hpp:77] Creating layer res3_9
I1218 14:29:06.186209 40060 net.cpp:100] Creating Layer res3_9
I1218 14:29:06.186215 40060 net.cpp:434] res3_9 <- res3_7_res3_7_0_split_1
I1218 14:29:06.186223 40060 net.cpp:434] res3_9 <- conv3_9
I1218 14:29:06.186233 40060 net.cpp:408] res3_9 -> res3_9
I1218 14:29:06.186265 40060 net.cpp:150] Setting up res3_9
I1218 14:29:06.186285 40060 net.cpp:157] Top shape: 16 256 20 20 (1638400)
I1218 14:29:06.186291 40060 net.cpp:165] Memory required for data: 641306816
I1218 14:29:06.186297 40060 layer_factory.hpp:77] Creating layer conv4_1
I1218 14:29:06.186312 40060 net.cpp:100] Creating Layer conv4_1
I1218 14:29:06.186319 40060 net.cpp:434] conv4_1 <- res3_9
I1218 14:29:06.186352 40060 net.cpp:408] conv4_1 -> conv4_1
I1218 14:29:06.194105 40060 net.cpp:150] Setting up conv4_1
I1218 14:29:06.194142 40060 net.cpp:157] Top shape: 16 512 10 10 (819200)
I1218 14:29:06.194149 40060 net.cpp:165] Memory required for data: 644583616
I1218 14:29:06.194159 40060 layer_factory.hpp:77] Creating layer relu4_1
I1218 14:29:06.194170 40060 net.cpp:100] Creating Layer relu4_1
I1218 14:29:06.194177 40060 net.cpp:434] relu4_1 <- conv4_1
I1218 14:29:06.194185 40060 net.cpp:395] relu4_1 -> conv4_1 (in-place)
I1218 14:29:06.194362 40060 net.cpp:150] Setting up relu4_1
I1218 14:29:06.194376 40060 net.cpp:157] Top shape: 16 512 10 10 (819200)
I1218 14:29:06.194383 40060 net.cpp:165] Memory required for data: 647860416
I1218 14:29:06.194391 40060 layer_factory.hpp:77] Creating layer conv4_1_relu4_1_0_split
I1218 14:29:06.194401 40060 net.cpp:100] Creating Layer conv4_1_relu4_1_0_split
I1218 14:29:06.194408 40060 net.cpp:434] conv4_1_relu4_1_0_split <- conv4_1
I1218 14:29:06.194416 40060 net.cpp:408] conv4_1_relu4_1_0_split -> conv4_1_relu4_1_0_split_0
I1218 14:29:06.194425 40060 net.cpp:408] conv4_1_relu4_1_0_split -> conv4_1_relu4_1_0_split_1
I1218 14:29:06.194470 40060 net.cpp:150] Setting up conv4_1_relu4_1_0_split
I1218 14:29:06.194481 40060 net.cpp:157] Top shape: 16 512 10 10 (819200)
I1218 14:29:06.194488 40060 net.cpp:157] Top shape: 16 512 10 10 (819200)
I1218 14:29:06.194492 40060 net.cpp:165] Memory required for data: 654414016
I1218 14:29:06.194499 40060 layer_factory.hpp:77] Creating layer conv4_2
I1218 14:29:06.194512 40060 net.cpp:100] Creating Layer conv4_2
I1218 14:29:06.194519 40060 net.cpp:434] conv4_2 <- conv4_1_relu4_1_0_split_0
I1218 14:29:06.194530 40060 net.cpp:408] conv4_2 -> conv4_2
I1218 14:29:06.245019 40060 net.cpp:150] Setting up conv4_2
I1218 14:29:06.245040 40060 net.cpp:157] Top shape: 16 512 10 10 (819200)
I1218 14:29:06.245046 40060 net.cpp:165] Memory required for data: 657690816
I1218 14:29:06.245055 40060 layer_factory.hpp:77] Creating layer relu4_2
I1218 14:29:06.245065 40060 net.cpp:100] Creating Layer relu4_2
I1218 14:29:06.245074 40060 net.cpp:434] relu4_2 <- conv4_2
I1218 14:29:06.245080 40060 net.cpp:395] relu4_2 -> conv4_2 (in-place)
I1218 14:29:06.245239 40060 net.cpp:150] Setting up relu4_2
I1218 14:29:06.245251 40060 net.cpp:157] Top shape: 16 512 10 10 (819200)
I1218 14:29:06.245257 40060 net.cpp:165] Memory required for data: 660967616
I1218 14:29:06.245265 40060 layer_factory.hpp:77] Creating layer conv4_3
I1218 14:29:06.245277 40060 net.cpp:100] Creating Layer conv4_3
I1218 14:29:06.245285 40060 net.cpp:434] conv4_3 <- conv4_2
I1218 14:29:06.245296 40060 net.cpp:408] conv4_3 -> conv4_3
I1218 14:29:06.295686 40060 net.cpp:150] Setting up conv4_3
I1218 14:29:06.295707 40060 net.cpp:157] Top shape: 16 512 10 10 (819200)
I1218 14:29:06.295714 40060 net.cpp:165] Memory required for data: 664244416
I1218 14:29:06.295723 40060 layer_factory.hpp:77] Creating layer relu4_3
I1218 14:29:06.295733 40060 net.cpp:100] Creating Layer relu4_3
I1218 14:29:06.295742 40060 net.cpp:434] relu4_3 <- conv4_3
I1218 14:29:06.295748 40060 net.cpp:395] relu4_3 -> conv4_3 (in-place)
I1218 14:29:06.295903 40060 net.cpp:150] Setting up relu4_3
I1218 14:29:06.295917 40060 net.cpp:157] Top shape: 16 512 10 10 (819200)
I1218 14:29:06.295935 40060 net.cpp:165] Memory required for data: 667521216
I1218 14:29:06.295944 40060 layer_factory.hpp:77] Creating layer res4_3
I1218 14:29:06.295958 40060 net.cpp:100] Creating Layer res4_3
I1218 14:29:06.295974 40060 net.cpp:434] res4_3 <- conv4_1_relu4_1_0_split_1
I1218 14:29:06.295981 40060 net.cpp:434] res4_3 <- conv4_3
I1218 14:29:06.295990 40060 net.cpp:408] res4_3 -> res4_3
I1218 14:29:06.296025 40060 net.cpp:150] Setting up res4_3
I1218 14:29:06.296034 40060 net.cpp:157] Top shape: 16 512 10 10 (819200)
I1218 14:29:06.296039 40060 net.cpp:165] Memory required for data: 670798016
I1218 14:29:06.296046 40060 layer_factory.hpp:77] Creating layer fc5
I1218 14:29:06.296058 40060 net.cpp:100] Creating Layer fc5
I1218 14:29:06.296066 40060 net.cpp:434] fc5 <- res4_3
I1218 14:29:06.296075 40060 net.cpp:408] fc5 -> fc5
I1218 14:29:06.438650 40060 net.cpp:150] Setting up fc5
I1218 14:29:06.438711 40060 net.cpp:157] Top shape: 16 512 (8192)
I1218 14:29:06.438719 40060 net.cpp:165] Memory required for data: 670830784
I1218 14:29:06.438731 40060 layer_factory.hpp:77] Creating layer fc5_fc5_0_split
I1218 14:29:06.438746 40060 net.cpp:100] Creating Layer fc5_fc5_0_split
I1218 14:29:06.438755 40060 net.cpp:434] fc5_fc5_0_split <- fc5
I1218 14:29:06.438768 40060 net.cpp:408] fc5_fc5_0_split -> fc5_fc5_0_split_0
I1218 14:29:06.438781 40060 net.cpp:408] fc5_fc5_0_split -> fc5_fc5_0_split_1
I1218 14:29:06.438834 40060 net.cpp:150] Setting up fc5_fc5_0_split
I1218 14:29:06.438846 40060 net.cpp:157] Top shape: 16 512 (8192)
I1218 14:29:06.438853 40060 net.cpp:157] Top shape: 16 512 (8192)
I1218 14:29:06.438858 40060 net.cpp:165] Memory required for data: 670896320
I1218 14:29:06.438863 40060 layer_factory.hpp:77] Creating layer fc6
I1218 14:29:06.438874 40060 net.cpp:100] Creating Layer fc6
I1218 14:29:06.438880 40060 net.cpp:434] fc6 <- fc5_fc5_0_split_0
I1218 14:29:06.438889 40060 net.cpp:408] fc6 -> fc6
I1218 14:29:06.778517 40060 net.cpp:150] Setting up fc6
I1218 14:29:06.778589 40060 net.cpp:157] Top shape: 16 121039 (1936624)
I1218 14:29:06.778597 40060 net.cpp:165] Memory required for data: 678642816
I1218 14:29:06.778614 40060 layer_factory.hpp:77] Creating layer softmax_loss
I1218 14:29:06.778632 40060 net.cpp:100] Creating Layer softmax_loss
I1218 14:29:06.778645 40060 net.cpp:434] softmax_loss <- fc6
I1218 14:29:06.778654 40060 net.cpp:434] softmax_loss <- label_data_1_split_0
I1218 14:29:06.778681 40060 net.cpp:408] softmax_loss -> softmax_loss
…
