…
I1102 17:16:33.267509  5919 net.cpp:58] Initializing net from parameters: 
name: "fer2013_experiment"
state {
  phase: TRAIN
  level: 0
  stage: ""
}
layer {
  name: "data"
  type: "ImageData"
  top: "data"
  top: "label"
  include {
    phase: TRAIN
  }
  transform_param {
    scale: 0.0078125
    mirror: true
    crop_size: 227
    mean_value: 127.5
    mean_value: 127.5
    mean_value: 127.5
  }
  image_data_param {
    source: "/data/zeng/fer2013_dataset/list/fer2013_train.txt"
    batch_size: 64
    shuffle: true
    new_height: 256
    new_width: 256
    root_folder: "/data/zeng/fer2013_dataset/data/"
  }
}
layer {
  name: "conv1a"
  type: "Convolution"
  bottom: "data"
  top: "conv1a"
  param {
    lr_mult: 1
    decay_mult: 1
  }
  param {
    lr_mult: 2
    decay_mult: 0
  }
  convolution_param {
    num_output: 32
    kernel_size: 9
    stride: 2
    weight_filler {
      type: "xavier"
    }
    bias_filler {
      type: "constant"
      value: 0
    }
  }
}
layer {
  name: "relu1a"
  type: "PReLU"
  bottom: "conv1a"
  top: "conv1a"
}
layer {
  name: "conv1b"
  type: "Convolution"
  bottom: "conv1a"
  top: "conv1b"
  param {
    lr_mult: 1
    decay_mult: 1
  }
  param {
    lr_mult: 2
    decay_mult: 0
  }
  convolution_param {
    num_output: 64
    kernel_size: 3
    stride: 1
    weight_filler {
      type: "xavier"
    }
    bias_filler {
      type: "constant"
      value: 0
    }
  }
}
layer {
  name: "relu1b"
  type: "PReLU"
  bottom: "conv1b"
  top: "conv1b"
}
layer {
  name: "pool1b"
  type: "Pooling"
  bottom: "conv1b"
  top: "pool1b"
  pooling_param {
    pool: MAX
    kernel_size: 2
    stride: 2
  }
}
layer {
  name: "conv2_1"
  type: "Convolution"
  bottom: "pool1b"
  top: "conv2_1"
  param {
    lr_mult: 1
    decay_mult: 1
  }
  param {
    lr_mult: 0
    decay_mult: 0
  }
  convolution_param {
    num_output: 64
    pad: 1
    kernel_size: 3
    stride: 1
    weight_filler {
      type: "gaussian"
      std: 0.01
    }
    bias_filler {
      type: "constant"
      value: 0
    }
  }
}
layer {
  name: "relu2_1"
  type: "PReLU"
  bottom: "conv2_1"
  top: "conv2_1"
}
layer {
  name: "conv2_2"
  type: "Convolution"
  bottom: "conv2_1"
  top: "conv2_2"
  param {
    lr_mult: 1
    decay_mult: 1
  }
  param {
    lr_mult: 0
    decay_mult: 0
  }
  convolution_param {
    num_output: 64
    pad: 1
    kernel_size: 3
    stride: 1
    weight_filler {
      type: "gaussian"
      std: 0.01
    }
    bias_filler {
      type: "constant"
      value: 0
    }
  }
}
layer {
  name: "relu2_2"
  type: "PReLU"
  bottom: "conv2_2"
  top: "conv2_2"
}
layer {
  name: "res2_2"
  type: "Eltwise"
  bottom: "pool1b"
  bottom: "conv2_2"
  top: "res2_2"
  eltwise_param {
    operation: SUM
  }
}
layer {
  name: "conv2"
  type: "Convolution"
  bottom: "res2_2"
  top: "conv2"
  param {
    lr_mult: 1
    decay_mult: 1
  }
  param {
    lr_mult: 2
    decay_mult: 0
  }
  convolution_param {
    num_output: 128
    kernel_size: 3
    stride: 1
    weight_filler {
      type: "xavier"
    }
    bias_filler {
      type: "constant"
      value: 0
    }
  }
}
layer {
  name: "relu2"
  type: "PReLU"
  bottom: "conv2"
  top: "conv2"
}
layer {
  name: "pool2"
  type: "Pooling"
  bottom: "conv2"
  top: "pool2"
  pooling_param {
    pool: MAX
    kernel_size: 2
    stride: 2
  }
}
layer {
  name: "conv3_1"
  type: "Convolution"
  bottom: "pool2"
  top: "conv3_1"
  param {
    lr_mult: 1
    decay_mult: 1
  }
  param {
    lr_mult: 0
    decay_mult: 0
  }
  convolution_param {
    num_output: 128
    pad: 1
    kernel_size: 3
    stride: 1
    weight_filler {
      type: "gaussian"
      std: 0.01
    }
    bias_filler {
      type: "constant"
      value: 0
    }
  }
}
layer {
  name: "relu3_1"
  type: "PReLU"
  bottom: "conv3_1"
  top: "conv3_1"
}
layer {
  name: "conv3_2"
  type: "Convolution"
  bottom: "conv3_1"
  top: "conv3_2"
  param {
    lr_mult: 1
    decay_mult: 1
  }
  param {
    lr_mult: 0
    decay_mult: 0
  }
  convolution_param {
    num_output: 128
    pad: 1
    kernel_size: 3
    stride: 1
    weight_filler {
      type: "gaussian"
      std: 0.01
    }
    bias_filler {
      type: "constant"
      value: 0
    }
  }
}
layer {
  name: "relu3_2"
  type: "PReLU"
  bottom: "conv3_2"
  top: "conv3_2"
}
layer {
  name: "res3_2"
  type: "Eltwise"
  bottom: "pool2"
  bottom: "conv3_2"
  top: "res3_2"
  eltwise_param {
    operation: SUM
  }
}
layer {
  name: "conv3_3"
  type: "Convolution"
  bottom: "res3_2"
  top: "conv3_3"
  param {
    lr_mult: 1
    decay_mult: 1
  }
  param {
    lr_mult: 0
    decay_mult: 0
  }
  convolution_param {
    num_output: 128
    pad: 1
    kernel_size: 3
    stride: 1
    weight_filler {
      type: "gaussian"
      std: 0.01
    }
    bias_filler {
      type: "constant"
      value: 0
    }
  }
}
layer {
  name: "relu3_3"
  type: "PReLU"
  bottom: "conv3_3"
  top: "conv3_3"
}
layer {
  name: "conv3_4"
  type: "Convolution"
  bottom: "conv3_3"
  top: "conv3_4"
  param {
    lr_mult: 1
    decay_mult: 1
  }
  param {
    lr_mult: 0
    decay_mult: 0
  }
  convolution_param {
    num_output: 128
    pad: 1
    kernel_size: 3
    stride: 1
    weight_filler {
      type: "gaussian"
      std: 0.01
    }
    bias_filler {
      type: "constant"
      value: 0
    }
  }
}
layer {
  name: "relu3_4"
  type: "PReLU"
  bottom: "conv3_4"
  top: "conv3_4"
}
layer {
  name: "res3_4"
  type: "Eltwise"
  bottom: "res3_2"
  bottom: "conv3_4"
  top: "res3_4"
  eltwise_param {
    operation: SUM
  }
}
layer {
  name: "conv3"
  type: "Convolution"
  bottom: "res3_4"
  top: "conv3"
  param {
    lr_mult: 1
    decay_mult: 1
  }
  param {
    lr_mult: 2
    decay_mult: 0
  }
  convolution_param {
    num_output: 256
    kernel_size: 3
    stride: 1
    weight_filler {
      type: "xavier"
    }
    bias_filler {
      type: "constant"
      value: 0
    }
  }
}
layer {
  name: "relu3"
  type: "PReLU"
  bottom: "conv3"
  top: "conv3"
}
layer {
  name: "pool3"
  type: "Pooling"
  bottom: "conv3"
  top: "pool3"
  pooling_param {
    pool: MAX
    kernel_size: 2
    stride: 2
  }
}
layer {
  name: "conv4_1"
  type: "Convolution"
  bottom: "pool3"
  top: "conv4_1"
  param {
    lr_mult: 1
    decay_mult: 1
  }
  param {
    lr_mult: 0
    decay_mult: 0
  }
  convolution_param {
    num_output: 256
    pad: 1
    kernel_size: 3
    stride: 1
    weight_filler {
      type: "gaussian"
      std: 0.01
    }
    bias_filler {
      type: "constant"
      value: 0
    }
  }
}
layer {
  name: "relu4_1"
  type: "PReLU"
  bottom: "conv4_1"
  top: "conv4_1"
}
layer {
  name: "conv4_2"
  type: "Convolution"
  bottom: "conv4_1"
  top: "conv4_2"
  param {
    lr_mult: 1
    decay_mult: 1
  }
  param {
    lr_mult: 0
    decay_mult: 0
  }
  convolution_param {
    num_output: 256
    pad: 1
    kernel_size: 3
    stride: 1
    weight_filler {
      type: "gaussian"
      std: 0.01
    }
    bias_filler {
      type: "constant"
      value: 0
    }
  }
}
layer {
  name: "relu4_2"
  type: "PReLU"
  bottom: "conv4_2"
  top: "conv4_2"
}
layer {
  name: "res4_2"
  type: "Eltwise"
  bottom: "pool3"
  bottom: "conv4_2"
  top: "res4_2"
  eltwise_param {
    operation: SUM
  }
}
layer {
  name: "conv4_3"
  type: "Convolution"
  bottom: "res4_2"
  top: "conv4_3"
  param {
    lr_mult: 1
    decay_mult: 1
  }
  param {
    lr_mult: 0
    decay_mult: 0
  }
  convolution_param {
    num_output: 256
    pad: 1
    kernel_size: 3
    stride: 1
    weight_filler {
      type: "gaussian"
      std: 0.01
    }
    bias_filler {
      type: "constant"
      value: 0
    }
  }
}
layer {
  name: "relu4_3"
  type: "PReLU"
  bottom: "conv4_3"
  top: "conv4_3"
}
layer {
  name: "conv4_4"
  type: "Convolution"
  bottom: "conv4_3"
  top: "conv4_4"
  param {
    lr_mult: 1
    decay_mult: 1
  }
  param {
    lr_mult: 0
    decay_mult: 0
  }
  convolution_param {
    num_output: 256
    pad: 1
    kernel_size: 3
    stride: 1
    weight_filler {
      type: "gaussian"
      std: 0.01
    }
    bias_filler {
      type: "constant"
      value: 0
    }
  }
}
layer {
  name: "relu4_4"
  type: "PReLU"
  bottom: "conv4_4"
  top: "conv4_4"
}
layer {
  name: "res4_4"
  type: "Eltwise"
  bottom: "res4_2"
  bottom: "conv4_4"
  top: "res4_4"
  eltwise_param {
    operation: SUM
  }
}
layer {
  name: "conv4_5"
  type: "Convolution"
  bottom: "res4_4"
  top: "conv4_5"
  param {
    lr_mult: 1
    decay_mult: 1
  }
  param {
    lr_mult: 0
    decay_mult: 0
  }
  convolution_param {
    num_output: 256
    pad: 1
    kernel_size: 3
    stride: 1
    weight_filler {
      type: "gaussian"
      std: 0.01
    }
    bias_filler {
      type: "constant"
      value: 0
    }
  }
}
layer {
  name: "relu4_5"
  type: "PReLU"
  bottom: "conv4_5"
  top: "conv4_5"
}
layer {
  name: "conv4_6"
  type: "Convolution"
  bottom: "conv4_5"
  top: "conv4_6"
  param {
    lr_mult: 1
    decay_mult: 1
  }
  param {
    lr_mult: 0
    decay_mult: 0
  }
  convolution_param {
    num_output: 256
    pad: 1
    kernel_size: 3
    stride: 1
    weight_filler {
      type: "gaussian"
      std: 0.01
    }
    bias_filler {
      type: "constant"
      value: 0
    }
  }
}
layer {
  name: "relu4_6"
  type: "PReLU"
  bottom: "conv4_6"
  top: "conv4_6"
}
layer {
  name: "res4_6"
  type: "Eltwise"
  bottom: "res4_4"
  bottom: "conv4_6"
  top: "res4_6"
  eltwise_param {
    operation: SUM
  }
}
layer {
  name: "conv4_7"
  type: "Convolution"
  bottom: "res4_6"
  top: "conv4_7"
  param {
    lr_mult: 1
    decay_mult: 1
  }
  param {
    lr_mult: 0
    decay_mult: 0
  }
  convolution_param {
    num_output: 256
    pad: 1
    kernel_size: 3
    stride: 1
    weight_filler {
      type: "gaussian"
      std: 0.01
    }
    bias_filler {
      type: "constant"
      value: 0
    }
  }
}
layer {
  name: "relu4_7"
  type: "PReLU"
  bottom: "conv4_7"
  top: "conv4_7"
}
layer {
  name: "conv4_8"
  type: "Convolution"
  bottom: "conv4_7"
  top: "conv4_8"
  param {
    lr_mult: 1
    decay_mult: 1
  }
  param {
    lr_mult: 0
    decay_mult: 0
  }
  convolution_param {
    num_output: 256
    pad: 1
    kernel_size: 3
    stride: 1
    weight_filler {
      type: "gaussian"
      std: 0.01
    }
    bias_filler {
      type: "constant"
      value: 0
    }
  }
}
layer {
  name: "relu4_8"
  type: "PReLU"
  bottom: "conv4_8"
  top: "conv4_8"
}
layer {
  name: "res4_8"
  type: "Eltwise"
  bottom: "res4_6"
  bottom: "conv4_8"
  top: "res4_8"
  eltwise_param {
    operation: SUM
  }
}
layer {
  name: "conv4_9"
  type: "Convolution"
  bottom: "res4_8"
  top: "conv4_9"
  param {
    lr_mult: 1
    decay_mult: 1
  }
  param {
    lr_mult: 0
    decay_mult: 0
  }
  convolution_param {
    num_output: 256
    pad: 1
    kernel_size: 3
    stride: 1
    weight_filler {
      type: "gaussian"
      std: 0.01
    }
    bias_filler {
      type: "constant"
      value: 0
    }
  }
}
layer {
  name: "relu4_9"
  type: "PReLU"
  bottom: "conv4_9"
  top: "conv4_9"
}
layer {
  name: "conv4_10"
  type: "Convolution"
  bottom: "conv4_9"
  top: "conv4_10"
  param {
    lr_mult: 1
    decay_mult: 1
  }
  param {
    lr_mult: 0
    decay_mult: 0
  }
  convolution_param {
    num_output: 256
    pad: 1
    kernel_size: 3
    stride: 1
    weight_filler {
      type: "gaussian"
      std: 0.01
    }
    bias_filler {
      type: "constant"
      value: 0
    }
  }
}
layer {
  name: "relu4_10"
  type: "PReLU"
  bottom: "conv4_10"
  top: "conv4_10"
}
layer {
  name: "res4_10"
  type: "Eltwise"
  bottom: "res4_8"
  bottom: "conv4_10"
  top: "res4_10"
  eltwise_param {
    operation: SUM
  }
}
layer {
  name: "conv4"
  type: "Convolution"
  bottom: "res4_10"
  top: "conv4"
  param {
    lr_mult: 1
    decay_mult: 1
  }
  param {
    lr_mult: 2
    decay_mult: 0
  }
  convolution_param {
    num_output: 512
    kernel_size: 3
    stride: 1
    weight_filler {
      type: "xavier"
    }
    bias_filler {
      type: "constant"
      value: 0
    }
  }
}
layer {
  name: "relu4"
  type: "PReLU"
  bottom: "conv4"
  top: "conv4"
}
layer {
  name: "pool4"
  type: "Pooling"
  bottom: "conv4"
  top: "pool4"
  pooling_param {
    pool: MAX
    kernel_size: 2
    stride: 2
  }
}
layer {
  name: "conv5_1"
  type: "Convolution"
  bottom: "pool4"
  top: "conv5_1"
  param {
    lr_mult: 1
    decay_mult: 1
  }
  param {
    lr_mult: 0
    decay_mult: 0
  }
  convolution_param {
    num_output: 512
    pad: 1
    kernel_size: 3
    stride: 1
    weight_filler {
      type: "gaussian"
      std: 0.01
    }
    bias_filler {
      type: "constant"
      value: 0
    }
  }
}
layer {
  name: "relu5_1"
  type: "PReLU"
  bottom: "conv5_1"
  top: "conv5_1"
}
layer {
  name: "conv5_2"
  type: "Convolution"
  bottom: "conv5_1"
  top: "conv5_2"
  param {
    lr_mult: 1
    decay_mult: 1
  }
  param {
    lr_mult: 0
    decay_mult: 0
  }
  convolution_param {
    num_output: 512
    pad: 1
    kernel_size: 3
    stride: 1
    weight_filler {
      type: "gaussian"
      std: 0.01
    }
    bias_filler {
      type: "constant"
      value: 0
    }
  }
}
layer {
  name: "relu5_2"
  type: "PReLU"
  bottom: "conv5_2"
  top: "conv5_2"
}
layer {
  name: "res5_2"
  type: "Eltwise"
  bottom: "pool4"
  bottom: "conv5_2"
  top: "res5_2"
  eltwise_param {
    operation: SUM
  }
}
layer {
  name: "conv5_3"
  type: "Convolution"
  bottom: "res5_2"
  top: "conv5_3"
  param {
    lr_mult: 1
    decay_mult: 1
  }
  param {
    lr_mult: 0
    decay_mult: 0
  }
  convolution_param {
    num_output: 512
    pad: 1
    kernel_size: 3
    stride: 1
    weight_filler {
      type: "gaussian"
      std: 0.01
    }
    bias_filler {
      type: "constant"
      value: 0
    }
  }
}
layer {
  name: "relu5_3"
  type: "PReLU"
  bottom: "conv5_3"
  top: "conv5_3"
}
layer {
  name: "conv5_4"
  type: "Convolution"
  bottom: "conv5_3"
  top: "conv5_4"
  param {
    lr_mult: 1
    decay_mult: 1
  }
  param {
    lr_mult: 0
    decay_mult: 0
  }
  convolution_param {
    num_output: 512
    pad: 1
    kernel_size: 3
    stride: 1
    weight_filler {
      type: "gaussian"
      std: 0.01
    }
    bias_filler {
      type: "constant"
      value: 0
    }
  }
}
layer {
  name: "relu5_4"
  type: "PReLU"
  bottom: "conv5_4"
  top: "conv5_4"
}
layer {
  name: "res5_4"
  type: "Eltwise"
  bottom: "res5_2"
  bottom: "conv5_4"
  top: "res5_4"
  eltwise_param {
    operation: SUM
  }
}
layer {
  name: "conv5_5"
  type: "Convolution"
  bottom: "res5_4"
  top: "conv5_5"
  param {
    lr_mult: 1
    decay_mult: 1
  }
  param {
    lr_mult: 0
    decay_mult: 0
  }
  convolution_param {
    num_output: 512
    pad: 1
    kernel_size: 3
    stride: 1
    weight_filler {
      type: "gaussian"
      std: 0.01
    }
    bias_filler {
      type: "constant"
      value: 0
    }
  }
}
layer {
  name: "relu5_5"
  type: "PReLU"
  bottom: "conv5_5"
  top: "conv5_5"
}
layer {
  name: "conv5_6"
  type: "Convolution"
  bottom: "conv5_5"
  top: "conv5_6"
  param {
    lr_mult: 1
    decay_mult: 1
  }
  param {
    lr_mult: 0
    decay_mult: 0
  }
  convolution_param {
    num_output: 512
    pad: 1
    kernel_size: 3
    stride: 1
    weight_filler {
      type: "gaussian"
      std: 0.01
    }
    bias_filler {
      type: "constant"
      value: 0
    }
  }
}
layer {
  name: "relu5_6"
  type: "PReLU"
  bottom: "conv5_6"
  top: "conv5_6"
}
layer {
  name: "res5_6"
  type: "Eltwise"
  bottom: "res5_4"
  bottom: "conv5_6"
  top: "res5_6"
  eltwise_param {
    operation: SUM
  }
}
layer {
  name: "fc5_new"
  type: "InnerProduct"
  bottom: "res5_6"
  top: "fc5_new"
  param {
    lr_mult: 1
    decay_mult: 1
  }
  param {
    lr_mult: 2
    decay_mult: 0
  }
  inner_product_param {
    num_output: 512
    weight_filler {
      type: "xavier"
    }
    bias_filler {
      type: "constant"
      value: 0
    }
  }
}
layer {
  name: "fc6_new"
  type: "InnerProduct"
  bottom: "fc5_new"
  top: "fc6_new"
  param {
    lr_mult: 1
    decay_mult: 1
  }
  param {
    lr_mult: 2
    decay_mult: 0
  }
  inner_product_param {
    num_output: 7
    weight_filler {
      type: "xavier"
    }
    bias_filler {
      type: "constant"
      value: 0
    }
  }
}
layer {
  name: "softmax_loss"
  type: "SoftmaxWithLoss"
  bottom: "fc6_new"
  bottom: "label"
  top: "softmax_loss"
}
layer {
  name: "accuracy"
  type: "Accuracy"
  bottom: "fc6_new"
  bottom: "label"
  top: "accuracy"
}
layer {
  name: "nothing"
  type: "InnerProduct"
  bottom: "res5_6"
  top: "nothing"
  param {
    lr_mult: 1
    decay_mult: 1
  }
  param {
    lr_mult: 2
    decay_mult: 0
  }
  inner_product_param {
    num_output: 512
    weight_filler {
      type: "xavier"
    }
    bias_filler {
      type: "constant"
      value: 0
    }
  }
}
layer {
  name: "center_loss_new"
  type: "CenterLoss"
  bottom: "fc5_new"
  bottom: "label"
  top: "center_loss_new"
  loss_weight: 0.008
  param {
    lr_mult: 1
    decay_mult: 2
  }
  center_loss_param {
    num_output: 7
    center_filler {
      type: "xavier"
    }
  }
}
layer {
  name: "l2_feature_loss"
  type: "L2FeatureLoss"
  bottom: "fc5_new"
  bottom: "nothing"
  top: "l2_feature_loss"
  loss_weight: 1e-05
}
I1102 17:16:33.270818  5919 layer_factory.hpp:77] Creating layer data
I1102 17:16:33.270894  5919 net.cpp:100] Creating Layer data
I1102 17:16:33.270910  5919 net.cpp:408] data -> data
I1102 17:16:33.270938  5919 net.cpp:408] data -> label
I1102 17:16:33.271340  5919 image_data_layer.cpp:38] Opening file /data/zeng/fer2013_dataset/list/fer2013_train.txt
I1102 17:16:33.279054  5919 image_data_layer.cpp:53] Shuffling data
I1102 17:16:33.281370  5919 image_data_layer.cpp:58] A total of 28709 images.
I1102 17:16:33.712211  5919 image_data_layer.cpp:85] output data size: 64,3,227,227
I1102 17:16:33.789093  5919 net.cpp:150] Setting up data
I1102 17:16:33.789162  5919 net.cpp:157] Top shape: 64 3 227 227 (9893568)
I1102 17:16:33.789175  5919 net.cpp:157] Top shape: 64 (64)
I1102 17:16:33.789182  5919 net.cpp:165] Memory required for data: 39574528
I1102 17:16:33.789196  5919 layer_factory.hpp:77] Creating layer label_data_1_split
I1102 17:16:33.789225  5919 net.cpp:100] Creating Layer label_data_1_split
I1102 17:16:33.789237  5919 net.cpp:434] label_data_1_split <- label
I1102 17:16:33.789258  5919 net.cpp:408] label_data_1_split -> label_data_1_split_0
I1102 17:16:33.789273  5919 net.cpp:408] label_data_1_split -> label_data_1_split_1
I1102 17:16:33.789284  5919 net.cpp:408] label_data_1_split -> label_data_1_split_2
I1102 17:16:33.789412  5919 net.cpp:150] Setting up label_data_1_split
I1102 17:16:33.789430  5919 net.cpp:157] Top shape: 64 (64)
I1102 17:16:33.789439  5919 net.cpp:157] Top shape: 64 (64)
I1102 17:16:33.789449  5919 net.cpp:157] Top shape: 64 (64)
I1102 17:16:33.789455  5919 net.cpp:165] Memory required for data: 39575296
I1102 17:16:33.789463  5919 layer_factory.hpp:77] Creating layer conv1a
I1102 17:16:33.789489  5919 net.cpp:100] Creating Layer conv1a
I1102 17:16:33.789499  5919 net.cpp:434] conv1a <- data
I1102 17:16:33.789510  5919 net.cpp:408] conv1a -> conv1a
I1102 17:16:34.087838  5919 net.cpp:150] Setting up conv1a
I1102 17:16:34.087888  5919 net.cpp:157] Top shape: 64 32 110 110 (24780800)
I1102 17:16:34.087896  5919 net.cpp:165] Memory required for data: 138698496
I1102 17:16:34.087915  5919 layer_factory.hpp:77] Creating layer relu1a
I1102 17:16:34.087930  5919 net.cpp:100] Creating Layer relu1a
I1102 17:16:34.087937  5919 net.cpp:434] relu1a <- conv1a
I1102 17:16:34.087946  5919 net.cpp:395] relu1a -> conv1a (in-place)
I1102 17:16:34.089267  5919 net.cpp:150] Setting up relu1a
I1102 17:16:34.089313  5919 net.cpp:157] Top shape: 64 32 110 110 (24780800)
I1102 17:16:34.089321  5919 net.cpp:165] Memory required for data: 237821696
I1102 17:16:34.089331  5919 layer_factory.hpp:77] Creating layer conv1b
I1102 17:16:34.089347  5919 net.cpp:100] Creating Layer conv1b
I1102 17:16:34.089354  5919 net.cpp:434] conv1b <- conv1a
I1102 17:16:34.089361  5919 net.cpp:408] conv1b -> conv1b
I1102 17:16:34.091794  5919 net.cpp:150] Setting up conv1b
I1102 17:16:34.091832  5919 net.cpp:157] Top shape: 64 64 108 108 (47775744)
I1102 17:16:34.091840  5919 net.cpp:165] Memory required for data: 428924672
I1102 17:16:34.091851  5919 layer_factory.hpp:77] Creating layer relu1b
I1102 17:16:34.091861  5919 net.cpp:100] Creating Layer relu1b
I1102 17:16:34.091867  5919 net.cpp:434] relu1b <- conv1b
I1102 17:16:34.091874  5919 net.cpp:395] relu1b -> conv1b (in-place)
I1102 17:16:34.093570  5919 net.cpp:150] Setting up relu1b
I1102 17:16:34.093590  5919 net.cpp:157] Top shape: 64 64 108 108 (47775744)
I1102 17:16:34.093596  5919 net.cpp:165] Memory required for data: 620027648
I1102 17:16:34.093605  5919 layer_factory.hpp:77] Creating layer pool1b
I1102 17:16:34.093616  5919 net.cpp:100] Creating Layer pool1b
I1102 17:16:34.093623  5919 net.cpp:434] pool1b <- conv1b
I1102 17:16:34.093631  5919 net.cpp:408] pool1b -> pool1b
I1102 17:16:34.093730  5919 net.cpp:150] Setting up pool1b
I1102 17:16:34.093744  5919 net.cpp:157] Top shape: 64 64 54 54 (11943936)
I1102 17:16:34.093749  5919 net.cpp:165] Memory required for data: 667803392
I1102 17:16:34.093755  5919 layer_factory.hpp:77] Creating layer pool1b_pool1b_0_split
I1102 17:16:34.093763  5919 net.cpp:100] Creating Layer pool1b_pool1b_0_split
I1102 17:16:34.093770  5919 net.cpp:434] pool1b_pool1b_0_split <- pool1b
I1102 17:16:34.093777  5919 net.cpp:408] pool1b_pool1b_0_split -> pool1b_pool1b_0_split_0
I1102 17:16:34.093788  5919 net.cpp:408] pool1b_pool1b_0_split -> pool1b_pool1b_0_split_1
I1102 17:16:34.093818  5919 net.cpp:150] Setting up pool1b_pool1b_0_split
I1102 17:16:34.093829  5919 net.cpp:157] Top shape: 64 64 54 54 (11943936)
I1102 17:16:34.093835  5919 net.cpp:157] Top shape: 64 64 54 54 (11943936)
I1102 17:16:34.093840  5919 net.cpp:165] Memory required for data: 763354880
I1102 17:16:34.093847  5919 layer_factory.hpp:77] Creating layer conv2_1
I1102 17:16:34.093858  5919 net.cpp:100] Creating Layer conv2_1
I1102 17:16:34.093865  5919 net.cpp:434] conv2_1 <- pool1b_pool1b_0_split_0
I1102 17:16:34.093873  5919 net.cpp:408] conv2_1 -> conv2_1
I1102 17:16:34.097393  5919 net.cpp:150] Setting up conv2_1
I1102 17:16:34.097414  5919 net.cpp:157] Top shape: 64 64 54 54 (11943936)
I1102 17:16:34.097420  5919 net.cpp:165] Memory required for data: 811130624
I1102 17:16:34.097430  5919 layer_factory.hpp:77] Creating layer relu2_1
I1102 17:16:34.097440  5919 net.cpp:100] Creating Layer relu2_1
I1102 17:16:34.097446  5919 net.cpp:434] relu2_1 <- conv2_1
I1102 17:16:34.097455  5919 net.cpp:395] relu2_1 -> conv2_1 (in-place)
I1102 17:16:34.098664  5919 net.cpp:150] Setting up relu2_1
I1102 17:16:34.098682  5919 net.cpp:157] Top shape: 64 64 54 54 (11943936)
I1102 17:16:34.098688  5919 net.cpp:165] Memory required for data: 858906368
I1102 17:16:34.098698  5919 layer_factory.hpp:77] Creating layer conv2_2
I1102 17:16:34.098711  5919 net.cpp:100] Creating Layer conv2_2
I1102 17:16:34.098717  5919 net.cpp:434] conv2_2 <- conv2_1
I1102 17:16:34.098726  5919 net.cpp:408] conv2_2 -> conv2_2
I1102 17:16:34.100621  5919 net.cpp:150] Setting up conv2_2
I1102 17:16:34.100642  5919 net.cpp:157] Top shape: 64 64 54 54 (11943936)
I1102 17:16:34.100649  5919 net.cpp:165] Memory required for data: 906682112
I1102 17:16:34.100657  5919 layer_factory.hpp:77] Creating layer relu2_2
I1102 17:16:34.100667  5919 net.cpp:100] Creating Layer relu2_2
I1102 17:16:34.100673  5919 net.cpp:434] relu2_2 <- conv2_2
I1102 17:16:34.100680  5919 net.cpp:395] relu2_2 -> conv2_2 (in-place)
I1102 17:16:34.100817  5919 net.cpp:150] Setting up relu2_2
I1102 17:16:34.100831  5919 net.cpp:157] Top shape: 64 64 54 54 (11943936)
I1102 17:16:34.100850  5919 net.cpp:165] Memory required for data: 954457856
I1102 17:16:34.100858  5919 layer_factory.hpp:77] Creating layer res2_2
I1102 17:16:34.100868  5919 net.cpp:100] Creating Layer res2_2
I1102 17:16:34.100874  5919 net.cpp:434] res2_2 <- pool1b_pool1b_0_split_1
I1102 17:16:34.100881  5919 net.cpp:434] res2_2 <- conv2_2
I1102 17:16:34.100888  5919 net.cpp:408] res2_2 -> res2_2
I1102 17:16:34.100916  5919 net.cpp:150] Setting up res2_2
I1102 17:16:34.100925  5919 net.cpp:157] Top shape: 64 64 54 54 (11943936)
I1102 17:16:34.100930  5919 net.cpp:165] Memory required for data: 1002233600
I1102 17:16:34.100935  5919 layer_factory.hpp:77] Creating layer conv2
I1102 17:16:34.100947  5919 net.cpp:100] Creating Layer conv2
I1102 17:16:34.100953  5919 net.cpp:434] conv2 <- res2_2
I1102 17:16:34.100960  5919 net.cpp:408] conv2 -> conv2
I1102 17:16:34.102443  5919 net.cpp:150] Setting up conv2
I1102 17:16:34.102465  5919 net.cpp:157] Top shape: 64 128 52 52 (22151168)
I1102 17:16:34.102471  5919 net.cpp:165] Memory required for data: 1090838272
I1102 17:16:34.102480  5919 layer_factory.hpp:77] Creating layer relu2
I1102 17:16:34.102489  5919 net.cpp:100] Creating Layer relu2
I1102 17:16:34.102496  5919 net.cpp:434] relu2 <- conv2
I1102 17:16:34.102504  5919 net.cpp:395] relu2 -> conv2 (in-place)
I1102 17:16:34.103744  5919 net.cpp:150] Setting up relu2
I1102 17:16:34.103765  5919 net.cpp:157] Top shape: 64 128 52 52 (22151168)
I1102 17:16:34.103770  5919 net.cpp:165] Memory required for data: 1179442944
I1102 17:16:34.103778  5919 layer_factory.hpp:77] Creating layer pool2
I1102 17:16:34.103787  5919 net.cpp:100] Creating Layer pool2
I1102 17:16:34.103792  5919 net.cpp:434] pool2 <- conv2
I1102 17:16:34.103801  5919 net.cpp:408] pool2 -> pool2
I1102 17:16:34.103833  5919 net.cpp:150] Setting up pool2
I1102 17:16:34.103842  5919 net.cpp:157] Top shape: 64 128 26 26 (5537792)
I1102 17:16:34.103848  5919 net.cpp:165] Memory required for data: 1201594112
I1102 17:16:34.103854  5919 layer_factory.hpp:77] Creating layer pool2_pool2_0_split
I1102 17:16:34.103863  5919 net.cpp:100] Creating Layer pool2_pool2_0_split
I1102 17:16:34.103868  5919 net.cpp:434] pool2_pool2_0_split <- pool2
I1102 17:16:34.103875  5919 net.cpp:408] pool2_pool2_0_split -> pool2_pool2_0_split_0
I1102 17:16:34.103883  5919 net.cpp:408] pool2_pool2_0_split -> pool2_pool2_0_split_1
I1102 17:16:34.103912  5919 net.cpp:150] Setting up pool2_pool2_0_split
I1102 17:16:34.103921  5919 net.cpp:157] Top shape: 64 128 26 26 (5537792)
I1102 17:16:34.103929  5919 net.cpp:157] Top shape: 64 128 26 26 (5537792)
I1102 17:16:34.103932  5919 net.cpp:165] Memory required for data: 1245896448
I1102 17:16:34.103938  5919 layer_factory.hpp:77] Creating layer conv3_1
I1102 17:16:34.103948  5919 net.cpp:100] Creating Layer conv3_1
I1102 17:16:34.103955  5919 net.cpp:434] conv3_1 <- pool2_pool2_0_split_0
I1102 17:16:34.103962  5919 net.cpp:408] conv3_1 -> conv3_1
I1102 17:16:34.109623  5919 net.cpp:150] Setting up conv3_1
I1102 17:16:34.109649  5919 net.cpp:157] Top shape: 64 128 26 26 (5537792)
I1102 17:16:34.109673  5919 net.cpp:165] Memory required for data: 1268047616
I1102 17:16:34.109685  5919 layer_factory.hpp:77] Creating layer relu3_1
I1102 17:16:34.109715  5919 net.cpp:100] Creating Layer relu3_1
I1102 17:16:34.109724  5919 net.cpp:434] relu3_1 <- conv3_1
I1102 17:16:34.109730  5919 net.cpp:395] relu3_1 -> conv3_1 (in-place)
I1102 17:16:34.109853  5919 net.cpp:150] Setting up relu3_1
I1102 17:16:34.109868  5919 net.cpp:157] Top shape: 64 128 26 26 (5537792)
I1102 17:16:34.109874  5919 net.cpp:165] Memory required for data: 1290198784
I1102 17:16:34.109881  5919 layer_factory.hpp:77] Creating layer conv3_2
I1102 17:16:34.109894  5919 net.cpp:100] Creating Layer conv3_2
I1102 17:16:34.109902  5919 net.cpp:434] conv3_2 <- conv3_1
I1102 17:16:34.109912  5919 net.cpp:408] conv3_2 -> conv3_2
I1102 17:16:34.115926  5919 net.cpp:150] Setting up conv3_2
I1102 17:16:34.115996  5919 net.cpp:157] Top shape: 64 128 26 26 (5537792)
I1102 17:16:34.116060  5919 net.cpp:165] Memory required for data: 1312349952
I1102 17:16:34.116089  5919 layer_factory.hpp:77] Creating layer relu3_2
I1102 17:16:34.116117  5919 net.cpp:100] Creating Layer relu3_2
I1102 17:16:34.116152  5919 net.cpp:434] relu3_2 <- conv3_2
I1102 17:16:34.116179  5919 net.cpp:395] relu3_2 -> conv3_2 (in-place)
I1102 17:16:34.116403  5919 net.cpp:150] Setting up relu3_2
I1102 17:16:34.116425  5919 net.cpp:157] Top shape: 64 128 26 26 (5537792)
I1102 17:16:34.116432  5919 net.cpp:165] Memory required for data: 1334501120
I1102 17:16:34.116446  5919 layer_factory.hpp:77] Creating layer res3_2
I1102 17:16:34.116459  5919 net.cpp:100] Creating Layer res3_2
I1102 17:16:34.116468  5919 net.cpp:434] res3_2 <- pool2_pool2_0_split_1
I1102 17:16:34.116478  5919 net.cpp:434] res3_2 <- conv3_2
I1102 17:16:34.116490  5919 net.cpp:408] res3_2 -> res3_2
I1102 17:16:34.116541  5919 net.cpp:150] Setting up res3_2
I1102 17:16:34.116554  5919 net.cpp:157] Top shape: 64 128 26 26 (5537792)
I1102 17:16:34.116561  5919 net.cpp:165] Memory required for data: 1356652288
I1102 17:16:34.116569  5919 layer_factory.hpp:77] Creating layer res3_2_res3_2_0_split
I1102 17:16:34.116583  5919 net.cpp:100] Creating Layer res3_2_res3_2_0_split
I1102 17:16:34.116592  5919 net.cpp:434] res3_2_res3_2_0_split <- res3_2
I1102 17:16:34.116602  5919 net.cpp:408] res3_2_res3_2_0_split -> res3_2_res3_2_0_split_0
I1102 17:16:34.116616  5919 net.cpp:408] res3_2_res3_2_0_split -> res3_2_res3_2_0_split_1
I1102 17:16:34.116684  5919 net.cpp:150] Setting up res3_2_res3_2_0_split
I1102 17:16:34.116696  5919 net.cpp:157] Top shape: 64 128 26 26 (5537792)
I1102 17:16:34.116706  5919 net.cpp:157] Top shape: 64 128 26 26 (5537792)
I1102 17:16:34.116714  5919 net.cpp:165] Memory required for data: 1400954624
I1102 17:16:34.116722  5919 layer_factory.hpp:77] Creating layer conv3_3
I1102 17:16:34.116744  5919 net.cpp:100] Creating Layer conv3_3
I1102 17:16:34.116753  5919 net.cpp:434] conv3_3 <- res3_2_res3_2_0_split_0
I1102 17:16:34.116770  5919 net.cpp:408] conv3_3 -> conv3_3
I1102 17:16:34.125874  5919 net.cpp:150] Setting up conv3_3
I1102 17:16:34.125911  5919 net.cpp:157] Top shape: 64 128 26 26 (5537792)
I1102 17:16:34.125924  5919 net.cpp:165] Memory required for data: 1423105792
I1102 17:16:34.125941  5919 layer_factory.hpp:77] Creating layer relu3_3
I1102 17:16:34.125959  5919 net.cpp:100] Creating Layer relu3_3
I1102 17:16:34.125970  5919 net.cpp:434] relu3_3 <- conv3_3
I1102 17:16:34.125998  5919 net.cpp:395] relu3_3 -> conv3_3 (in-place)
I1102 17:16:34.126233  5919 net.cpp:150] Setting up relu3_3
I1102 17:16:34.126257  5919 net.cpp:157] Top shape: 64 128 26 26 (5537792)
I1102 17:16:34.126268  5919 net.cpp:165] Memory required for data: 1445256960
I1102 17:16:34.126281  5919 layer_factory.hpp:77] Creating layer conv3_4
I1102 17:16:34.126303  5919 net.cpp:100] Creating Layer conv3_4
I1102 17:16:34.126318  5919 net.cpp:434] conv3_4 <- conv3_3
I1102 17:16:34.126333  5919 net.cpp:408] conv3_4 -> conv3_4
I1102 17:16:34.137881  5919 net.cpp:150] Setting up conv3_4
I1102 17:16:34.137923  5919 net.cpp:157] Top shape: 64 128 26 26 (5537792)
I1102 17:16:34.137935  5919 net.cpp:165] Memory required for data: 1467408128
I1102 17:16:34.137954  5919 layer_factory.hpp:77] Creating layer relu3_4
I1102 17:16:34.137972  5919 net.cpp:100] Creating Layer relu3_4
I1102 17:16:34.137984  5919 net.cpp:434] relu3_4 <- conv3_4
I1102 17:16:34.137997  5919 net.cpp:395] relu3_4 -> conv3_4 (in-place)
I1102 17:16:34.138207  5919 net.cpp:150] Setting up relu3_4
I1102 17:16:34.138229  5919 net.cpp:157] Top shape: 64 128 26 26 (5537792)
I1102 17:16:34.138240  5919 net.cpp:165] Memory required for data: 1489559296
I1102 17:16:34.138253  5919 layer_factory.hpp:77] Creating layer res3_4
I1102 17:16:34.138272  5919 net.cpp:100] Creating Layer res3_4
I1102 17:16:34.138283  5919 net.cpp:434] res3_4 <- res3_2_res3_2_0_split_1
I1102 17:16:34.138296  5919 net.cpp:434] res3_4 <- conv3_4
I1102 17:16:34.138309  5919 net.cpp:408] res3_4 -> res3_4
I1102 17:16:34.138353  5919 net.cpp:150] Setting up res3_4
I1102 17:16:34.138398  5919 net.cpp:157] Top shape: 64 128 26 26 (5537792)
I1102 17:16:34.138412  5919 net.cpp:165] Memory required for data: 1511710464
I1102 17:16:34.138422  5919 layer_factory.hpp:77] Creating layer conv3
I1102 17:16:34.138444  5919 net.cpp:100] Creating Layer conv3
I1102 17:16:34.138458  5919 net.cpp:434] conv3 <- res3_4
I1102 17:16:34.138473  5919 net.cpp:408] conv3 -> conv3
I1102 17:16:34.144758  5919 net.cpp:150] Setting up conv3
I1102 17:16:34.144795  5919 net.cpp:157] Top shape: 64 256 24 24 (9437184)
I1102 17:16:34.144807  5919 net.cpp:165] Memory required for data: 1549459200
I1102 17:16:34.144822  5919 layer_factory.hpp:77] Creating layer relu3
I1102 17:16:34.144839  5919 net.cpp:100] Creating Layer relu3
I1102 17:16:34.144850  5919 net.cpp:434] relu3 <- conv3
I1102 17:16:34.144865  5919 net.cpp:395] relu3 -> conv3 (in-place)
I1102 17:16:34.145092  5919 net.cpp:150] Setting up relu3
I1102 17:16:34.145113  5919 net.cpp:157] Top shape: 64 256 24 24 (9437184)
I1102 17:16:34.145124  5919 net.cpp:165] Memory required for data: 1587207936
I1102 17:16:34.145136  5919 layer_factory.hpp:77] Creating layer pool3
I1102 17:16:34.145153  5919 net.cpp:100] Creating Layer pool3
I1102 17:16:34.145164  5919 net.cpp:434] pool3 <- conv3
I1102 17:16:34.145175  5919 net.cpp:408] pool3 -> pool3
I1102 17:16:34.145239  5919 net.cpp:150] Setting up pool3
I1102 17:16:34.145256  5919 net.cpp:157] Top shape: 64 256 12 12 (2359296)
I1102 17:16:34.145267  5919 net.cpp:165] Memory required for data: 1596645120
I1102 17:16:34.145277  5919 layer_factory.hpp:77] Creating layer pool3_pool3_0_split
I1102 17:16:34.145290  5919 net.cpp:100] Creating Layer pool3_pool3_0_split
I1102 17:16:34.145299  5919 net.cpp:434] pool3_pool3_0_split <- pool3
I1102 17:16:34.145316  5919 net.cpp:408] pool3_pool3_0_split -> pool3_pool3_0_split_0
I1102 17:16:34.145334  5919 net.cpp:408] pool3_pool3_0_split -> pool3_pool3_0_split_1
I1102 17:16:34.145387  5919 net.cpp:150] Setting up pool3_pool3_0_split
I1102 17:16:34.145411  5919 net.cpp:157] Top shape: 64 256 12 12 (2359296)
I1102 17:16:34.145422  5919 net.cpp:157] Top shape: 64 256 12 12 (2359296)
I1102 17:16:34.145431  5919 net.cpp:165] Memory required for data: 1615519488
I1102 17:16:34.145442  5919 layer_factory.hpp:77] Creating layer conv4_1
I1102 17:16:34.145467  5919 net.cpp:100] Creating Layer conv4_1
I1102 17:16:34.145479  5919 net.cpp:434] conv4_1 <- pool3_pool3_0_split_0
I1102 17:16:34.145498  5919 net.cpp:408] conv4_1 -> conv4_1
I1102 17:16:34.172664  5919 net.cpp:150] Setting up conv4_1
I1102 17:16:34.172718  5919 net.cpp:157] Top shape: 64 256 12 12 (2359296)
I1102 17:16:34.172729  5919 net.cpp:165] Memory required for data: 1624956672
I1102 17:16:34.172742  5919 layer_factory.hpp:77] Creating layer relu4_1
I1102 17:16:34.172757  5919 net.cpp:100] Creating Layer relu4_1
I1102 17:16:34.172768  5919 net.cpp:434] relu4_1 <- conv4_1
I1102 17:16:34.172780  5919 net.cpp:395] relu4_1 -> conv4_1 (in-place)
I1102 17:16:34.172940  5919 net.cpp:150] Setting up relu4_1
I1102 17:16:34.172960  5919 net.cpp:157] Top shape: 64 256 12 12 (2359296)
I1102 17:16:34.172971  5919 net.cpp:165] Memory required for data: 1634393856
I1102 17:16:34.172991  5919 layer_factory.hpp:77] Creating layer conv4_2
I1102 17:16:34.173012  5919 net.cpp:100] Creating Layer conv4_2
I1102 17:16:34.173022  5919 net.cpp:434] conv4_2 <- conv4_1
I1102 17:16:34.173038  5919 net.cpp:408] conv4_2 -> conv4_2
I1102 17:16:34.197517  5919 net.cpp:150] Setting up conv4_2
I1102 17:16:34.197551  5919 net.cpp:157] Top shape: 64 256 12 12 (2359296)
I1102 17:16:34.197561  5919 net.cpp:165] Memory required for data: 1643831040
I1102 17:16:34.197572  5919 layer_factory.hpp:77] Creating layer relu4_2
I1102 17:16:34.197585  5919 net.cpp:100] Creating Layer relu4_2
I1102 17:16:34.197594  5919 net.cpp:434] relu4_2 <- conv4_2
I1102 17:16:34.197608  5919 net.cpp:395] relu4_2 -> conv4_2 (in-place)
I1102 17:16:34.197762  5919 net.cpp:150] Setting up relu4_2
I1102 17:16:34.197782  5919 net.cpp:157] Top shape: 64 256 12 12 (2359296)
I1102 17:16:34.197805  5919 net.cpp:165] Memory required for data: 1653268224
I1102 17:16:34.197815  5919 layer_factory.hpp:77] Creating layer res4_2
I1102 17:16:34.197831  5919 net.cpp:100] Creating Layer res4_2
I1102 17:16:34.197840  5919 net.cpp:434] res4_2 <- pool3_pool3_0_split_1
I1102 17:16:34.197850  5919 net.cpp:434] res4_2 <- conv4_2
I1102 17:16:34.197861  5919 net.cpp:408] res4_2 -> res4_2
I1102 17:16:34.197899  5919 net.cpp:150] Setting up res4_2
I1102 17:16:34.197912  5919 net.cpp:157] Top shape: 64 256 12 12 (2359296)
I1102 17:16:34.197922  5919 net.cpp:165] Memory required for data: 1662705408
I1102 17:16:34.197930  5919 layer_factory.hpp:77] Creating layer res4_2_res4_2_0_split
I1102 17:16:34.197942  5919 net.cpp:100] Creating Layer res4_2_res4_2_0_split
I1102 17:16:34.197950  5919 net.cpp:434] res4_2_res4_2_0_split <- res4_2
I1102 17:16:34.197962  5919 net.cpp:408] res4_2_res4_2_0_split -> res4_2_res4_2_0_split_0
I1102 17:16:34.197979  5919 net.cpp:408] res4_2_res4_2_0_split -> res4_2_res4_2_0_split_1
I1102 17:16:34.198027  5919 net.cpp:150] Setting up res4_2_res4_2_0_split
I1102 17:16:34.198058  5919 net.cpp:157] Top shape: 64 256 12 12 (2359296)
I1102 17:16:34.198067  5919 net.cpp:157] Top shape: 64 256 12 12 (2359296)
I1102 17:16:34.198076  5919 net.cpp:165] Memory required for data: 1681579776
I1102 17:16:34.198083  5919 layer_factory.hpp:77] Creating layer conv4_3
I1102 17:16:34.198102  5919 net.cpp:100] Creating Layer conv4_3
I1102 17:16:34.198112  5919 net.cpp:434] conv4_3 <- res4_2_res4_2_0_split_0
I1102 17:16:34.198127  5919 net.cpp:408] conv4_3 -> conv4_3
I1102 17:16:34.220612  5919 net.cpp:150] Setting up conv4_3
I1102 17:16:34.220641  5919 net.cpp:157] Top shape: 64 256 12 12 (2359296)
I1102 17:16:34.220650  5919 net.cpp:165] Memory required for data: 1691016960
I1102 17:16:34.220662  5919 layer_factory.hpp:77] Creating layer relu4_3
I1102 17:16:34.220674  5919 net.cpp:100] Creating Layer relu4_3
I1102 17:16:34.220683  5919 net.cpp:434] relu4_3 <- conv4_3
I1102 17:16:34.220697  5919 net.cpp:395] relu4_3 -> conv4_3 (in-place)
I1102 17:16:34.220842  5919 net.cpp:150] Setting up relu4_3
I1102 17:16:34.220862  5919 net.cpp:157] Top shape: 64 256 12 12 (2359296)
I1102 17:16:34.220872  5919 net.cpp:165] Memory required for data: 1700454144
I1102 17:16:34.220882  5919 layer_factory.hpp:77] Creating layer conv4_4
I1102 17:16:34.220898  5919 net.cpp:100] Creating Layer conv4_4
I1102 17:16:34.220908  5919 net.cpp:434] conv4_4 <- conv4_3
I1102 17:16:34.220919  5919 net.cpp:408] conv4_4 -> conv4_4
I1102 17:16:34.241845  5919 net.cpp:150] Setting up conv4_4
I1102 17:16:34.241873  5919 net.cpp:157] Top shape: 64 256 12 12 (2359296)
I1102 17:16:34.241883  5919 net.cpp:165] Memory required for data: 1709891328
I1102 17:16:34.241896  5919 layer_factory.hpp:77] Creating layer relu4_4
I1102 17:16:34.241909  5919 net.cpp:100] Creating Layer relu4_4
I1102 17:16:34.241916  5919 net.cpp:434] relu4_4 <- conv4_4
I1102 17:16:34.241927  5919 net.cpp:395] relu4_4 -> conv4_4 (in-place)
I1102 17:16:34.242067  5919 net.cpp:150] Setting up relu4_4
I1102 17:16:34.242084  5919 net.cpp:157] Top shape: 64 256 12 12 (2359296)
I1102 17:16:34.242091  5919 net.cpp:165] Memory required for data: 1719328512
I1102 17:16:34.242101  5919 layer_factory.hpp:77] Creating layer res4_4
I1102 17:16:34.242115  5919 net.cpp:100] Creating Layer res4_4
I1102 17:16:34.242123  5919 net.cpp:434] res4_4 <- res4_2_res4_2_0_split_1
I1102 17:16:34.242133  5919 net.cpp:434] res4_4 <- conv4_4
I1102 17:16:34.242144  5919 net.cpp:408] res4_4 -> res4_4
I1102 17:16:34.242177  5919 net.cpp:150] Setting up res4_4
I1102 17:16:34.242187  5919 net.cpp:157] Top shape: 64 256 12 12 (2359296)
I1102 17:16:34.242193  5919 net.cpp:165] Memory required for data: 1728765696
I1102 17:16:34.242200  5919 layer_factory.hpp:77] Creating layer res4_4_res4_4_0_split
I1102 17:16:34.242213  5919 net.cpp:100] Creating Layer res4_4_res4_4_0_split
I1102 17:16:34.242221  5919 net.cpp:434] res4_4_res4_4_0_split <- res4_4
I1102 17:16:34.242229  5919 net.cpp:408] res4_4_res4_4_0_split -> res4_4_res4_4_0_split_0
I1102 17:16:34.242255  5919 net.cpp:408] res4_4_res4_4_0_split -> res4_4_res4_4_0_split_1
I1102 17:16:34.242305  5919 net.cpp:150] Setting up res4_4_res4_4_0_split
I1102 17:16:34.242331  5919 net.cpp:157] Top shape: 64 256 12 12 (2359296)
I1102 17:16:34.242339  5919 net.cpp:157] Top shape: 64 256 12 12 (2359296)
I1102 17:16:34.242347  5919 net.cpp:165] Memory required for data: 1747640064
I1102 17:16:34.242353  5919 layer_factory.hpp:77] Creating layer conv4_5
I1102 17:16:34.242370  5919 net.cpp:100] Creating Layer conv4_5
I1102 17:16:34.242378  5919 net.cpp:434] conv4_5 <- res4_4_res4_4_0_split_0
I1102 17:16:34.242393  5919 net.cpp:408] conv4_5 -> conv4_5
I1102 17:16:34.262140  5919 net.cpp:150] Setting up conv4_5
I1102 17:16:34.262166  5919 net.cpp:157] Top shape: 64 256 12 12 (2359296)
I1102 17:16:34.262176  5919 net.cpp:165] Memory required for data: 1757077248
I1102 17:16:34.262188  5919 layer_factory.hpp:77] Creating layer relu4_5
I1102 17:16:34.262199  5919 net.cpp:100] Creating Layer relu4_5
I1102 17:16:34.262209  5919 net.cpp:434] relu4_5 <- conv4_5
I1102 17:16:34.262219  5919 net.cpp:395] relu4_5 -> conv4_5 (in-place)
I1102 17:16:34.262354  5919 net.cpp:150] Setting up relu4_5
I1102 17:16:34.262372  5919 net.cpp:157] Top shape: 64 256 12 12 (2359296)
I1102 17:16:34.262377  5919 net.cpp:165] Memory required for data: 1766514432
I1102 17:16:34.262387  5919 layer_factory.hpp:77] Creating layer conv4_6
I1102 17:16:34.262403  5919 net.cpp:100] Creating Layer conv4_6
I1102 17:16:34.262413  5919 net.cpp:434] conv4_6 <- conv4_5
I1102 17:16:34.262423  5919 net.cpp:408] conv4_6 -> conv4_6
I1102 17:16:34.281771  5919 net.cpp:150] Setting up conv4_6
I1102 17:16:34.281798  5919 net.cpp:157] Top shape: 64 256 12 12 (2359296)
I1102 17:16:34.281806  5919 net.cpp:165] Memory required for data: 1775951616
I1102 17:16:34.281819  5919 layer_factory.hpp:77] Creating layer relu4_6
I1102 17:16:34.281831  5919 net.cpp:100] Creating Layer relu4_6
I1102 17:16:34.281839  5919 net.cpp:434] relu4_6 <- conv4_6
I1102 17:16:34.281852  5919 net.cpp:395] relu4_6 -> conv4_6 (in-place)
I1102 17:16:34.281988  5919 net.cpp:150] Setting up relu4_6
I1102 17:16:34.282006  5919 net.cpp:157] Top shape: 64 256 12 12 (2359296)
I1102 17:16:34.282011  5919 net.cpp:165] Memory required for data: 1785388800
I1102 17:16:34.282021  5919 layer_factory.hpp:77] Creating layer res4_6
I1102 17:16:34.282032  5919 net.cpp:100] Creating Layer res4_6
I1102 17:16:34.282040  5919 net.cpp:434] res4_6 <- res4_4_res4_4_0_split_1
I1102 17:16:34.282049  5919 net.cpp:434] res4_6 <- conv4_6
I1102 17:16:34.282058  5919 net.cpp:408] res4_6 -> res4_6
I1102 17:16:34.282090  5919 net.cpp:150] Setting up res4_6
I1102 17:16:34.282102  5919 net.cpp:157] Top shape: 64 256 12 12 (2359296)
I1102 17:16:34.282109  5919 net.cpp:165] Memory required for data: 1794825984
I1102 17:16:34.282114  5919 layer_factory.hpp:77] Creating layer res4_6_res4_6_0_split
I1102 17:16:34.282124  5919 net.cpp:100] Creating Layer res4_6_res4_6_0_split
I1102 17:16:34.282131  5919 net.cpp:434] res4_6_res4_6_0_split <- res4_6
I1102 17:16:34.282141  5919 net.cpp:408] res4_6_res4_6_0_split -> res4_6_res4_6_0_split_0
I1102 17:16:34.282150  5919 net.cpp:408] res4_6_res4_6_0_split -> res4_6_res4_6_0_split_1
I1102 17:16:34.282194  5919 net.cpp:150] Setting up res4_6_res4_6_0_split
I1102 17:16:34.282204  5919 net.cpp:157] Top shape: 64 256 12 12 (2359296)
I1102 17:16:34.282212  5919 net.cpp:157] Top shape: 64 256 12 12 (2359296)
I1102 17:16:34.282219  5919 net.cpp:165] Memory required for data: 1813700352
I1102 17:16:34.282225  5919 layer_factory.hpp:77] Creating layer conv4_7
I1102 17:16:34.282245  5919 net.cpp:100] Creating Layer conv4_7
I1102 17:16:34.282253  5919 net.cpp:434] conv4_7 <- res4_6_res4_6_0_split_0
I1102 17:16:34.282263  5919 net.cpp:408] conv4_7 -> conv4_7
I1102 17:16:34.301547  5919 net.cpp:150] Setting up conv4_7
I1102 17:16:34.301574  5919 net.cpp:157] Top shape: 64 256 12 12 (2359296)
I1102 17:16:34.301582  5919 net.cpp:165] Memory required for data: 1823137536
I1102 17:16:34.301606  5919 layer_factory.hpp:77] Creating layer relu4_7
I1102 17:16:34.301621  5919 net.cpp:100] Creating Layer relu4_7
I1102 17:16:34.301630  5919 net.cpp:434] relu4_7 <- conv4_7
I1102 17:16:34.301640  5919 net.cpp:395] relu4_7 -> conv4_7 (in-place)
I1102 17:16:34.301786  5919 net.cpp:150] Setting up relu4_7
I1102 17:16:34.301803  5919 net.cpp:157] Top shape: 64 256 12 12 (2359296)
I1102 17:16:34.301810  5919 net.cpp:165] Memory required for data: 1832574720
I1102 17:16:34.301820  5919 layer_factory.hpp:77] Creating layer conv4_8
I1102 17:16:34.301834  5919 net.cpp:100] Creating Layer conv4_8
I1102 17:16:34.301843  5919 net.cpp:434] conv4_8 <- conv4_7
I1102 17:16:34.301856  5919 net.cpp:408] conv4_8 -> conv4_8
I1102 17:16:34.320341  5919 net.cpp:150] Setting up conv4_8
I1102 17:16:34.320369  5919 net.cpp:157] Top shape: 64 256 12 12 (2359296)
I1102 17:16:34.320376  5919 net.cpp:165] Memory required for data: 1842011904
I1102 17:16:34.320387  5919 layer_factory.hpp:77] Creating layer relu4_8
I1102 17:16:34.320399  5919 net.cpp:100] Creating Layer relu4_8
I1102 17:16:34.320413  5919 net.cpp:434] relu4_8 <- conv4_8
I1102 17:16:34.320425  5919 net.cpp:395] relu4_8 -> conv4_8 (in-place)
I1102 17:16:34.320564  5919 net.cpp:150] Setting up relu4_8
I1102 17:16:34.320580  5919 net.cpp:157] Top shape: 64 256 12 12 (2359296)
I1102 17:16:34.320586  5919 net.cpp:165] Memory required for data: 1851449088
I1102 17:16:34.320596  5919 layer_factory.hpp:77] Creating layer res4_8
I1102 17:16:34.320608  5919 net.cpp:100] Creating Layer res4_8
I1102 17:16:34.320617  5919 net.cpp:434] res4_8 <- res4_6_res4_6_0_split_1
I1102 17:16:34.320626  5919 net.cpp:434] res4_8 <- conv4_8
I1102 17:16:34.320633  5919 net.cpp:408] res4_8 -> res4_8
I1102 17:16:34.320667  5919 net.cpp:150] Setting up res4_8
I1102 17:16:34.320677  5919 net.cpp:157] Top shape: 64 256 12 12 (2359296)
I1102 17:16:34.320684  5919 net.cpp:165] Memory required for data: 1860886272
I1102 17:16:34.320690  5919 layer_factory.hpp:77] Creating layer res4_8_res4_8_0_split
I1102 17:16:34.320700  5919 net.cpp:100] Creating Layer res4_8_res4_8_0_split
I1102 17:16:34.320708  5919 net.cpp:434] res4_8_res4_8_0_split <- res4_8
I1102 17:16:34.320718  5919 net.cpp:408] res4_8_res4_8_0_split -> res4_8_res4_8_0_split_0
I1102 17:16:34.320727  5919 net.cpp:408] res4_8_res4_8_0_split -> res4_8_res4_8_0_split_1
I1102 17:16:34.320767  5919 net.cpp:150] Setting up res4_8_res4_8_0_split
I1102 17:16:34.320777  5919 net.cpp:157] Top shape: 64 256 12 12 (2359296)
I1102 17:16:34.320785  5919 net.cpp:157] Top shape: 64 256 12 12 (2359296)
I1102 17:16:34.320791  5919 net.cpp:165] Memory required for data: 1879760640
I1102 17:16:34.320799  5919 layer_factory.hpp:77] Creating layer conv4_9
I1102 17:16:34.320816  5919 net.cpp:100] Creating Layer conv4_9
I1102 17:16:34.320825  5919 net.cpp:434] conv4_9 <- res4_8_res4_8_0_split_0
I1102 17:16:34.320835  5919 net.cpp:408] conv4_9 -> conv4_9
I1102 17:16:34.340150  5919 net.cpp:150] Setting up conv4_9
I1102 17:16:34.340178  5919 net.cpp:157] Top shape: 64 256 12 12 (2359296)
I1102 17:16:34.340186  5919 net.cpp:165] Memory required for data: 1889197824
I1102 17:16:34.340198  5919 layer_factory.hpp:77] Creating layer relu4_9
I1102 17:16:34.340209  5919 net.cpp:100] Creating Layer relu4_9
I1102 17:16:34.340217  5919 net.cpp:434] relu4_9 <- conv4_9
I1102 17:16:34.340229  5919 net.cpp:395] relu4_9 -> conv4_9 (in-place)
I1102 17:16:34.340369  5919 net.cpp:150] Setting up relu4_9
I1102 17:16:34.340385  5919 net.cpp:157] Top shape: 64 256 12 12 (2359296)
I1102 17:16:34.340392  5919 net.cpp:165] Memory required for data: 1898635008
I1102 17:16:34.340401  5919 layer_factory.hpp:77] Creating layer conv4_10
I1102 17:16:34.340418  5919 net.cpp:100] Creating Layer conv4_10
I1102 17:16:34.340427  5919 net.cpp:434] conv4_10 <- conv4_9
I1102 17:16:34.340437  5919 net.cpp:408] conv4_10 -> conv4_10
I1102 17:16:34.360644  5919 net.cpp:150] Setting up conv4_10
I1102 17:16:34.360671  5919 net.cpp:157] Top shape: 64 256 12 12 (2359296)
I1102 17:16:34.360679  5919 net.cpp:165] Memory required for data: 1908072192
I1102 17:16:34.360710  5919 layer_factory.hpp:77] Creating layer relu4_10
I1102 17:16:34.360724  5919 net.cpp:100] Creating Layer relu4_10
I1102 17:16:34.360733  5919 net.cpp:434] relu4_10 <- conv4_10
I1102 17:16:34.360741  5919 net.cpp:395] relu4_10 -> conv4_10 (in-place)
I1102 17:16:34.360884  5919 net.cpp:150] Setting up relu4_10
I1102 17:16:34.360898  5919 net.cpp:157] Top shape: 64 256 12 12 (2359296)
I1102 17:16:34.360903  5919 net.cpp:165] Memory required for data: 1917509376
I1102 17:16:34.360913  5919 layer_factory.hpp:77] Creating layer res4_10
I1102 17:16:34.360924  5919 net.cpp:100] Creating Layer res4_10
I1102 17:16:34.360931  5919 net.cpp:434] res4_10 <- res4_8_res4_8_0_split_1
I1102 17:16:34.360939  5919 net.cpp:434] res4_10 <- conv4_10
I1102 17:16:34.360949  5919 net.cpp:408] res4_10 -> res4_10
I1102 17:16:34.360981  5919 net.cpp:150] Setting up res4_10
I1102 17:16:34.360991  5919 net.cpp:157] Top shape: 64 256 12 12 (2359296)
I1102 17:16:34.360997  5919 net.cpp:165] Memory required for data: 1926946560
I1102 17:16:34.361003  5919 layer_factory.hpp:77] Creating layer conv4
I1102 17:16:34.361019  5919 net.cpp:100] Creating Layer conv4
I1102 17:16:34.361027  5919 net.cpp:434] conv4 <- res4_10
I1102 17:16:34.361037  5919 net.cpp:408] conv4 -> conv4
I1102 17:16:34.371685  5919 net.cpp:150] Setting up conv4
I1102 17:16:34.371713  5919 net.cpp:157] Top shape: 64 512 10 10 (3276800)
I1102 17:16:34.371722  5919 net.cpp:165] Memory required for data: 1940053760
I1102 17:16:34.371733  5919 layer_factory.hpp:77] Creating layer relu4
I1102 17:16:34.371744  5919 net.cpp:100] Creating Layer relu4
I1102 17:16:34.371753  5919 net.cpp:434] relu4 <- conv4
I1102 17:16:34.371764  5919 net.cpp:395] relu4 -> conv4 (in-place)
I1102 17:16:34.371925  5919 net.cpp:150] Setting up relu4
I1102 17:16:34.371942  5919 net.cpp:157] Top shape: 64 512 10 10 (3276800)
I1102 17:16:34.371948  5919 net.cpp:165] Memory required for data: 1953160960
I1102 17:16:34.371958  5919 layer_factory.hpp:77] Creating layer pool4
I1102 17:16:34.371970  5919 net.cpp:100] Creating Layer pool4
I1102 17:16:34.371978  5919 net.cpp:434] pool4 <- conv4
I1102 17:16:34.371989  5919 net.cpp:408] pool4 -> pool4
I1102 17:16:34.372038  5919 net.cpp:150] Setting up pool4
I1102 17:16:34.372051  5919 net.cpp:157] Top shape: 64 512 5 5 (819200)
I1102 17:16:34.372058  5919 net.cpp:165] Memory required for data: 1956437760
I1102 17:16:34.372066  5919 layer_factory.hpp:77] Creating layer pool4_pool4_0_split
I1102 17:16:34.372084  5919 net.cpp:100] Creating Layer pool4_pool4_0_split
I1102 17:16:34.372095  5919 net.cpp:434] pool4_pool4_0_split <- pool4
I1102 17:16:34.372103  5919 net.cpp:408] pool4_pool4_0_split -> pool4_pool4_0_split_0
I1102 17:16:34.372115  5919 net.cpp:408] pool4_pool4_0_split -> pool4_pool4_0_split_1
I1102 17:16:34.372159  5919 net.cpp:150] Setting up pool4_pool4_0_split
I1102 17:16:34.372169  5919 net.cpp:157] Top shape: 64 512 5 5 (819200)
I1102 17:16:34.372179  5919 net.cpp:157] Top shape: 64 512 5 5 (819200)
I1102 17:16:34.372185  5919 net.cpp:165] Memory required for data: 1962991360
I1102 17:16:34.372192  5919 layer_factory.hpp:77] Creating layer conv5_1
I1102 17:16:34.372208  5919 net.cpp:100] Creating Layer conv5_1
I1102 17:16:34.372216  5919 net.cpp:434] conv5_1 <- pool4_pool4_0_split_0
I1102 17:16:34.372227  5919 net.cpp:408] conv5_1 -> conv5_1
I1102 17:16:34.440583  5919 net.cpp:150] Setting up conv5_1
I1102 17:16:34.440610  5919 net.cpp:157] Top shape: 64 512 5 5 (819200)
I1102 17:16:34.440619  5919 net.cpp:165] Memory required for data: 1966268160
I1102 17:16:34.440646  5919 layer_factory.hpp:77] Creating layer relu5_1
I1102 17:16:34.440660  5919 net.cpp:100] Creating Layer relu5_1
I1102 17:16:34.440670  5919 net.cpp:434] relu5_1 <- conv5_1
I1102 17:16:34.440678  5919 net.cpp:395] relu5_1 -> conv5_1 (in-place)
I1102 17:16:34.440817  5919 net.cpp:150] Setting up relu5_1
I1102 17:16:34.440834  5919 net.cpp:157] Top shape: 64 512 5 5 (819200)
I1102 17:16:34.440840  5919 net.cpp:165] Memory required for data: 1969544960
I1102 17:16:34.440863  5919 layer_factory.hpp:77] Creating layer conv5_2
I1102 17:16:34.440882  5919 net.cpp:100] Creating Layer conv5_2
I1102 17:16:34.440891  5919 net.cpp:434] conv5_2 <- conv5_1
I1102 17:16:34.440901  5919 net.cpp:408] conv5_2 -> conv5_2
I1102 17:16:34.508347  5919 net.cpp:150] Setting up conv5_2
I1102 17:16:34.508375  5919 net.cpp:157] Top shape: 64 512 5 5 (819200)
I1102 17:16:34.508383  5919 net.cpp:165] Memory required for data: 1972821760
I1102 17:16:34.508394  5919 layer_factory.hpp:77] Creating layer relu5_2
I1102 17:16:34.508410  5919 net.cpp:100] Creating Layer relu5_2
I1102 17:16:34.508419  5919 net.cpp:434] relu5_2 <- conv5_2
I1102 17:16:34.508430  5919 net.cpp:395] relu5_2 -> conv5_2 (in-place)
I1102 17:16:34.508550  5919 net.cpp:150] Setting up relu5_2
I1102 17:16:34.508565  5919 net.cpp:157] Top shape: 64 512 5 5 (819200)
I1102 17:16:34.508572  5919 net.cpp:165] Memory required for data: 1976098560
I1102 17:16:34.508581  5919 layer_factory.hpp:77] Creating layer res5_2
I1102 17:16:34.508594  5919 net.cpp:100] Creating Layer res5_2
I1102 17:16:34.508601  5919 net.cpp:434] res5_2 <- pool4_pool4_0_split_1
I1102 17:16:34.508610  5919 net.cpp:434] res5_2 <- conv5_2
I1102 17:16:34.508618  5919 net.cpp:408] res5_2 -> res5_2
I1102 17:16:34.508653  5919 net.cpp:150] Setting up res5_2
I1102 17:16:34.508664  5919 net.cpp:157] Top shape: 64 512 5 5 (819200)
I1102 17:16:34.508671  5919 net.cpp:165] Memory required for data: 1979375360
I1102 17:16:34.508677  5919 layer_factory.hpp:77] Creating layer res5_2_res5_2_0_split
I1102 17:16:34.508688  5919 net.cpp:100] Creating Layer res5_2_res5_2_0_split
I1102 17:16:34.508695  5919 net.cpp:434] res5_2_res5_2_0_split <- res5_2
I1102 17:16:34.508705  5919 net.cpp:408] res5_2_res5_2_0_split -> res5_2_res5_2_0_split_0
I1102 17:16:34.508715  5919 net.cpp:408] res5_2_res5_2_0_split -> res5_2_res5_2_0_split_1
I1102 17:16:34.508764  5919 net.cpp:150] Setting up res5_2_res5_2_0_split
I1102 17:16:34.508776  5919 net.cpp:157] Top shape: 64 512 5 5 (819200)
I1102 17:16:34.508785  5919 net.cpp:157] Top shape: 64 512 5 5 (819200)
I1102 17:16:34.508790  5919 net.cpp:165] Memory required for data: 1985928960
I1102 17:16:34.508797  5919 layer_factory.hpp:77] Creating layer conv5_3
I1102 17:16:34.508815  5919 net.cpp:100] Creating Layer conv5_3
I1102 17:16:34.508822  5919 net.cpp:434] conv5_3 <- res5_2_res5_2_0_split_0
I1102 17:16:34.508833  5919 net.cpp:408] conv5_3 -> conv5_3
I1102 17:16:34.576333  5919 net.cpp:150] Setting up conv5_3
I1102 17:16:34.576360  5919 net.cpp:157] Top shape: 64 512 5 5 (819200)
I1102 17:16:34.576369  5919 net.cpp:165] Memory required for data: 1989205760
I1102 17:16:34.576378  5919 layer_factory.hpp:77] Creating layer relu5_3
I1102 17:16:34.576391  5919 net.cpp:100] Creating Layer relu5_3
I1102 17:16:34.576401  5919 net.cpp:434] relu5_3 <- conv5_3
I1102 17:16:34.576412  5919 net.cpp:395] relu5_3 -> conv5_3 (in-place)
I1102 17:16:34.576535  5919 net.cpp:150] Setting up relu5_3
I1102 17:16:34.576551  5919 net.cpp:157] Top shape: 64 512 5 5 (819200)
I1102 17:16:34.576558  5919 net.cpp:165] Memory required for data: 1992482560
I1102 17:16:34.576568  5919 layer_factory.hpp:77] Creating layer conv5_4
I1102 17:16:34.576583  5919 net.cpp:100] Creating Layer conv5_4
I1102 17:16:34.576592  5919 net.cpp:434] conv5_4 <- conv5_3
I1102 17:16:34.576604  5919 net.cpp:408] conv5_4 -> conv5_4
I1102 17:16:34.644034  5919 net.cpp:150] Setting up conv5_4
I1102 17:16:34.644068  5919 net.cpp:157] Top shape: 64 512 5 5 (819200)
I1102 17:16:34.644075  5919 net.cpp:165] Memory required for data: 1995759360
I1102 17:16:34.644086  5919 layer_factory.hpp:77] Creating layer relu5_4
I1102 17:16:34.644098  5919 net.cpp:100] Creating Layer relu5_4
I1102 17:16:34.644105  5919 net.cpp:434] relu5_4 <- conv5_4
I1102 17:16:34.644116  5919 net.cpp:395] relu5_4 -> conv5_4 (in-place)
I1102 17:16:34.644238  5919 net.cpp:150] Setting up relu5_4
I1102 17:16:34.644263  5919 net.cpp:157] Top shape: 64 512 5 5 (819200)
I1102 17:16:34.644273  5919 net.cpp:165] Memory required for data: 1999036160
I1102 17:16:34.644301  5919 layer_factory.hpp:77] Creating layer res5_4
I1102 17:16:34.644315  5919 net.cpp:100] Creating Layer res5_4
I1102 17:16:34.644325  5919 net.cpp:434] res5_4 <- res5_2_res5_2_0_split_1
I1102 17:16:34.644332  5919 net.cpp:434] res5_4 <- conv5_4
I1102 17:16:34.644342  5919 net.cpp:408] res5_4 -> res5_4
I1102 17:16:34.644381  5919 net.cpp:150] Setting up res5_4
I1102 17:16:34.644392  5919 net.cpp:157] Top shape: 64 512 5 5 (819200)
I1102 17:16:34.644397  5919 net.cpp:165] Memory required for data: 2002312960
I1102 17:16:34.644405  5919 layer_factory.hpp:77] Creating layer res5_4_res5_4_0_split
I1102 17:16:34.644414  5919 net.cpp:100] Creating Layer res5_4_res5_4_0_split
I1102 17:16:34.644421  5919 net.cpp:434] res5_4_res5_4_0_split <- res5_4
I1102 17:16:34.644433  5919 net.cpp:408] res5_4_res5_4_0_split -> res5_4_res5_4_0_split_0
I1102 17:16:34.644454  5919 net.cpp:408] res5_4_res5_4_0_split -> res5_4_res5_4_0_split_1
I1102 17:16:34.644498  5919 net.cpp:150] Setting up res5_4_res5_4_0_split
I1102 17:16:34.644527  5919 net.cpp:157] Top shape: 64 512 5 5 (819200)
I1102 17:16:34.644536  5919 net.cpp:157] Top shape: 64 512 5 5 (819200)
I1102 17:16:34.644541  5919 net.cpp:165] Memory required for data: 2008866560
I1102 17:16:34.644548  5919 layer_factory.hpp:77] Creating layer conv5_5
I1102 17:16:34.644567  5919 net.cpp:100] Creating Layer conv5_5
I1102 17:16:34.644574  5919 net.cpp:434] conv5_5 <- res5_4_res5_4_0_split_0
I1102 17:16:34.644585  5919 net.cpp:408] conv5_5 -> conv5_5
I1102 17:16:34.712066  5919 net.cpp:150] Setting up conv5_5
I1102 17:16:34.712096  5919 net.cpp:157] Top shape: 64 512 5 5 (819200)
I1102 17:16:34.712105  5919 net.cpp:165] Memory required for data: 2012143360
I1102 17:16:34.712115  5919 layer_factory.hpp:77] Creating layer relu5_5
I1102 17:16:34.712128  5919 net.cpp:100] Creating Layer relu5_5
I1102 17:16:34.712136  5919 net.cpp:434] relu5_5 <- conv5_5
I1102 17:16:34.712146  5919 net.cpp:395] relu5_5 -> conv5_5 (in-place)
I1102 17:16:34.712267  5919 net.cpp:150] Setting up relu5_5
I1102 17:16:34.712286  5919 net.cpp:157] Top shape: 64 512 5 5 (819200)
I1102 17:16:34.712296  5919 net.cpp:165] Memory required for data: 2015420160
I1102 17:16:34.712304  5919 layer_factory.hpp:77] Creating layer conv5_6
I1102 17:16:34.712321  5919 net.cpp:100] Creating Layer conv5_6
I1102 17:16:34.712330  5919 net.cpp:434] conv5_6 <- conv5_5
I1102 17:16:34.712340  5919 net.cpp:408] conv5_6 -> conv5_6
I1102 17:16:34.779887  5919 net.cpp:150] Setting up conv5_6
I1102 17:16:34.779916  5919 net.cpp:157] Top shape: 64 512 5 5 (819200)
I1102 17:16:34.779924  5919 net.cpp:165] Memory required for data: 2018696960
I1102 17:16:34.779934  5919 layer_factory.hpp:77] Creating layer relu5_6
I1102 17:16:34.779945  5919 net.cpp:100] Creating Layer relu5_6
I1102 17:16:34.779954  5919 net.cpp:434] relu5_6 <- conv5_6
I1102 17:16:34.779969  5919 net.cpp:395] relu5_6 -> conv5_6 (in-place)
I1102 17:16:34.780089  5919 net.cpp:150] Setting up relu5_6
I1102 17:16:34.780105  5919 net.cpp:157] Top shape: 64 512 5 5 (819200)
I1102 17:16:34.780113  5919 net.cpp:165] Memory required for data: 2021973760
I1102 17:16:34.780122  5919 layer_factory.hpp:77] Creating layer res5_6
I1102 17:16:34.780134  5919 net.cpp:100] Creating Layer res5_6
I1102 17:16:34.780144  5919 net.cpp:434] res5_6 <- res5_4_res5_4_0_split_1
I1102 17:16:34.780153  5919 net.cpp:434] res5_6 <- conv5_6
I1102 17:16:34.780160  5919 net.cpp:408] res5_6 -> res5_6
I1102 17:16:34.780194  5919 net.cpp:150] Setting up res5_6
I1102 17:16:34.780205  5919 net.cpp:157] Top shape: 64 512 5 5 (819200)
I1102 17:16:34.780212  5919 net.cpp:165] Memory required for data: 2025250560
I1102 17:16:34.780218  5919 layer_factory.hpp:77] Creating layer res5_6_res5_6_0_split
I1102 17:16:34.780228  5919 net.cpp:100] Creating Layer res5_6_res5_6_0_split
I1102 17:16:34.780236  5919 net.cpp:434] res5_6_res5_6_0_split <- res5_6
I1102 17:16:34.780247  5919 net.cpp:408] res5_6_res5_6_0_split -> res5_6_res5_6_0_split_0
I1102 17:16:34.780258  5919 net.cpp:408] res5_6_res5_6_0_split -> res5_6_res5_6_0_split_1
I1102 17:16:34.780325  5919 net.cpp:150] Setting up res5_6_res5_6_0_split
I1102 17:16:34.780355  5919 net.cpp:157] Top shape: 64 512 5 5 (819200)
I1102 17:16:34.780365  5919 net.cpp:157] Top shape: 64 512 5 5 (819200)
I1102 17:16:34.780372  5919 net.cpp:165] Memory required for data: 2031804160
I1102 17:16:34.780380  5919 layer_factory.hpp:77] Creating layer fc5_new
I1102 17:16:34.780400  5919 net.cpp:100] Creating Layer fc5_new
I1102 17:16:34.780407  5919 net.cpp:434] fc5_new <- res5_6_res5_6_0_split_0
I1102 17:16:34.780419  5919 net.cpp:408] fc5_new -> fc5_new
I1102 17:16:34.823766  5919 net.cpp:150] Setting up fc5_new
I1102 17:16:34.823808  5919 net.cpp:157] Top shape: 64 512 (32768)
I1102 17:16:34.823817  5919 net.cpp:165] Memory required for data: 2031935232
I1102 17:16:34.823828  5919 layer_factory.hpp:77] Creating layer fc5_new_fc5_new_0_split
I1102 17:16:34.823843  5919 net.cpp:100] Creating Layer fc5_new_fc5_new_0_split
I1102 17:16:34.823853  5919 net.cpp:434] fc5_new_fc5_new_0_split <- fc5_new
I1102 17:16:34.823865  5919 net.cpp:408] fc5_new_fc5_new_0_split -> fc5_new_fc5_new_0_split_0
I1102 17:16:34.823876  5919 net.cpp:408] fc5_new_fc5_new_0_split -> fc5_new_fc5_new_0_split_1
I1102 17:16:34.823885  5919 net.cpp:408] fc5_new_fc5_new_0_split -> fc5_new_fc5_new_0_split_2
I1102 17:16:34.823948  5919 net.cpp:150] Setting up fc5_new_fc5_new_0_split
I1102 17:16:34.823961  5919 net.cpp:157] Top shape: 64 512 (32768)
I1102 17:16:34.823968  5919 net.cpp:157] Top shape: 64 512 (32768)
I1102 17:16:34.823976  5919 net.cpp:157] Top shape: 64 512 (32768)
I1102 17:16:34.823982  5919 net.cpp:165] Memory required for data: 2032328448
I1102 17:16:34.823990  5919 layer_factory.hpp:77] Creating layer fc6_new
I1102 17:16:34.824002  5919 net.cpp:100] Creating Layer fc6_new
I1102 17:16:34.824008  5919 net.cpp:434] fc6_new <- fc5_new_fc5_new_0_split_0
I1102 17:16:34.824018  5919 net.cpp:408] fc6_new -> fc6_new
I1102 17:16:34.824175  5919 net.cpp:150] Setting up fc6_new
I1102 17:16:34.824190  5919 net.cpp:157] Top shape: 64 7 (448)
I1102 17:16:34.824198  5919 net.cpp:165] Memory required for data: 2032330240
I1102 17:16:34.824208  5919 layer_factory.hpp:77] Creating layer fc6_new_fc6_new_0_split
I1102 17:16:34.824216  5919 net.cpp:100] Creating Layer fc6_new_fc6_new_0_split
I1102 17:16:34.824223  5919 net.cpp:434] fc6_new_fc6_new_0_split <- fc6_new
I1102 17:16:34.824234  5919 net.cpp:408] fc6_new_fc6_new_0_split -> fc6_new_fc6_new_0_split_0
I1102 17:16:34.824244  5919 net.cpp:408] fc6_new_fc6_new_0_split -> fc6_new_fc6_new_0_split_1
I1102 17:16:34.824288  5919 net.cpp:150] Setting up fc6_new_fc6_new_0_split
I1102 17:16:34.824300  5919 net.cpp:157] Top shape: 64 7 (448)
I1102 17:16:34.824306  5919 net.cpp:157] Top shape: 64 7 (448)
I1102 17:16:34.824313  5919 net.cpp:165] Memory required for data: 2032333824
I1102 17:16:34.824321  5919 layer_factory.hpp:77] Creating layer softmax_loss
I1102 17:16:34.824340  5919 net.cpp:100] Creating Layer softmax_loss
I1102 17:16:34.824352  5919 net.cpp:434] softmax_loss <- fc6_new_fc6_new_0_split_0
I1102 17:16:34.824359  5919 net.cpp:434] softmax_loss <- label_data_1_split_0
I1102 17:16:34.824368  5919 net.cpp:408] softmax_loss -> softmax_loss
…
I1102 17:16:34.872076  5919 net.cpp:58] Initializing net from parameters: 
name: "fer2013_experiment"
state {
  phase: TEST
}
layer {
  name: "data"
  type: "ImageData"
  top: "data"
  top: "label"
  include {
    phase: TEST
  }
  transform_param {
    scale: 0.0078125
    mirror: false
    crop_size: 227
    mean_value: 127.5
    mean_value: 127.5
    mean_value: 127.5
  }
  image_data_param {
    source: "/data/zeng/fer2013_dataset/list/fer2013_val.txt"
    batch_size: 4
    shuffle: false
    new_height: 256
    new_width: 256
    root_folder: "/data/zeng/fer2013_dataset/data/"
  }
}
layer {
  name: "conv1a"
  type: "Convolution"
  bottom: "data"
  top: "conv1a"
  param {
    lr_mult: 1
    decay_mult: 1
  }
  param {
    lr_mult: 2
    decay_mult: 0
  }
  convolution_param {
    num_output: 32
    kernel_size: 9
    stride: 2
    weight_filler {
      type: "xavier"
    }
    bias_filler {
      type: "constant"
      value: 0
    }
  }
}
layer {
  name: "relu1a"
  type: "PReLU"
  bottom: "conv1a"
  top: "conv1a"
}
layer {
  name: "conv1b"
  type: "Convolution"
  bottom: "conv1a"
  top: "conv1b"
  param {
    lr_mult: 1
    decay_mult: 1
  }
  param {
    lr_mult: 2
    decay_mult: 0
  }
  convolution_param {
    num_output: 64
    kernel_size: 3
    stride: 1
    weight_filler {
      type: "xavier"
    }
    bias_filler {
      type: "constant"
      value: 0
    }
  }
}
layer {
  name: "relu1b"
  type: "PReLU"
  bottom: "conv1b"
  top: "conv1b"
}
layer {
  name: "pool1b"
  type: "Pooling"
  bottom: "conv1b"
  top: "pool1b"
  pooling_param {
    pool: MAX
    kernel_size: 2
    stride: 2
  }
}
layer {
  name: "conv2_1"
  type: "Convolution"
  bottom: "pool1b"
  top: "conv2_1"
  param {
    lr_mult: 1
    decay_mult: 1
  }
  param {
    lr_mult: 0
    decay_mult: 0
  }
  convolution_param {
    num_output: 64
    pad: 1
    kernel_size: 3
    stride: 1
    weight_filler {
      type: "gaussian"
      std: 0.01
    }
    bias_filler {
      type: "constant"
      value: 0
    }
  }
}
layer {
  name: "relu2_1"
  type: "PReLU"
  bottom: "conv2_1"
  top: "conv2_1"
}
layer {
  name: "conv2_2"
  type: "Convolution"
  bottom: "conv2_1"
  top: "conv2_2"
  param {
    lr_mult: 1
    decay_mult: 1
  }
  param {
    lr_mult: 0
    decay_mult: 0
  }
  convolution_param {
    num_output: 64
    pad: 1
    kernel_size: 3
    stride: 1
    weight_filler {
      type: "gaussian"
      std: 0.01
    }
    bias_filler {
      type: "constant"
      value: 0
    }
  }
}
layer {
  name: "relu2_2"
  type: "PReLU"
  bottom: "conv2_2"
  top: "conv2_2"
}
layer {
  name: "res2_2"
  type: "Eltwise"
  bottom: "pool1b"
  bottom: "conv2_2"
  top: "res2_2"
  eltwise_param {
    operation: SUM
  }
}
layer {
  name: "conv2"
  type: "Convolution"
  bottom: "res2_2"
  top: "conv2"
  param {
    lr_mult: 1
    decay_mult: 1
  }
  param {
    lr_mult: 2
    decay_mult: 0
  }
  convolution_param {
    num_output: 128
    kernel_size: 3
    stride: 1
    weight_filler {
      type: "xavier"
    }
    bias_filler {
      type: "constant"
      value: 0
    }
  }
}
layer {
  name: "relu2"
  type: "PReLU"
  bottom: "conv2"
  top: "conv2"
}
layer {
  name: "pool2"
  type: "Pooling"
  bottom: "conv2"
  top: "pool2"
  pooling_param {
    pool: MAX
    kernel_size: 2
    stride: 2
  }
}
layer {
  name: "conv3_1"
  type: "Convolution"
  bottom: "pool2"
  top: "conv3_1"
  param {
    lr_mult: 1
    decay_mult: 1
  }
  param {
    lr_mult: 0
    decay_mult: 0
  }
  convolution_param {
    num_output: 128
    pad: 1
    kernel_size: 3
    stride: 1
    weight_filler {
      type: "gaussian"
      std: 0.01
    }
    bias_filler {
      type: "constant"
      value: 0
    }
  }
}
layer {
  name: "relu3_1"
  type: "PReLU"
  bottom: "conv3_1"
  top: "conv3_1"
}
layer {
  name: "conv3_2"
  type: "Convolution"
  bottom: "conv3_1"
  top: "conv3_2"
  param {
    lr_mult: 1
    decay_mult: 1
  }
  param {
    lr_mult: 0
    decay_mult: 0
  }
  convolution_param {
    num_output: 128
    pad: 1
    kernel_size: 3
    stride: 1
    weight_filler {
      type: "gaussian"
      std: 0.01
    }
    bias_filler {
      type: "constant"
      value: 0
    }
  }
}
layer {
  name: "relu3_2"
  type: "PReLU"
  bottom: "conv3_2"
  top: "conv3_2"
}
layer {
  name: "res3_2"
  type: "Eltwise"
  bottom: "pool2"
  bottom: "conv3_2"
  top: "res3_2"
  eltwise_param {
    operation: SUM
  }
}
layer {
  name: "conv3_3"
  type: "Convolution"
  bottom: "res3_2"
  top: "conv3_3"
  param {
    lr_mult: 1
    decay_mult: 1
  }
  param {
    lr_mult: 0
    decay_mult: 0
  }
  convolution_param {
    num_output: 128
    pad: 1
    kernel_size: 3
    stride: 1
    weight_filler {
      type: "gaussian"
      std: 0.01
    }
    bias_filler {
      type: "constant"
      value: 0
    }
  }
}
layer {
  name: "relu3_3"
  type: "PReLU"
  bottom: "conv3_3"
  top: "conv3_3"
}
layer {
  name: "conv3_4"
  type: "Convolution"
  bottom: "conv3_3"
  top: "conv3_4"
  param {
    lr_mult: 1
    decay_mult: 1
  }
  param {
    lr_mult: 0
    decay_mult: 0
  }
  convolution_param {
    num_output: 128
    pad: 1
    kernel_size: 3
    stride: 1
    weight_filler {
      type: "gaussian"
      std: 0.01
    }
    bias_filler {
      type: "constant"
      value: 0
    }
  }
}
layer {
  name: "relu3_4"
  type: "PReLU"
  bottom: "conv3_4"
  top: "conv3_4"
}
layer {
  name: "res3_4"
  type: "Eltwise"
  bottom: "res3_2"
  bottom: "conv3_4"
  top: "res3_4"
  eltwise_param {
    operation: SUM
  }
}
layer {
  name: "conv3"
  type: "Convolution"
  bottom: "res3_4"
  top: "conv3"
  param {
    lr_mult: 1
    decay_mult: 1
  }
  param {
    lr_mult: 2
    decay_mult: 0
  }
  convolution_param {
    num_output: 256
    kernel_size: 3
    stride: 1
    weight_filler {
      type: "xavier"
    }
    bias_filler {
      type: "constant"
      value: 0
    }
  }
}
layer {
  name: "relu3"
  type: "PReLU"
  bottom: "conv3"
  top: "conv3"
}
layer {
  name: "pool3"
  type: "Pooling"
  bottom: "conv3"
  top: "pool3"
  pooling_param {
    pool: MAX
    kernel_size: 2
    stride: 2
  }
}
layer {
  name: "conv4_1"
  type: "Convolution"
  bottom: "pool3"
  top: "conv4_1"
  param {
    lr_mult: 1
    decay_mult: 1
  }
  param {
    lr_mult: 0
    decay_mult: 0
  }
  convolution_param {
    num_output: 256
    pad: 1
    kernel_size: 3
    stride: 1
    weight_filler {
      type: "gaussian"
      std: 0.01
    }
    bias_filler {
      type: "constant"
      value: 0
    }
  }
}
layer {
  name: "relu4_1"
  type: "PReLU"
  bottom: "conv4_1"
  top: "conv4_1"
}
layer {
  name: "conv4_2"
  type: "Convolution"
  bottom: "conv4_1"
  top: "conv4_2"
  param {
    lr_mult: 1
    decay_mult: 1
  }
  param {
    lr_mult: 0
    decay_mult: 0
  }
  convolution_param {
    num_output: 256
    pad: 1
    kernel_size: 3
    stride: 1
    weight_filler {
      type: "gaussian"
      std: 0.01
    }
    bias_filler {
      type: "constant"
      value: 0
    }
  }
}
layer {
  name: "relu4_2"
  type: "PReLU"
  bottom: "conv4_2"
  top: "conv4_2"
}
layer {
  name: "res4_2"
  type: "Eltwise"
  bottom: "pool3"
  bottom: "conv4_2"
  top: "res4_2"
  eltwise_param {
    operation: SUM
  }
}
layer {
  name: "conv4_3"
  type: "Convolution"
  bottom: "res4_2"
  top: "conv4_3"
  param {
    lr_mult: 1
    decay_mult: 1
  }
  param {
    lr_mult: 0
    decay_mult: 0
  }
  convolution_param {
    num_output: 256
    pad: 1
    kernel_size: 3
    stride: 1
    weight_filler {
      type: "gaussian"
      std: 0.01
    }
    bias_filler {
      type: "constant"
      value: 0
    }
  }
}
layer {
  name: "relu4_3"
  type: "PReLU"
  bottom: "conv4_3"
  top: "conv4_3"
}
layer {
  name: "conv4_4"
  type: "Convolution"
  bottom: "conv4_3"
  top: "conv4_4"
  param {
    lr_mult: 1
    decay_mult: 1
  }
  param {
    lr_mult: 0
    decay_mult: 0
  }
  convolution_param {
    num_output: 256
    pad: 1
    kernel_size: 3
    stride: 1
    weight_filler {
      type: "gaussian"
      std: 0.01
    }
    bias_filler {
      type: "constant"
      value: 0
    }
  }
}
layer {
  name: "relu4_4"
  type: "PReLU"
  bottom: "conv4_4"
  top: "conv4_4"
}
layer {
  name: "res4_4"
  type: "Eltwise"
  bottom: "res4_2"
  bottom: "conv4_4"
  top: "res4_4"
  eltwise_param {
    operation: SUM
  }
}
layer {
  name: "conv4_5"
  type: "Convolution"
  bottom: "res4_4"
  top: "conv4_5"
  param {
    lr_mult: 1
    decay_mult: 1
  }
  param {
    lr_mult: 0
    decay_mult: 0
  }
  convolution_param {
    num_output: 256
    pad: 1
    kernel_size: 3
    stride: 1
    weight_filler {
      type: "gaussian"
      std: 0.01
    }
    bias_filler {
      type: "constant"
      value: 0
    }
  }
}
layer {
  name: "relu4_5"
  type: "PReLU"
  bottom: "conv4_5"
  top: "conv4_5"
}
layer {
  name: "conv4_6"
  type: "Convolution"
  bottom: "conv4_5"
  top: "conv4_6"
  param {
    lr_mult: 1
    decay_mult: 1
  }
  param {
    lr_mult: 0
    decay_mult: 0
  }
  convolution_param {
    num_output: 256
    pad: 1
    kernel_size: 3
    stride: 1
    weight_filler {
      type: "gaussian"
      std: 0.01
    }
    bias_filler {
      type: "constant"
      value: 0
    }
  }
}
layer {
  name: "relu4_6"
  type: "PReLU"
  bottom: "conv4_6"
  top: "conv4_6"
}
layer {
  name: "res4_6"
  type: "Eltwise"
  bottom: "res4_4"
  bottom: "conv4_6"
  top: "res4_6"
  eltwise_param {
    operation: SUM
  }
}
layer {
  name: "conv4_7"
  type: "Convolution"
  bottom: "res4_6"
  top: "conv4_7"
  param {
    lr_mult: 1
    decay_mult: 1
  }
  param {
    lr_mult: 0
    decay_mult: 0
  }
  convolution_param {
    num_output: 256
    pad: 1
    kernel_size: 3
    stride: 1
    weight_filler {
      type: "gaussian"
      std: 0.01
    }
    bias_filler {
      type: "constant"
      value: 0
    }
  }
}
layer {
  name: "relu4_7"
  type: "PReLU"
  bottom: "conv4_7"
  top: "conv4_7"
}
layer {
  name: "conv4_8"
  type: "Convolution"
  bottom: "conv4_7"
  top: "conv4_8"
  param {
    lr_mult: 1
    decay_mult: 1
  }
  param {
    lr_mult: 0
    decay_mult: 0
  }
  convolution_param {
    num_output: 256
    pad: 1
    kernel_size: 3
    stride: 1
    weight_filler {
      type: "gaussian"
      std: 0.01
    }
    bias_filler {
      type: "constant"
      value: 0
    }
  }
}
layer {
  name: "relu4_8"
  type: "PReLU"
  bottom: "conv4_8"
  top: "conv4_8"
}
layer {
  name: "res4_8"
  type: "Eltwise"
  bottom: "res4_6"
  bottom: "conv4_8"
  top: "res4_8"
  eltwise_param {
    operation: SUM
  }
}
layer {
  name: "conv4_9"
  type: "Convolution"
  bottom: "res4_8"
  top: "conv4_9"
  param {
    lr_mult: 1
    decay_mult: 1
  }
  param {
    lr_mult: 0
    decay_mult: 0
  }
  convolution_param {
    num_output: 256
    pad: 1
    kernel_size: 3
    stride: 1
    weight_filler {
      type: "gaussian"
      std: 0.01
    }
    bias_filler {
      type: "constant"
      value: 0
    }
  }
}
layer {
  name: "relu4_9"
  type: "PReLU"
  bottom: "conv4_9"
  top: "conv4_9"
}
layer {
  name: "conv4_10"
  type: "Convolution"
  bottom: "conv4_9"
  top: "conv4_10"
  param {
    lr_mult: 1
    decay_mult: 1
  }
  param {
    lr_mult: 0
    decay_mult: 0
  }
  convolution_param {
    num_output: 256
    pad: 1
    kernel_size: 3
    stride: 1
    weight_filler {
      type: "gaussian"
      std: 0.01
    }
    bias_filler {
      type: "constant"
      value: 0
    }
  }
}
layer {
  name: "relu4_10"
  type: "PReLU"
  bottom: "conv4_10"
  top: "conv4_10"
}
layer {
  name: "res4_10"
  type: "Eltwise"
  bottom: "res4_8"
  bottom: "conv4_10"
  top: "res4_10"
  eltwise_param {
    operation: SUM
  }
}
layer {
  name: "conv4"
  type: "Convolution"
  bottom: "res4_10"
  top: "conv4"
  param {
    lr_mult: 1
    decay_mult: 1
  }
  param {
    lr_mult: 2
    decay_mult: 0
  }
  convolution_param {
    num_output: 512
    kernel_size: 3
    stride: 1
    weight_filler {
      type: "xavier"
    }
    bias_filler {
      type: "constant"
      value: 0
    }
  }
}
layer {
  name: "relu4"
  type: "PReLU"
  bottom: "conv4"
  top: "conv4"
}
layer {
  name: "pool4"
  type: "Pooling"
  bottom: "conv4"
  top: "pool4"
  pooling_param {
    pool: MAX
    kernel_size: 2
    stride: 2
  }
}
layer {
  name: "conv5_1"
  type: "Convolution"
  bottom: "pool4"
  top: "conv5_1"
  param {
    lr_mult: 1
    decay_mult: 1
  }
  param {
    lr_mult: 0
    decay_mult: 0
  }
  convolution_param {
    num_output: 512
    pad: 1
    kernel_size: 3
    stride: 1
    weight_filler {
      type: "gaussian"
      std: 0.01
    }
    bias_filler {
      type: "constant"
      value: 0
    }
  }
}
layer {
  name: "relu5_1"
  type: "PReLU"
  bottom: "conv5_1"
  top: "conv5_1"
}
layer {
  name: "conv5_2"
  type: "Convolution"
  bottom: "conv5_1"
  top: "conv5_2"
  param {
    lr_mult: 1
    decay_mult: 1
  }
  param {
    lr_mult: 0
    decay_mult: 0
  }
  convolution_param {
    num_output: 512
    pad: 1
    kernel_size: 3
    stride: 1
    weight_filler {
      type: "gaussian"
      std: 0.01
    }
    bias_filler {
      type: "constant"
      value: 0
    }
  }
}
layer {
  name: "relu5_2"
  type: "PReLU"
  bottom: "conv5_2"
  top: "conv5_2"
}
layer {
  name: "res5_2"
  type: "Eltwise"
  bottom: "pool4"
  bottom: "conv5_2"
  top: "res5_2"
  eltwise_param {
    operation: SUM
  }
}
layer {
  name: "conv5_3"
  type: "Convolution"
  bottom: "res5_2"
  top: "conv5_3"
  param {
    lr_mult: 1
    decay_mult: 1
  }
  param {
    lr_mult: 0
    decay_mult: 0
  }
  convolution_param {
    num_output: 512
    pad: 1
    kernel_size: 3
    stride: 1
    weight_filler {
      type: "gaussian"
      std: 0.01
    }
    bias_filler {
      type: "constant"
      value: 0
    }
  }
}
layer {
  name: "relu5_3"
  type: "PReLU"
  bottom: "conv5_3"
  top: "conv5_3"
}
layer {
  name: "conv5_4"
  type: "Convolution"
  bottom: "conv5_3"
  top: "conv5_4"
  param {
    lr_mult: 1
    decay_mult: 1
  }
  param {
    lr_mult: 0
    decay_mult: 0
  }
  convolution_param {
    num_output: 512
    pad: 1
    kernel_size: 3
    stride: 1
    weight_filler {
      type: "gaussian"
      std: 0.01
    }
    bias_filler {
      type: "constant"
      value: 0
    }
  }
}
layer {
  name: "relu5_4"
  type: "PReLU"
  bottom: "conv5_4"
  top: "conv5_4"
}
layer {
  name: "res5_4"
  type: "Eltwise"
  bottom: "res5_2"
  bottom: "conv5_4"
  top: "res5_4"
  eltwise_param {
    operation: SUM
  }
}
layer {
  name: "conv5_5"
  type: "Convolution"
  bottom: "res5_4"
  top: "conv5_5"
  param {
    lr_mult: 1
    decay_mult: 1
  }
  param {
    lr_mult: 0
    decay_mult: 0
  }
  convolution_param {
    num_output: 512
    pad: 1
    kernel_size: 3
    stride: 1
    weight_filler {
      type: "gaussian"
      std: 0.01
    }
    bias_filler {
      type: "constant"
      value: 0
    }
  }
}
layer {
  name: "relu5_5"
  type: "PReLU"
  bottom: "conv5_5"
  top: "conv5_5"
}
layer {
  name: "conv5_6"
  type: "Convolution"
  bottom: "conv5_5"
  top: "conv5_6"
  param {
    lr_mult: 1
    decay_mult: 1
  }
  param {
    lr_mult: 0
    decay_mult: 0
  }
  convolution_param {
    num_output: 512
    pad: 1
    kernel_size: 3
    stride: 1
    weight_filler {
      type: "gaussian"
      std: 0.01
    }
    bias_filler {
      type: "constant"
      value: 0
    }
  }
}
layer {
  name: "relu5_6"
  type: "PReLU"
  bottom: "conv5_6"
  top: "conv5_6"
}
layer {
  name: "res5_6"
  type: "Eltwise"
  bottom: "res5_4"
  bottom: "conv5_6"
  top: "res5_6"
  eltwise_param {
    operation: SUM
  }
}
layer {
  name: "fc5_new"
  type: "InnerProduct"
  bottom: "res5_6"
  top: "fc5_new"
  param {
    lr_mult: 1
    decay_mult: 1
  }
  param {
    lr_mult: 2
    decay_mult: 0
  }
  inner_product_param {
    num_output: 512
    weight_filler {
      type: "xavier"
    }
    bias_filler {
      type: "constant"
      value: 0
    }
  }
}
layer {
  name: "fc6_new"
  type: "InnerProduct"
  bottom: "fc5_new"
  top: "fc6_new"
  param {
    lr_mult: 1
    decay_mult: 1
  }
  param {
    lr_mult: 2
    decay_mult: 0
  }
  inner_product_param {
    num_output: 7
    weight_filler {
      type: "xavier"
    }
    bias_filler {
      type: "constant"
      value: 0
    }
  }
}
layer {
  name: "softmax_loss"
  type: "SoftmaxWithLoss"
  bottom: "fc6_new"
  bottom: "label"
  top: "softmax_loss"
}
layer {
  name: "accuracy"
  type: "Accuracy"
  bottom: "fc6_new"
  bottom: "label"
  top: "accuracy"
}
layer {
  name: "nothing"
  type: "InnerProduct"
  bottom: "res5_6"
  top: "nothing"
  param {
    lr_mult: 1
    decay_mult: 1
  }
  param {
    lr_mult: 2
    decay_mult: 0
  }
  inner_product_param {
    num_output: 512
    weight_filler {
      type: "xavier"
    }
    bias_filler {
      type: "constant"
      value: 0
    }
  }
}
layer {
  name: "center_loss_new"
  type: "CenterLoss"
  bottom: "fc5_new"
  bottom: "label"
  top: "center_loss_new"
  loss_weight: 0.008
  param {
    lr_mult: 1
    decay_mult: 2
  }
  center_loss_param {
    num_output: 7
    center_filler {
      type: "xavier"
    }
  }
}
layer {
  name: "l2_feature_loss"
  type: "L2FeatureLoss"
  bottom: "fc5_new"
  bottom: "nothing"
  top: "l2_feature_loss"
  loss_weight: 1e-05
}
I1102 17:16:34.875586  5919 layer_factory.hpp:77] Creating layer data
I1102 17:16:34.875617  5919 net.cpp:100] Creating Layer data
I1102 17:16:34.875627  5919 net.cpp:408] data -> data
I1102 17:16:34.875640  5919 net.cpp:408] data -> label
I1102 17:16:34.875654  5919 image_data_layer.cpp:38] Opening file /data/zeng/fer2013_dataset/list/fer2013_val.txt
I1102 17:16:34.876657  5919 image_data_layer.cpp:58] A total of 3589 images.
I1102 17:16:34.877154  5919 image_data_layer.cpp:85] output data size: 4,3,227,227
I1102 17:16:34.885972  5919 net.cpp:150] Setting up data
I1102 17:16:34.885999  5919 net.cpp:157] Top shape: 4 3 227 227 (618348)
I1102 17:16:34.886010  5919 net.cpp:157] Top shape: 4 (4)
I1102 17:16:34.886018  5919 net.cpp:165] Memory required for data: 2473408
I1102 17:16:34.886025  5919 layer_factory.hpp:77] Creating layer label_data_1_split
I1102 17:16:34.886039  5919 net.cpp:100] Creating Layer label_data_1_split
I1102 17:16:34.886060  5919 net.cpp:434] label_data_1_split <- label
I1102 17:16:34.886070  5919 net.cpp:408] label_data_1_split -> label_data_1_split_0
I1102 17:16:34.886082  5919 net.cpp:408] label_data_1_split -> label_data_1_split_1
I1102 17:16:34.886091  5919 net.cpp:408] label_data_1_split -> label_data_1_split_2
I1102 17:16:34.886267  5919 net.cpp:150] Setting up label_data_1_split
I1102 17:16:34.886286  5919 net.cpp:157] Top shape: 4 (4)
I1102 17:16:34.886296  5919 net.cpp:157] Top shape: 4 (4)
I1102 17:16:34.886304  5919 net.cpp:157] Top shape: 4 (4)
I1102 17:16:34.886320  5919 net.cpp:165] Memory required for data: 2473456
I1102 17:16:34.886327  5919 layer_factory.hpp:77] Creating layer conv1a
I1102 17:16:34.886343  5919 net.cpp:100] Creating Layer conv1a
I1102 17:16:34.886351  5919 net.cpp:434] conv1a <- data
I1102 17:16:34.886375  5919 net.cpp:408] conv1a -> conv1a
I1102 17:16:34.888458  5919 net.cpp:150] Setting up conv1a
I1102 17:16:34.888484  5919 net.cpp:157] Top shape: 4 32 110 110 (1548800)
I1102 17:16:34.888492  5919 net.cpp:165] Memory required for data: 8668656
I1102 17:16:34.888507  5919 layer_factory.hpp:77] Creating layer relu1a
I1102 17:16:34.888522  5919 net.cpp:100] Creating Layer relu1a
I1102 17:16:34.888531  5919 net.cpp:434] relu1a <- conv1a
I1102 17:16:34.888540  5919 net.cpp:395] relu1a -> conv1a (in-place)
I1102 17:16:34.890298  5919 net.cpp:150] Setting up relu1a
I1102 17:16:34.890322  5919 net.cpp:157] Top shape: 4 32 110 110 (1548800)
I1102 17:16:34.890331  5919 net.cpp:165] Memory required for data: 14863856
I1102 17:16:34.890346  5919 layer_factory.hpp:77] Creating layer conv1b
I1102 17:16:34.890362  5919 net.cpp:100] Creating Layer conv1b
I1102 17:16:34.890372  5919 net.cpp:434] conv1b <- conv1a
I1102 17:16:34.890383  5919 net.cpp:408] conv1b -> conv1b
I1102 17:16:34.893754  5919 net.cpp:150] Setting up conv1b
I1102 17:16:34.893781  5919 net.cpp:157] Top shape: 4 64 108 108 (2985984)
I1102 17:16:34.893790  5919 net.cpp:165] Memory required for data: 26807792
I1102 17:16:34.893802  5919 layer_factory.hpp:77] Creating layer relu1b
I1102 17:16:34.893815  5919 net.cpp:100] Creating Layer relu1b
I1102 17:16:34.893826  5919 net.cpp:434] relu1b <- conv1b
I1102 17:16:34.893834  5919 net.cpp:395] relu1b -> conv1b (in-place)
I1102 17:16:34.896119  5919 net.cpp:150] Setting up relu1b
I1102 17:16:34.896145  5919 net.cpp:157] Top shape: 4 64 108 108 (2985984)
I1102 17:16:34.896154  5919 net.cpp:165] Memory required for data: 38751728
I1102 17:16:34.896165  5919 layer_factory.hpp:77] Creating layer pool1b
I1102 17:16:34.896178  5919 net.cpp:100] Creating Layer pool1b
I1102 17:16:34.896188  5919 net.cpp:434] pool1b <- conv1b
I1102 17:16:34.896200  5919 net.cpp:408] pool1b -> pool1b
I1102 17:16:34.896257  5919 net.cpp:150] Setting up pool1b
I1102 17:16:34.896270  5919 net.cpp:157] Top shape: 4 64 54 54 (746496)
I1102 17:16:34.896276  5919 net.cpp:165] Memory required for data: 41737712
I1102 17:16:34.896283  5919 layer_factory.hpp:77] Creating layer pool1b_pool1b_0_split
I1102 17:16:34.896297  5919 net.cpp:100] Creating Layer pool1b_pool1b_0_split
I1102 17:16:34.896304  5919 net.cpp:434] pool1b_pool1b_0_split <- pool1b
I1102 17:16:34.896312  5919 net.cpp:408] pool1b_pool1b_0_split -> pool1b_pool1b_0_split_0
I1102 17:16:34.896327  5919 net.cpp:408] pool1b_pool1b_0_split -> pool1b_pool1b_0_split_1
I1102 17:16:34.896373  5919 net.cpp:150] Setting up pool1b_pool1b_0_split
I1102 17:16:34.896386  5919 net.cpp:157] Top shape: 4 64 54 54 (746496)
I1102 17:16:34.896395  5919 net.cpp:157] Top shape: 4 64 54 54 (746496)
I1102 17:16:34.896401  5919 net.cpp:165] Memory required for data: 47709680
I1102 17:16:34.896410  5919 layer_factory.hpp:77] Creating layer conv2_1
I1102 17:16:34.896425  5919 net.cpp:100] Creating Layer conv2_1
I1102 17:16:34.896433  5919 net.cpp:434] conv2_1 <- pool1b_pool1b_0_split_0
I1102 17:16:34.896445  5919 net.cpp:408] conv2_1 -> conv2_1
I1102 17:16:34.899307  5919 net.cpp:150] Setting up conv2_1
I1102 17:16:34.899334  5919 net.cpp:157] Top shape: 4 64 54 54 (746496)
I1102 17:16:34.899345  5919 net.cpp:165] Memory required for data: 50695664
I1102 17:16:34.899355  5919 layer_factory.hpp:77] Creating layer relu2_1
I1102 17:16:34.899366  5919 net.cpp:100] Creating Layer relu2_1
I1102 17:16:34.899374  5919 net.cpp:434] relu2_1 <- conv2_1
I1102 17:16:34.899384  5919 net.cpp:395] relu2_1 -> conv2_1 (in-place)
I1102 17:16:34.899664  5919 net.cpp:150] Setting up relu2_1
I1102 17:16:34.899682  5919 net.cpp:157] Top shape: 4 64 54 54 (746496)
I1102 17:16:34.899691  5919 net.cpp:165] Memory required for data: 53681648
I1102 17:16:34.899703  5919 layer_factory.hpp:77] Creating layer conv2_2
I1102 17:16:34.899720  5919 net.cpp:100] Creating Layer conv2_2
I1102 17:16:34.899729  5919 net.cpp:434] conv2_2 <- conv2_1
I1102 17:16:34.899739  5919 net.cpp:408] conv2_2 -> conv2_2
I1102 17:16:34.901913  5919 net.cpp:150] Setting up conv2_2
I1102 17:16:34.901950  5919 net.cpp:157] Top shape: 4 64 54 54 (746496)
I1102 17:16:34.901958  5919 net.cpp:165] Memory required for data: 56667632
I1102 17:16:34.901969  5919 layer_factory.hpp:77] Creating layer relu2_2
I1102 17:16:34.901981  5919 net.cpp:100] Creating Layer relu2_2
I1102 17:16:34.901990  5919 net.cpp:434] relu2_2 <- conv2_2
I1102 17:16:34.902003  5919 net.cpp:395] relu2_2 -> conv2_2 (in-place)
I1102 17:16:34.903630  5919 net.cpp:150] Setting up relu2_2
I1102 17:16:34.903656  5919 net.cpp:157] Top shape: 4 64 54 54 (746496)
I1102 17:16:34.903664  5919 net.cpp:165] Memory required for data: 59653616
I1102 17:16:34.903673  5919 layer_factory.hpp:77] Creating layer res2_2
I1102 17:16:34.903684  5919 net.cpp:100] Creating Layer res2_2
I1102 17:16:34.903692  5919 net.cpp:434] res2_2 <- pool1b_pool1b_0_split_1
I1102 17:16:34.903704  5919 net.cpp:434] res2_2 <- conv2_2
I1102 17:16:34.903713  5919 net.cpp:408] res2_2 -> res2_2
I1102 17:16:34.903753  5919 net.cpp:150] Setting up res2_2
I1102 17:16:34.903765  5919 net.cpp:157] Top shape: 4 64 54 54 (746496)
I1102 17:16:34.903772  5919 net.cpp:165] Memory required for data: 62639600
I1102 17:16:34.903779  5919 layer_factory.hpp:77] Creating layer conv2
I1102 17:16:34.903792  5919 net.cpp:100] Creating Layer conv2
I1102 17:16:34.903800  5919 net.cpp:434] conv2 <- res2_2
I1102 17:16:34.903812  5919 net.cpp:408] conv2 -> conv2
I1102 17:16:34.910275  5919 net.cpp:150] Setting up conv2
I1102 17:16:34.910300  5919 net.cpp:157] Top shape: 4 128 52 52 (1384448)
I1102 17:16:34.910305  5919 net.cpp:165] Memory required for data: 68177392
I1102 17:16:34.910315  5919 layer_factory.hpp:77] Creating layer relu2
I1102 17:16:34.910329  5919 net.cpp:100] Creating Layer relu2
I1102 17:16:34.910337  5919 net.cpp:434] relu2 <- conv2
I1102 17:16:34.910344  5919 net.cpp:395] relu2 -> conv2 (in-place)
I1102 17:16:34.911836  5919 net.cpp:150] Setting up relu2
I1102 17:16:34.911857  5919 net.cpp:157] Top shape: 4 128 52 52 (1384448)
I1102 17:16:34.911871  5919 net.cpp:165] Memory required for data: 73715184
I1102 17:16:34.911880  5919 layer_factory.hpp:77] Creating layer pool2
I1102 17:16:34.911890  5919 net.cpp:100] Creating Layer pool2
I1102 17:16:34.911896  5919 net.cpp:434] pool2 <- conv2
I1102 17:16:34.911906  5919 net.cpp:408] pool2 -> pool2
I1102 17:16:34.911953  5919 net.cpp:150] Setting up pool2
I1102 17:16:34.911965  5919 net.cpp:157] Top shape: 4 128 26 26 (346112)
I1102 17:16:34.911970  5919 net.cpp:165] Memory required for data: 75099632
I1102 17:16:34.911975  5919 layer_factory.hpp:77] Creating layer pool2_pool2_0_split
I1102 17:16:34.911988  5919 net.cpp:100] Creating Layer pool2_pool2_0_split
I1102 17:16:34.911993  5919 net.cpp:434] pool2_pool2_0_split <- pool2
I1102 17:16:34.912001  5919 net.cpp:408] pool2_pool2_0_split -> pool2_pool2_0_split_0
I1102 17:16:34.912011  5919 net.cpp:408] pool2_pool2_0_split -> pool2_pool2_0_split_1
I1102 17:16:34.912057  5919 net.cpp:150] Setting up pool2_pool2_0_split
I1102 17:16:34.912067  5919 net.cpp:157] Top shape: 4 128 26 26 (346112)
I1102 17:16:34.912073  5919 net.cpp:157] Top shape: 4 128 26 26 (346112)
I1102 17:16:34.912080  5919 net.cpp:165] Memory required for data: 77868528
I1102 17:16:34.912084  5919 layer_factory.hpp:77] Creating layer conv3_1
I1102 17:16:34.912097  5919 net.cpp:100] Creating Layer conv3_1
I1102 17:16:34.912104  5919 net.cpp:434] conv3_1 <- pool2_pool2_0_split_0
I1102 17:16:34.912112  5919 net.cpp:408] conv3_1 -> conv3_1
I1102 17:16:34.917167  5919 net.cpp:150] Setting up conv3_1
I1102 17:16:34.917189  5919 net.cpp:157] Top shape: 4 128 26 26 (346112)
I1102 17:16:34.917196  5919 net.cpp:165] Memory required for data: 79252976
I1102 17:16:34.917208  5919 layer_factory.hpp:77] Creating layer relu3_1
I1102 17:16:34.917220  5919 net.cpp:100] Creating Layer relu3_1
I1102 17:16:34.917227  5919 net.cpp:434] relu3_1 <- conv3_1
I1102 17:16:34.917234  5919 net.cpp:395] relu3_1 -> conv3_1 (in-place)
I1102 17:16:34.917387  5919 net.cpp:150] Setting up relu3_1
I1102 17:16:34.917400  5919 net.cpp:157] Top shape: 4 128 26 26 (346112)
I1102 17:16:34.917417  5919 net.cpp:165] Memory required for data: 80637424
I1102 17:16:34.917424  5919 layer_factory.hpp:77] Creating layer conv3_2
I1102 17:16:34.917438  5919 net.cpp:100] Creating Layer conv3_2
I1102 17:16:34.917445  5919 net.cpp:434] conv3_2 <- conv3_1
I1102 17:16:34.917453  5919 net.cpp:408] conv3_2 -> conv3_2
I1102 17:16:34.922531  5919 net.cpp:150] Setting up conv3_2
I1102 17:16:34.922555  5919 net.cpp:157] Top shape: 4 128 26 26 (346112)
I1102 17:16:34.922561  5919 net.cpp:165] Memory required for data: 82021872
I1102 17:16:34.922569  5919 layer_factory.hpp:77] Creating layer relu3_2
I1102 17:16:34.922580  5919 net.cpp:100] Creating Layer relu3_2
I1102 17:16:34.922586  5919 net.cpp:434] relu3_2 <- conv3_2
I1102 17:16:34.922593  5919 net.cpp:395] relu3_2 -> conv3_2 (in-place)
I1102 17:16:34.922729  5919 net.cpp:150] Setting up relu3_2
I1102 17:16:34.922742  5919 net.cpp:157] Top shape: 4 128 26 26 (346112)
I1102 17:16:34.922749  5919 net.cpp:165] Memory required for data: 83406320
I1102 17:16:34.922755  5919 layer_factory.hpp:77] Creating layer res3_2
I1102 17:16:34.922763  5919 net.cpp:100] Creating Layer res3_2
I1102 17:16:34.922771  5919 net.cpp:434] res3_2 <- pool2_pool2_0_split_1
I1102 17:16:34.922777  5919 net.cpp:434] res3_2 <- conv3_2
I1102 17:16:34.922785  5919 net.cpp:408] res3_2 -> res3_2
I1102 17:16:34.922812  5919 net.cpp:150] Setting up res3_2
I1102 17:16:34.922821  5919 net.cpp:157] Top shape: 4 128 26 26 (346112)
I1102 17:16:34.922827  5919 net.cpp:165] Memory required for data: 84790768
I1102 17:16:34.922832  5919 layer_factory.hpp:77] Creating layer res3_2_res3_2_0_split
I1102 17:16:34.922842  5919 net.cpp:100] Creating Layer res3_2_res3_2_0_split
I1102 17:16:34.922847  5919 net.cpp:434] res3_2_res3_2_0_split <- res3_2
I1102 17:16:34.922853  5919 net.cpp:408] res3_2_res3_2_0_split -> res3_2_res3_2_0_split_0
I1102 17:16:34.922860  5919 net.cpp:408] res3_2_res3_2_0_split -> res3_2_res3_2_0_split_1
I1102 17:16:34.922897  5919 net.cpp:150] Setting up res3_2_res3_2_0_split
I1102 17:16:34.922905  5919 net.cpp:157] Top shape: 4 128 26 26 (346112)
I1102 17:16:34.922911  5919 net.cpp:157] Top shape: 4 128 26 26 (346112)
I1102 17:16:34.922917  5919 net.cpp:165] Memory required for data: 87559664
I1102 17:16:34.922922  5919 layer_factory.hpp:77] Creating layer conv3_3
I1102 17:16:34.922933  5919 net.cpp:100] Creating Layer conv3_3
I1102 17:16:34.922940  5919 net.cpp:434] conv3_3 <- res3_2_res3_2_0_split_0
I1102 17:16:34.922948  5919 net.cpp:408] conv3_3 -> conv3_3
I1102 17:16:34.929113  5919 net.cpp:150] Setting up conv3_3
I1102 17:16:34.929136  5919 net.cpp:157] Top shape: 4 128 26 26 (346112)
I1102 17:16:34.929143  5919 net.cpp:165] Memory required for data: 88944112
I1102 17:16:34.929152  5919 layer_factory.hpp:77] Creating layer relu3_3
I1102 17:16:34.929162  5919 net.cpp:100] Creating Layer relu3_3
I1102 17:16:34.929168  5919 net.cpp:434] relu3_3 <- conv3_3
I1102 17:16:34.929175  5919 net.cpp:395] relu3_3 -> conv3_3 (in-place)
I1102 17:16:34.929311  5919 net.cpp:150] Setting up relu3_3
I1102 17:16:34.929323  5919 net.cpp:157] Top shape: 4 128 26 26 (346112)
I1102 17:16:34.929329  5919 net.cpp:165] Memory required for data: 90328560
I1102 17:16:34.929337  5919 layer_factory.hpp:77] Creating layer conv3_4
I1102 17:16:34.929349  5919 net.cpp:100] Creating Layer conv3_4
I1102 17:16:34.929356  5919 net.cpp:434] conv3_4 <- conv3_3
I1102 17:16:34.929366  5919 net.cpp:408] conv3_4 -> conv3_4
I1102 17:16:34.934442  5919 net.cpp:150] Setting up conv3_4
I1102 17:16:34.934463  5919 net.cpp:157] Top shape: 4 128 26 26 (346112)
I1102 17:16:34.934469  5919 net.cpp:165] Memory required for data: 91713008
I1102 17:16:34.934478  5919 layer_factory.hpp:77] Creating layer relu3_4
I1102 17:16:34.934486  5919 net.cpp:100] Creating Layer relu3_4
I1102 17:16:34.934492  5919 net.cpp:434] relu3_4 <- conv3_4
I1102 17:16:34.934502  5919 net.cpp:395] relu3_4 -> conv3_4 (in-place)
I1102 17:16:34.934636  5919 net.cpp:150] Setting up relu3_4
I1102 17:16:34.934656  5919 net.cpp:157] Top shape: 4 128 26 26 (346112)
I1102 17:16:34.934672  5919 net.cpp:165] Memory required for data: 93097456
I1102 17:16:34.934680  5919 layer_factory.hpp:77] Creating layer res3_4
I1102 17:16:34.934689  5919 net.cpp:100] Creating Layer res3_4
I1102 17:16:34.934695  5919 net.cpp:434] res3_4 <- res3_2_res3_2_0_split_1
I1102 17:16:34.934701  5919 net.cpp:434] res3_4 <- conv3_4
I1102 17:16:34.934707  5919 net.cpp:408] res3_4 -> res3_4
I1102 17:16:34.934741  5919 net.cpp:150] Setting up res3_4
I1102 17:16:34.934748  5919 net.cpp:157] Top shape: 4 128 26 26 (346112)
I1102 17:16:34.934753  5919 net.cpp:165] Memory required for data: 94481904
I1102 17:16:34.934758  5919 layer_factory.hpp:77] Creating layer conv3
I1102 17:16:34.934769  5919 net.cpp:100] Creating Layer conv3
I1102 17:16:34.934777  5919 net.cpp:434] conv3 <- res3_4
I1102 17:16:34.934789  5919 net.cpp:408] conv3 -> conv3
I1102 17:16:34.938583  5919 net.cpp:150] Setting up conv3
I1102 17:16:34.938606  5919 net.cpp:157] Top shape: 4 256 24 24 (589824)
I1102 17:16:34.938611  5919 net.cpp:165] Memory required for data: 96841200
I1102 17:16:34.938619  5919 layer_factory.hpp:77] Creating layer relu3
I1102 17:16:34.938629  5919 net.cpp:100] Creating Layer relu3
I1102 17:16:34.938637  5919 net.cpp:434] relu3 <- conv3
I1102 17:16:34.938643  5919 net.cpp:395] relu3 -> conv3 (in-place)
I1102 17:16:34.938796  5919 net.cpp:150] Setting up relu3
I1102 17:16:34.938808  5919 net.cpp:157] Top shape: 4 256 24 24 (589824)
I1102 17:16:34.938813  5919 net.cpp:165] Memory required for data: 99200496
I1102 17:16:34.938822  5919 layer_factory.hpp:77] Creating layer pool3
I1102 17:16:34.938829  5919 net.cpp:100] Creating Layer pool3
I1102 17:16:34.938834  5919 net.cpp:434] pool3 <- conv3
I1102 17:16:34.938843  5919 net.cpp:408] pool3 -> pool3
I1102 17:16:34.938884  5919 net.cpp:150] Setting up pool3
I1102 17:16:34.938892  5919 net.cpp:157] Top shape: 4 256 12 12 (147456)
I1102 17:16:34.938897  5919 net.cpp:165] Memory required for data: 99790320
I1102 17:16:34.938901  5919 layer_factory.hpp:77] Creating layer pool3_pool3_0_split
I1102 17:16:34.938911  5919 net.cpp:100] Creating Layer pool3_pool3_0_split
I1102 17:16:34.938917  5919 net.cpp:434] pool3_pool3_0_split <- pool3
I1102 17:16:34.938923  5919 net.cpp:408] pool3_pool3_0_split -> pool3_pool3_0_split_0
I1102 17:16:34.938932  5919 net.cpp:408] pool3_pool3_0_split -> pool3_pool3_0_split_1
I1102 17:16:34.938967  5919 net.cpp:150] Setting up pool3_pool3_0_split
I1102 17:16:34.938977  5919 net.cpp:157] Top shape: 4 256 12 12 (147456)
I1102 17:16:34.938982  5919 net.cpp:157] Top shape: 4 256 12 12 (147456)
I1102 17:16:34.938987  5919 net.cpp:165] Memory required for data: 100969968
I1102 17:16:34.938993  5919 layer_factory.hpp:77] Creating layer conv4_1
I1102 17:16:34.939009  5919 net.cpp:100] Creating Layer conv4_1
I1102 17:16:34.939016  5919 net.cpp:434] conv4_1 <- pool3_pool3_0_split_0
I1102 17:16:34.939023  5919 net.cpp:408] conv4_1 -> conv4_1
I1102 17:16:34.954061  5919 net.cpp:150] Setting up conv4_1
I1102 17:16:34.954098  5919 net.cpp:157] Top shape: 4 256 12 12 (147456)
I1102 17:16:34.954104  5919 net.cpp:165] Memory required for data: 101559792
I1102 17:16:34.954113  5919 layer_factory.hpp:77] Creating layer relu4_1
I1102 17:16:34.954121  5919 net.cpp:100] Creating Layer relu4_1
I1102 17:16:34.954128  5919 net.cpp:434] relu4_1 <- conv4_1
I1102 17:16:34.954138  5919 net.cpp:395] relu4_1 -> conv4_1 (in-place)
I1102 17:16:34.954259  5919 net.cpp:150] Setting up relu4_1
I1102 17:16:34.954270  5919 net.cpp:157] Top shape: 4 256 12 12 (147456)
I1102 17:16:34.954277  5919 net.cpp:165] Memory required for data: 102149616
I1102 17:16:34.954289  5919 layer_factory.hpp:77] Creating layer conv4_2
I1102 17:16:34.954304  5919 net.cpp:100] Creating Layer conv4_2
I1102 17:16:34.954310  5919 net.cpp:434] conv4_2 <- conv4_1
I1102 17:16:34.954319  5919 net.cpp:408] conv4_2 -> conv4_2
I1102 17:16:34.969274  5919 net.cpp:150] Setting up conv4_2
I1102 17:16:34.969310  5919 net.cpp:157] Top shape: 4 256 12 12 (147456)
I1102 17:16:34.969317  5919 net.cpp:165] Memory required for data: 102739440
I1102 17:16:34.969336  5919 layer_factory.hpp:77] Creating layer relu4_2
I1102 17:16:34.969348  5919 net.cpp:100] Creating Layer relu4_2
I1102 17:16:34.969355  5919 net.cpp:434] relu4_2 <- conv4_2
I1102 17:16:34.969362  5919 net.cpp:395] relu4_2 -> conv4_2 (in-place)
I1102 17:16:34.969480  5919 net.cpp:150] Setting up relu4_2
I1102 17:16:34.969492  5919 net.cpp:157] Top shape: 4 256 12 12 (147456)
I1102 17:16:34.969498  5919 net.cpp:165] Memory required for data: 103329264
I1102 17:16:34.969506  5919 layer_factory.hpp:77] Creating layer res4_2
I1102 17:16:34.969512  5919 net.cpp:100] Creating Layer res4_2
I1102 17:16:34.969518  5919 net.cpp:434] res4_2 <- pool3_pool3_0_split_1
I1102 17:16:34.969524  5919 net.cpp:434] res4_2 <- conv4_2
I1102 17:16:34.969532  5919 net.cpp:408] res4_2 -> res4_2
I1102 17:16:34.969565  5919 net.cpp:150] Setting up res4_2
I1102 17:16:34.969574  5919 net.cpp:157] Top shape: 4 256 12 12 (147456)
I1102 17:16:34.969579  5919 net.cpp:165] Memory required for data: 103919088
I1102 17:16:34.969584  5919 layer_factory.hpp:77] Creating layer res4_2_res4_2_0_split
I1102 17:16:34.969594  5919 net.cpp:100] Creating Layer res4_2_res4_2_0_split
I1102 17:16:34.969600  5919 net.cpp:434] res4_2_res4_2_0_split <- res4_2
I1102 17:16:34.969607  5919 net.cpp:408] res4_2_res4_2_0_split -> res4_2_res4_2_0_split_0
I1102 17:16:34.969619  5919 net.cpp:408] res4_2_res4_2_0_split -> res4_2_res4_2_0_split_1
I1102 17:16:34.969688  5919 net.cpp:150] Setting up res4_2_res4_2_0_split
I1102 17:16:34.969698  5919 net.cpp:157] Top shape: 4 256 12 12 (147456)
I1102 17:16:34.969704  5919 net.cpp:157] Top shape: 4 256 12 12 (147456)
I1102 17:16:34.969709  5919 net.cpp:165] Memory required for data: 105098736
I1102 17:16:34.969714  5919 layer_factory.hpp:77] Creating layer conv4_3
I1102 17:16:34.969727  5919 net.cpp:100] Creating Layer conv4_3
I1102 17:16:34.969733  5919 net.cpp:434] conv4_3 <- res4_2_res4_2_0_split_0
I1102 17:16:34.969741  5919 net.cpp:408] conv4_3 -> conv4_3
I1102 17:16:34.985421  5919 net.cpp:150] Setting up conv4_3
I1102 17:16:34.985457  5919 net.cpp:157] Top shape: 4 256 12 12 (147456)
I1102 17:16:34.985465  5919 net.cpp:165] Memory required for data: 105688560
I1102 17:16:34.985472  5919 layer_factory.hpp:77] Creating layer relu4_3
I1102 17:16:34.985481  5919 net.cpp:100] Creating Layer relu4_3
I1102 17:16:34.985488  5919 net.cpp:434] relu4_3 <- conv4_3
I1102 17:16:34.985497  5919 net.cpp:395] relu4_3 -> conv4_3 (in-place)
I1102 17:16:34.985615  5919 net.cpp:150] Setting up relu4_3
I1102 17:16:34.985627  5919 net.cpp:157] Top shape: 4 256 12 12 (147456)
I1102 17:16:34.985632  5919 net.cpp:165] Memory required for data: 106278384
I1102 17:16:34.985640  5919 layer_factory.hpp:77] Creating layer conv4_4
I1102 17:16:34.985673  5919 net.cpp:100] Creating Layer conv4_4
I1102 17:16:34.985680  5919 net.cpp:434] conv4_4 <- conv4_3
I1102 17:16:34.985692  5919 net.cpp:408] conv4_4 -> conv4_4
I1102 17:16:35.000039  5919 net.cpp:150] Setting up conv4_4
I1102 17:16:35.000075  5919 net.cpp:157] Top shape: 4 256 12 12 (147456)
I1102 17:16:35.000082  5919 net.cpp:165] Memory required for data: 106868208
I1102 17:16:35.000092  5919 layer_factory.hpp:77] Creating layer relu4_4
I1102 17:16:35.000100  5919 net.cpp:100] Creating Layer relu4_4
I1102 17:16:35.000108  5919 net.cpp:434] relu4_4 <- conv4_4
I1102 17:16:35.000115  5919 net.cpp:395] relu4_4 -> conv4_4 (in-place)
I1102 17:16:35.000237  5919 net.cpp:150] Setting up relu4_4
I1102 17:16:35.000249  5919 net.cpp:157] Top shape: 4 256 12 12 (147456)
I1102 17:16:35.000254  5919 net.cpp:165] Memory required for data: 107458032
I1102 17:16:35.000262  5919 layer_factory.hpp:77] Creating layer res4_4
I1102 17:16:35.000270  5919 net.cpp:100] Creating Layer res4_4
I1102 17:16:35.000277  5919 net.cpp:434] res4_4 <- res4_2_res4_2_0_split_1
I1102 17:16:35.000283  5919 net.cpp:434] res4_4 <- conv4_4
I1102 17:16:35.000289  5919 net.cpp:408] res4_4 -> res4_4
I1102 17:16:35.000319  5919 net.cpp:150] Setting up res4_4
I1102 17:16:35.000329  5919 net.cpp:157] Top shape: 4 256 12 12 (147456)
I1102 17:16:35.000344  5919 net.cpp:165] Memory required for data: 108047856
I1102 17:16:35.000349  5919 layer_factory.hpp:77] Creating layer res4_4_res4_4_0_split
I1102 17:16:35.000358  5919 net.cpp:100] Creating Layer res4_4_res4_4_0_split
I1102 17:16:35.000365  5919 net.cpp:434] res4_4_res4_4_0_split <- res4_4
I1102 17:16:35.000370  5919 net.cpp:408] res4_4_res4_4_0_split -> res4_4_res4_4_0_split_0
I1102 17:16:35.000380  5919 net.cpp:408] res4_4_res4_4_0_split -> res4_4_res4_4_0_split_1
I1102 17:16:35.000424  5919 net.cpp:150] Setting up res4_4_res4_4_0_split
I1102 17:16:35.000433  5919 net.cpp:157] Top shape: 4 256 12 12 (147456)
I1102 17:16:35.000438  5919 net.cpp:157] Top shape: 4 256 12 12 (147456)
I1102 17:16:35.000444  5919 net.cpp:165] Memory required for data: 109227504
I1102 17:16:35.000449  5919 layer_factory.hpp:77] Creating layer conv4_5
I1102 17:16:35.000461  5919 net.cpp:100] Creating Layer conv4_5
I1102 17:16:35.000468  5919 net.cpp:434] conv4_5 <- res4_4_res4_4_0_split_0
I1102 17:16:35.000478  5919 net.cpp:408] conv4_5 -> conv4_5
I1102 17:16:35.015463  5919 net.cpp:150] Setting up conv4_5
I1102 17:16:35.015501  5919 net.cpp:157] Top shape: 4 256 12 12 (147456)
I1102 17:16:35.015507  5919 net.cpp:165] Memory required for data: 109817328
I1102 17:16:35.015516  5919 layer_factory.hpp:77] Creating layer relu4_5
I1102 17:16:35.015524  5919 net.cpp:100] Creating Layer relu4_5
I1102 17:16:35.015530  5919 net.cpp:434] relu4_5 <- conv4_5
I1102 17:16:35.015539  5919 net.cpp:395] relu4_5 -> conv4_5 (in-place)
I1102 17:16:35.015663  5919 net.cpp:150] Setting up relu4_5
I1102 17:16:35.015676  5919 net.cpp:157] Top shape: 4 256 12 12 (147456)
I1102 17:16:35.015681  5919 net.cpp:165] Memory required for data: 110407152
I1102 17:16:35.015687  5919 layer_factory.hpp:77] Creating layer conv4_6
I1102 17:16:35.015700  5919 net.cpp:100] Creating Layer conv4_6
I1102 17:16:35.015707  5919 net.cpp:434] conv4_6 <- conv4_5
I1102 17:16:35.015717  5919 net.cpp:408] conv4_6 -> conv4_6
I1102 17:16:35.030627  5919 net.cpp:150] Setting up conv4_6
I1102 17:16:35.030663  5919 net.cpp:157] Top shape: 4 256 12 12 (147456)
I1102 17:16:35.030669  5919 net.cpp:165] Memory required for data: 110996976
I1102 17:16:35.030678  5919 layer_factory.hpp:77] Creating layer relu4_6
I1102 17:16:35.030689  5919 net.cpp:100] Creating Layer relu4_6
I1102 17:16:35.030695  5919 net.cpp:434] relu4_6 <- conv4_6
I1102 17:16:35.030702  5919 net.cpp:395] relu4_6 -> conv4_6 (in-place)
I1102 17:16:35.030827  5919 net.cpp:150] Setting up relu4_6
I1102 17:16:35.030839  5919 net.cpp:157] Top shape: 4 256 12 12 (147456)
I1102 17:16:35.030845  5919 net.cpp:165] Memory required for data: 111586800
I1102 17:16:35.030853  5919 layer_factory.hpp:77] Creating layer res4_6
I1102 17:16:35.030861  5919 net.cpp:100] Creating Layer res4_6
I1102 17:16:35.030867  5919 net.cpp:434] res4_6 <- res4_4_res4_4_0_split_1
I1102 17:16:35.030874  5919 net.cpp:434] res4_6 <- conv4_6
I1102 17:16:35.030882  5919 net.cpp:408] res4_6 -> res4_6
I1102 17:16:35.030911  5919 net.cpp:150] Setting up res4_6
I1102 17:16:35.030920  5919 net.cpp:157] Top shape: 4 256 12 12 (147456)
I1102 17:16:35.030925  5919 net.cpp:165] Memory required for data: 112176624
I1102 17:16:35.030930  5919 layer_factory.hpp:77] Creating layer res4_6_res4_6_0_split
I1102 17:16:35.030936  5919 net.cpp:100] Creating Layer res4_6_res4_6_0_split
I1102 17:16:35.030942  5919 net.cpp:434] res4_6_res4_6_0_split <- res4_6
I1102 17:16:35.030951  5919 net.cpp:408] res4_6_res4_6_0_split -> res4_6_res4_6_0_split_0
I1102 17:16:35.030957  5919 net.cpp:408] res4_6_res4_6_0_split -> res4_6_res4_6_0_split_1
I1102 17:16:35.030998  5919 net.cpp:150] Setting up res4_6_res4_6_0_split
I1102 17:16:35.031006  5919 net.cpp:157] Top shape: 4 256 12 12 (147456)
I1102 17:16:35.031013  5919 net.cpp:157] Top shape: 4 256 12 12 (147456)
I1102 17:16:35.031018  5919 net.cpp:165] Memory required for data: 113356272
I1102 17:16:35.031023  5919 layer_factory.hpp:77] Creating layer conv4_7
I1102 17:16:35.031034  5919 net.cpp:100] Creating Layer conv4_7
I1102 17:16:35.031051  5919 net.cpp:434] conv4_7 <- res4_6_res4_6_0_split_0
I1102 17:16:35.031064  5919 net.cpp:408] conv4_7 -> conv4_7
I1102 17:16:35.045972  5919 net.cpp:150] Setting up conv4_7
I1102 17:16:35.046008  5919 net.cpp:157] Top shape: 4 256 12 12 (147456)
I1102 17:16:35.046015  5919 net.cpp:165] Memory required for data: 113946096
I1102 17:16:35.046023  5919 layer_factory.hpp:77] Creating layer relu4_7
I1102 17:16:35.046034  5919 net.cpp:100] Creating Layer relu4_7
I1102 17:16:35.046041  5919 net.cpp:434] relu4_7 <- conv4_7
I1102 17:16:35.046048  5919 net.cpp:395] relu4_7 -> conv4_7 (in-place)
I1102 17:16:35.046175  5919 net.cpp:150] Setting up relu4_7
I1102 17:16:35.046187  5919 net.cpp:157] Top shape: 4 256 12 12 (147456)
I1102 17:16:35.046193  5919 net.cpp:165] Memory required for data: 114535920
I1102 17:16:35.046200  5919 layer_factory.hpp:77] Creating layer conv4_8
I1102 17:16:35.046214  5919 net.cpp:100] Creating Layer conv4_8
I1102 17:16:35.046221  5919 net.cpp:434] conv4_8 <- conv4_7
I1102 17:16:35.046227  5919 net.cpp:408] conv4_8 -> conv4_8
I1102 17:16:35.061247  5919 net.cpp:150] Setting up conv4_8
I1102 17:16:35.061285  5919 net.cpp:157] Top shape: 4 256 12 12 (147456)
I1102 17:16:35.061291  5919 net.cpp:165] Memory required for data: 115125744
I1102 17:16:35.061300  5919 layer_factory.hpp:77] Creating layer relu4_8
I1102 17:16:35.061311  5919 net.cpp:100] Creating Layer relu4_8
I1102 17:16:35.061316  5919 net.cpp:434] relu4_8 <- conv4_8
I1102 17:16:35.061326  5919 net.cpp:395] relu4_8 -> conv4_8 (in-place)
I1102 17:16:35.061455  5919 net.cpp:150] Setting up relu4_8
I1102 17:16:35.061467  5919 net.cpp:157] Top shape: 4 256 12 12 (147456)
I1102 17:16:35.061473  5919 net.cpp:165] Memory required for data: 115715568
I1102 17:16:35.061480  5919 layer_factory.hpp:77] Creating layer res4_8
I1102 17:16:35.061488  5919 net.cpp:100] Creating Layer res4_8
I1102 17:16:35.061494  5919 net.cpp:434] res4_8 <- res4_6_res4_6_0_split_1
I1102 17:16:35.061501  5919 net.cpp:434] res4_8 <- conv4_8
I1102 17:16:35.061508  5919 net.cpp:408] res4_8 -> res4_8
I1102 17:16:35.061540  5919 net.cpp:150] Setting up res4_8
I1102 17:16:35.061548  5919 net.cpp:157] Top shape: 4 256 12 12 (147456)
I1102 17:16:35.061553  5919 net.cpp:165] Memory required for data: 116305392
I1102 17:16:35.061559  5919 layer_factory.hpp:77] Creating layer res4_8_res4_8_0_split
I1102 17:16:35.061568  5919 net.cpp:100] Creating Layer res4_8_res4_8_0_split
I1102 17:16:35.061573  5919 net.cpp:434] res4_8_res4_8_0_split <- res4_8
I1102 17:16:35.061579  5919 net.cpp:408] res4_8_res4_8_0_split -> res4_8_res4_8_0_split_0
I1102 17:16:35.061589  5919 net.cpp:408] res4_8_res4_8_0_split -> res4_8_res4_8_0_split_1
I1102 17:16:35.061630  5919 net.cpp:150] Setting up res4_8_res4_8_0_split
I1102 17:16:35.061638  5919 net.cpp:157] Top shape: 4 256 12 12 (147456)
I1102 17:16:35.061666  5919 net.cpp:157] Top shape: 4 256 12 12 (147456)
I1102 17:16:35.061671  5919 net.cpp:165] Memory required for data: 117485040
I1102 17:16:35.061676  5919 layer_factory.hpp:77] Creating layer conv4_9
I1102 17:16:35.061689  5919 net.cpp:100] Creating Layer conv4_9
I1102 17:16:35.061697  5919 net.cpp:434] conv4_9 <- res4_8_res4_8_0_split_0
I1102 17:16:35.061705  5919 net.cpp:408] conv4_9 -> conv4_9
I1102 17:16:35.076740  5919 net.cpp:150] Setting up conv4_9
I1102 17:16:35.076776  5919 net.cpp:157] Top shape: 4 256 12 12 (147456)
I1102 17:16:35.076781  5919 net.cpp:165] Memory required for data: 118074864
I1102 17:16:35.076791  5919 layer_factory.hpp:77] Creating layer relu4_9
I1102 17:16:35.076800  5919 net.cpp:100] Creating Layer relu4_9
I1102 17:16:35.076807  5919 net.cpp:434] relu4_9 <- conv4_9
I1102 17:16:35.076814  5919 net.cpp:395] relu4_9 -> conv4_9 (in-place)
I1102 17:16:35.076944  5919 net.cpp:150] Setting up relu4_9
I1102 17:16:35.076958  5919 net.cpp:157] Top shape: 4 256 12 12 (147456)
I1102 17:16:35.076964  5919 net.cpp:165] Memory required for data: 118664688
I1102 17:16:35.076972  5919 layer_factory.hpp:77] Creating layer conv4_10
I1102 17:16:35.076995  5919 net.cpp:100] Creating Layer conv4_10
I1102 17:16:35.077003  5919 net.cpp:434] conv4_10 <- conv4_9
I1102 17:16:35.077013  5919 net.cpp:408] conv4_10 -> conv4_10
I1102 17:16:35.092187  5919 net.cpp:150] Setting up conv4_10
I1102 17:16:35.092223  5919 net.cpp:157] Top shape: 4 256 12 12 (147456)
I1102 17:16:35.092231  5919 net.cpp:165] Memory required for data: 119254512
I1102 17:16:35.092238  5919 layer_factory.hpp:77] Creating layer relu4_10
I1102 17:16:35.092247  5919 net.cpp:100] Creating Layer relu4_10
I1102 17:16:35.092253  5919 net.cpp:434] relu4_10 <- conv4_10
I1102 17:16:35.092262  5919 net.cpp:395] relu4_10 -> conv4_10 (in-place)
I1102 17:16:35.092394  5919 net.cpp:150] Setting up relu4_10
I1102 17:16:35.092406  5919 net.cpp:157] Top shape: 4 256 12 12 (147456)
I1102 17:16:35.092412  5919 net.cpp:165] Memory required for data: 119844336
I1102 17:16:35.092418  5919 layer_factory.hpp:77] Creating layer res4_10
I1102 17:16:35.092428  5919 net.cpp:100] Creating Layer res4_10
I1102 17:16:35.092434  5919 net.cpp:434] res4_10 <- res4_8_res4_8_0_split_1
I1102 17:16:35.092440  5919 net.cpp:434] res4_10 <- conv4_10
I1102 17:16:35.092447  5919 net.cpp:408] res4_10 -> res4_10
I1102 17:16:35.092479  5919 net.cpp:150] Setting up res4_10
I1102 17:16:35.092489  5919 net.cpp:157] Top shape: 4 256 12 12 (147456)
I1102 17:16:35.092494  5919 net.cpp:165] Memory required for data: 120434160
I1102 17:16:35.092499  5919 layer_factory.hpp:77] Creating layer conv4
I1102 17:16:35.092510  5919 net.cpp:100] Creating Layer conv4
I1102 17:16:35.092517  5919 net.cpp:434] conv4 <- res4_10
I1102 17:16:35.092526  5919 net.cpp:408] conv4 -> conv4
I1102 17:16:35.101068  5919 net.cpp:150] Setting up conv4
I1102 17:16:35.101105  5919 net.cpp:157] Top shape: 4 512 10 10 (204800)
I1102 17:16:35.101111  5919 net.cpp:165] Memory required for data: 121253360
I1102 17:16:35.101126  5919 layer_factory.hpp:77] Creating layer relu4
I1102 17:16:35.101135  5919 net.cpp:100] Creating Layer relu4
I1102 17:16:35.101142  5919 net.cpp:434] relu4 <- conv4
I1102 17:16:35.101150  5919 net.cpp:395] relu4 -> conv4 (in-place)
I1102 17:16:35.101296  5919 net.cpp:150] Setting up relu4
I1102 17:16:35.101310  5919 net.cpp:157] Top shape: 4 512 10 10 (204800)
I1102 17:16:35.101315  5919 net.cpp:165] Memory required for data: 122072560
I1102 17:16:35.101321  5919 layer_factory.hpp:77] Creating layer pool4
I1102 17:16:35.101331  5919 net.cpp:100] Creating Layer pool4
I1102 17:16:35.101336  5919 net.cpp:434] pool4 <- conv4
I1102 17:16:35.101346  5919 net.cpp:408] pool4 -> pool4
I1102 17:16:35.101390  5919 net.cpp:150] Setting up pool4
I1102 17:16:35.101399  5919 net.cpp:157] Top shape: 4 512 5 5 (51200)
I1102 17:16:35.101404  5919 net.cpp:165] Memory required for data: 122277360
I1102 17:16:35.101410  5919 layer_factory.hpp:77] Creating layer pool4_pool4_0_split
I1102 17:16:35.101424  5919 net.cpp:100] Creating Layer pool4_pool4_0_split
I1102 17:16:35.101430  5919 net.cpp:434] pool4_pool4_0_split <- pool4
I1102 17:16:35.101438  5919 net.cpp:408] pool4_pool4_0_split -> pool4_pool4_0_split_0
I1102 17:16:35.101446  5919 net.cpp:408] pool4_pool4_0_split -> pool4_pool4_0_split_1
I1102 17:16:35.101488  5919 net.cpp:150] Setting up pool4_pool4_0_split
I1102 17:16:35.101497  5919 net.cpp:157] Top shape: 4 512 5 5 (51200)
I1102 17:16:35.101503  5919 net.cpp:157] Top shape: 4 512 5 5 (51200)
I1102 17:16:35.101507  5919 net.cpp:165] Memory required for data: 122686960
I1102 17:16:35.101513  5919 layer_factory.hpp:77] Creating layer conv5_1
I1102 17:16:35.101527  5919 net.cpp:100] Creating Layer conv5_1
I1102 17:16:35.101533  5919 net.cpp:434] conv5_1 <- pool4_pool4_0_split_0
I1102 17:16:35.101541  5919 net.cpp:408] conv5_1 -> conv5_1
I1102 17:16:35.153053  5919 net.cpp:150] Setting up conv5_1
I1102 17:16:35.153090  5919 net.cpp:157] Top shape: 4 512 5 5 (51200)
I1102 17:16:35.153097  5919 net.cpp:165] Memory required for data: 122891760
I1102 17:16:35.153117  5919 layer_factory.hpp:77] Creating layer relu5_1
I1102 17:16:35.153127  5919 net.cpp:100] Creating Layer relu5_1
I1102 17:16:35.153146  5919 net.cpp:434] relu5_1 <- conv5_1
I1102 17:16:35.153156  5919 net.cpp:395] relu5_1 -> conv5_1 (in-place)
I1102 17:16:35.153288  5919 net.cpp:150] Setting up relu5_1
I1102 17:16:35.153301  5919 net.cpp:157] Top shape: 4 512 5 5 (51200)
I1102 17:16:35.153307  5919 net.cpp:165] Memory required for data: 123096560
I1102 17:16:35.153314  5919 layer_factory.hpp:77] Creating layer conv5_2
I1102 17:16:35.153328  5919 net.cpp:100] Creating Layer conv5_2
I1102 17:16:35.153336  5919 net.cpp:434] conv5_2 <- conv5_1
I1102 17:16:35.153344  5919 net.cpp:408] conv5_2 -> conv5_2
I1102 17:16:35.204651  5919 net.cpp:150] Setting up conv5_2
I1102 17:16:35.204672  5919 net.cpp:157] Top shape: 4 512 5 5 (51200)
I1102 17:16:35.204679  5919 net.cpp:165] Memory required for data: 123301360
I1102 17:16:35.204686  5919 layer_factory.hpp:77] Creating layer relu5_2
I1102 17:16:35.204696  5919 net.cpp:100] Creating Layer relu5_2
I1102 17:16:35.204702  5919 net.cpp:434] relu5_2 <- conv5_2
I1102 17:16:35.204710  5919 net.cpp:395] relu5_2 -> conv5_2 (in-place)
I1102 17:16:35.204841  5919 net.cpp:150] Setting up relu5_2
I1102 17:16:35.204854  5919 net.cpp:157] Top shape: 4 512 5 5 (51200)
I1102 17:16:35.204860  5919 net.cpp:165] Memory required for data: 123506160
I1102 17:16:35.204867  5919 layer_factory.hpp:77] Creating layer res5_2
I1102 17:16:35.204875  5919 net.cpp:100] Creating Layer res5_2
I1102 17:16:35.204881  5919 net.cpp:434] res5_2 <- pool4_pool4_0_split_1
I1102 17:16:35.204887  5919 net.cpp:434] res5_2 <- conv5_2
I1102 17:16:35.204900  5919 net.cpp:408] res5_2 -> res5_2
I1102 17:16:35.204932  5919 net.cpp:150] Setting up res5_2
I1102 17:16:35.204941  5919 net.cpp:157] Top shape: 4 512 5 5 (51200)
I1102 17:16:35.204946  5919 net.cpp:165] Memory required for data: 123710960
I1102 17:16:35.204952  5919 layer_factory.hpp:77] Creating layer res5_2_res5_2_0_split
I1102 17:16:35.204959  5919 net.cpp:100] Creating Layer res5_2_res5_2_0_split
I1102 17:16:35.204964  5919 net.cpp:434] res5_2_res5_2_0_split <- res5_2
I1102 17:16:35.204972  5919 net.cpp:408] res5_2_res5_2_0_split -> res5_2_res5_2_0_split_0
I1102 17:16:35.204978  5919 net.cpp:408] res5_2_res5_2_0_split -> res5_2_res5_2_0_split_1
I1102 17:16:35.205021  5919 net.cpp:150] Setting up res5_2_res5_2_0_split
I1102 17:16:35.205030  5919 net.cpp:157] Top shape: 4 512 5 5 (51200)
I1102 17:16:35.205036  5919 net.cpp:157] Top shape: 4 512 5 5 (51200)
I1102 17:16:35.205040  5919 net.cpp:165] Memory required for data: 124120560
I1102 17:16:35.205046  5919 layer_factory.hpp:77] Creating layer conv5_3
I1102 17:16:35.205060  5919 net.cpp:100] Creating Layer conv5_3
I1102 17:16:35.205066  5919 net.cpp:434] conv5_3 <- res5_2_res5_2_0_split_0
I1102 17:16:35.205075  5919 net.cpp:408] conv5_3 -> conv5_3
I1102 17:16:35.255826  5919 net.cpp:150] Setting up conv5_3
I1102 17:16:35.255863  5919 net.cpp:157] Top shape: 4 512 5 5 (51200)
I1102 17:16:35.255870  5919 net.cpp:165] Memory required for data: 124325360
I1102 17:16:35.255880  5919 layer_factory.hpp:77] Creating layer relu5_3
I1102 17:16:35.255889  5919 net.cpp:100] Creating Layer relu5_3
I1102 17:16:35.255897  5919 net.cpp:434] relu5_3 <- conv5_3
I1102 17:16:35.255903  5919 net.cpp:395] relu5_3 -> conv5_3 (in-place)
I1102 17:16:35.256022  5919 net.cpp:150] Setting up relu5_3
I1102 17:16:35.256036  5919 net.cpp:157] Top shape: 4 512 5 5 (51200)
I1102 17:16:35.256041  5919 net.cpp:165] Memory required for data: 124530160
I1102 17:16:35.256048  5919 layer_factory.hpp:77] Creating layer conv5_4
I1102 17:16:35.256062  5919 net.cpp:100] Creating Layer conv5_4
I1102 17:16:35.256068  5919 net.cpp:434] conv5_4 <- conv5_3
I1102 17:16:35.256078  5919 net.cpp:408] conv5_4 -> conv5_4
I1102 17:16:35.308151  5919 net.cpp:150] Setting up conv5_4
I1102 17:16:35.308187  5919 net.cpp:157] Top shape: 4 512 5 5 (51200)
I1102 17:16:35.308194  5919 net.cpp:165] Memory required for data: 124734960
I1102 17:16:35.308203  5919 layer_factory.hpp:77] Creating layer relu5_4
I1102 17:16:35.308213  5919 net.cpp:100] Creating Layer relu5_4
I1102 17:16:35.308220  5919 net.cpp:434] relu5_4 <- conv5_4
I1102 17:16:35.308243  5919 net.cpp:395] relu5_4 -> conv5_4 (in-place)
I1102 17:16:35.308364  5919 net.cpp:150] Setting up relu5_4
I1102 17:16:35.308377  5919 net.cpp:157] Top shape: 4 512 5 5 (51200)
I1102 17:16:35.308383  5919 net.cpp:165] Memory required for data: 124939760
I1102 17:16:35.308390  5919 layer_factory.hpp:77] Creating layer res5_4
I1102 17:16:35.308403  5919 net.cpp:100] Creating Layer res5_4
I1102 17:16:35.308409  5919 net.cpp:434] res5_4 <- res5_2_res5_2_0_split_1
I1102 17:16:35.308415  5919 net.cpp:434] res5_4 <- conv5_4
I1102 17:16:35.308423  5919 net.cpp:408] res5_4 -> res5_4
I1102 17:16:35.308455  5919 net.cpp:150] Setting up res5_4
I1102 17:16:35.308464  5919 net.cpp:157] Top shape: 4 512 5 5 (51200)
I1102 17:16:35.308468  5919 net.cpp:165] Memory required for data: 125144560
I1102 17:16:35.308473  5919 layer_factory.hpp:77] Creating layer res5_4_res5_4_0_split
I1102 17:16:35.308482  5919 net.cpp:100] Creating Layer res5_4_res5_4_0_split
I1102 17:16:35.308487  5919 net.cpp:434] res5_4_res5_4_0_split <- res5_4
I1102 17:16:35.308495  5919 net.cpp:408] res5_4_res5_4_0_split -> res5_4_res5_4_0_split_0
I1102 17:16:35.308509  5919 net.cpp:408] res5_4_res5_4_0_split -> res5_4_res5_4_0_split_1
I1102 17:16:35.308552  5919 net.cpp:150] Setting up res5_4_res5_4_0_split
I1102 17:16:35.308560  5919 net.cpp:157] Top shape: 4 512 5 5 (51200)
I1102 17:16:35.308567  5919 net.cpp:157] Top shape: 4 512 5 5 (51200)
I1102 17:16:35.308571  5919 net.cpp:165] Memory required for data: 125554160
I1102 17:16:35.308576  5919 layer_factory.hpp:77] Creating layer conv5_5
I1102 17:16:35.308589  5919 net.cpp:100] Creating Layer conv5_5
I1102 17:16:35.308595  5919 net.cpp:434] conv5_5 <- res5_4_res5_4_0_split_0
I1102 17:16:35.308604  5919 net.cpp:408] conv5_5 -> conv5_5
I1102 17:16:35.360172  5919 net.cpp:150] Setting up conv5_5
I1102 17:16:35.360209  5919 net.cpp:157] Top shape: 4 512 5 5 (51200)
I1102 17:16:35.360216  5919 net.cpp:165] Memory required for data: 125758960
I1102 17:16:35.360225  5919 layer_factory.hpp:77] Creating layer relu5_5
I1102 17:16:35.360235  5919 net.cpp:100] Creating Layer relu5_5
I1102 17:16:35.360242  5919 net.cpp:434] relu5_5 <- conv5_5
I1102 17:16:35.360249  5919 net.cpp:395] relu5_5 -> conv5_5 (in-place)
I1102 17:16:35.360370  5919 net.cpp:150] Setting up relu5_5
I1102 17:16:35.360383  5919 net.cpp:157] Top shape: 4 512 5 5 (51200)
I1102 17:16:35.360388  5919 net.cpp:165] Memory required for data: 125963760
I1102 17:16:35.360395  5919 layer_factory.hpp:77] Creating layer conv5_6
I1102 17:16:35.360407  5919 net.cpp:100] Creating Layer conv5_6
I1102 17:16:35.360414  5919 net.cpp:434] conv5_6 <- conv5_5
I1102 17:16:35.360424  5919 net.cpp:408] conv5_6 -> conv5_6
I1102 17:16:35.412119  5919 net.cpp:150] Setting up conv5_6
I1102 17:16:35.412156  5919 net.cpp:157] Top shape: 4 512 5 5 (51200)
I1102 17:16:35.412163  5919 net.cpp:165] Memory required for data: 126168560
I1102 17:16:35.412171  5919 layer_factory.hpp:77] Creating layer relu5_6
I1102 17:16:35.412180  5919 net.cpp:100] Creating Layer relu5_6
I1102 17:16:35.412186  5919 net.cpp:434] relu5_6 <- conv5_6
I1102 17:16:35.412195  5919 net.cpp:395] relu5_6 -> conv5_6 (in-place)
I1102 17:16:35.412318  5919 net.cpp:150] Setting up relu5_6
I1102 17:16:35.412330  5919 net.cpp:157] Top shape: 4 512 5 5 (51200)
I1102 17:16:35.412336  5919 net.cpp:165] Memory required for data: 126373360
I1102 17:16:35.412343  5919 layer_factory.hpp:77] Creating layer res5_6
I1102 17:16:35.412353  5919 net.cpp:100] Creating Layer res5_6
I1102 17:16:35.412358  5919 net.cpp:434] res5_6 <- res5_4_res5_4_0_split_1
I1102 17:16:35.412366  5919 net.cpp:434] res5_6 <- conv5_6
I1102 17:16:35.412372  5919 net.cpp:408] res5_6 -> res5_6
I1102 17:16:35.412405  5919 net.cpp:150] Setting up res5_6
I1102 17:16:35.412415  5919 net.cpp:157] Top shape: 4 512 5 5 (51200)
I1102 17:16:35.412418  5919 net.cpp:165] Memory required for data: 126578160
I1102 17:16:35.412423  5919 layer_factory.hpp:77] Creating layer res5_6_res5_6_0_split
I1102 17:16:35.412431  5919 net.cpp:100] Creating Layer res5_6_res5_6_0_split
I1102 17:16:35.412451  5919 net.cpp:434] res5_6_res5_6_0_split <- res5_6
I1102 17:16:35.412461  5919 net.cpp:408] res5_6_res5_6_0_split -> res5_6_res5_6_0_split_0
I1102 17:16:35.412468  5919 net.cpp:408] res5_6_res5_6_0_split -> res5_6_res5_6_0_split_1
I1102 17:16:35.412513  5919 net.cpp:150] Setting up res5_6_res5_6_0_split
I1102 17:16:35.412523  5919 net.cpp:157] Top shape: 4 512 5 5 (51200)
I1102 17:16:35.412530  5919 net.cpp:157] Top shape: 4 512 5 5 (51200)
I1102 17:16:35.412534  5919 net.cpp:165] Memory required for data: 126987760
I1102 17:16:35.412540  5919 layer_factory.hpp:77] Creating layer fc5_new
I1102 17:16:35.412549  5919 net.cpp:100] Creating Layer fc5_new
I1102 17:16:35.412555  5919 net.cpp:434] fc5_new <- res5_6_res5_6_0_split_0
I1102 17:16:35.412566  5919 net.cpp:408] fc5_new -> fc5_new
I1102 17:16:35.446470  5919 net.cpp:150] Setting up fc5_new
I1102 17:16:35.446516  5919 net.cpp:157] Top shape: 4 512 (2048)
I1102 17:16:35.446523  5919 net.cpp:165] Memory required for data: 126995952
I1102 17:16:35.446532  5919 layer_factory.hpp:77] Creating layer fc5_new_fc5_new_0_split
I1102 17:16:35.446545  5919 net.cpp:100] Creating Layer fc5_new_fc5_new_0_split
I1102 17:16:35.446553  5919 net.cpp:434] fc5_new_fc5_new_0_split <- fc5_new
I1102 17:16:35.446563  5919 net.cpp:408] fc5_new_fc5_new_0_split -> fc5_new_fc5_new_0_split_0
I1102 17:16:35.446571  5919 net.cpp:408] fc5_new_fc5_new_0_split -> fc5_new_fc5_new_0_split_1
I1102 17:16:35.446578  5919 net.cpp:408] fc5_new_fc5_new_0_split -> fc5_new_fc5_new_0_split_2
I1102 17:16:35.446643  5919 net.cpp:150] Setting up fc5_new_fc5_new_0_split
I1102 17:16:35.446653  5919 net.cpp:157] Top shape: 4 512 (2048)
I1102 17:16:35.446658  5919 net.cpp:157] Top shape: 4 512 (2048)
I1102 17:16:35.446665  5919 net.cpp:157] Top shape: 4 512 (2048)
I1102 17:16:35.446669  5919 net.cpp:165] Memory required for data: 127020528
I1102 17:16:35.446674  5919 layer_factory.hpp:77] Creating layer fc6_new
I1102 17:16:35.446684  5919 net.cpp:100] Creating Layer fc6_new
I1102 17:16:35.446689  5919 net.cpp:434] fc6_new <- fc5_new_fc5_new_0_split_0
I1102 17:16:35.446697  5919 net.cpp:408] fc6_new -> fc6_new
I1102 17:16:35.446856  5919 net.cpp:150] Setting up fc6_new
I1102 17:16:35.446868  5919 net.cpp:157] Top shape: 4 7 (28)
I1102 17:16:35.446873  5919 net.cpp:165] Memory required for data: 127020640
I1102 17:16:35.446882  5919 layer_factory.hpp:77] Creating layer fc6_new_fc6_new_0_split
I1102 17:16:35.446888  5919 net.cpp:100] Creating Layer fc6_new_fc6_new_0_split
I1102 17:16:35.446893  5919 net.cpp:434] fc6_new_fc6_new_0_split <- fc6_new
I1102 17:16:35.446902  5919 net.cpp:408] fc6_new_fc6_new_0_split -> fc6_new_fc6_new_0_split_0
I1102 17:16:35.446909  5919 net.cpp:408] fc6_new_fc6_new_0_split -> fc6_new_fc6_new_0_split_1
I1102 17:16:35.446952  5919 net.cpp:150] Setting up fc6_new_fc6_new_0_split
I1102 17:16:35.446960  5919 net.cpp:157] Top shape: 4 7 (28)
I1102 17:16:35.446966  5919 net.cpp:157] Top shape: 4 7 (28)
I1102 17:16:35.446971  5919 net.cpp:165] Memory required for data: 127020864
I1102 17:16:35.446976  5919 layer_factory.hpp:77] Creating layer softmax_loss
I1102 17:16:35.446986  5919 net.cpp:100] Creating Layer softmax_loss
I1102 17:16:35.446992  5919 net.cpp:434] softmax_loss <- fc6_new_fc6_new_0_split_0
I1102 17:16:35.446998  5919 net.cpp:434] softmax_loss <- label_data_1_split_0
I1102 17:16:35.447005  5919 net.cpp:408] softmax_loss -> softmax_loss
…
