…
I1101 20:28:04.678606 34046 net.cpp:58] Initializing net from parameters: 
name: "fer2013_experiment"
state {
  phase: TRAIN
  level: 0
  stage: ""
}
layer {
  name: "data"
  type: "ImageData"
  top: "data"
  top: "label"
  include {
    phase: TRAIN
  }
  transform_param {
    scale: 0.0078125
    mirror: true
    crop_size: 227
    mean_value: 127.5
    mean_value: 127.5
    mean_value: 127.5
  }
  image_data_param {
    source: "/data/zeng/fer2013_dataset/list/fer2013_train.txt"
    batch_size: 64
    shuffle: true
    new_height: 256
    new_width: 256
    root_folder: "/data/zeng/fer2013_dataset/data/"
  }
}
layer {
  name: "conv1a"
  type: "Convolution"
  bottom: "data"
  top: "conv1a"
  param {
    lr_mult: 1
    decay_mult: 1
  }
  param {
    lr_mult: 2
    decay_mult: 0
  }
  convolution_param {
    num_output: 32
    kernel_size: 9
    stride: 2
    weight_filler {
      type: "xavier"
    }
    bias_filler {
      type: "constant"
      value: 0
    }
  }
}
layer {
  name: "relu1a"
  type: "PReLU"
  bottom: "conv1a"
  top: "conv1a"
}
layer {
  name: "conv1b"
  type: "Convolution"
  bottom: "conv1a"
  top: "conv1b"
  param {
    lr_mult: 1
    decay_mult: 1
  }
  param {
    lr_mult: 2
    decay_mult: 0
  }
  convolution_param {
    num_output: 64
    kernel_size: 3
    stride: 1
    weight_filler {
      type: "xavier"
    }
    bias_filler {
      type: "constant"
      value: 0
    }
  }
}
layer {
  name: "relu1b"
  type: "PReLU"
  bottom: "conv1b"
  top: "conv1b"
}
layer {
  name: "pool1b"
  type: "Pooling"
  bottom: "conv1b"
  top: "pool1b"
  pooling_param {
    pool: MAX
    kernel_size: 2
    stride: 2
  }
}
layer {
  name: "conv2_1"
  type: "Convolution"
  bottom: "pool1b"
  top: "conv2_1"
  param {
    lr_mult: 1
    decay_mult: 1
  }
  param {
    lr_mult: 0
    decay_mult: 0
  }
  convolution_param {
    num_output: 64
    pad: 1
    kernel_size: 3
    stride: 1
    weight_filler {
      type: "gaussian"
      std: 0.01
    }
    bias_filler {
      type: "constant"
      value: 0
    }
  }
}
layer {
  name: "relu2_1"
  type: "PReLU"
  bottom: "conv2_1"
  top: "conv2_1"
}
layer {
  name: "conv2_2"
  type: "Convolution"
  bottom: "conv2_1"
  top: "conv2_2"
  param {
    lr_mult: 1
    decay_mult: 1
  }
  param {
    lr_mult: 0
    decay_mult: 0
  }
  convolution_param {
    num_output: 64
    pad: 1
    kernel_size: 3
    stride: 1
    weight_filler {
      type: "gaussian"
      std: 0.01
    }
    bias_filler {
      type: "constant"
      value: 0
    }
  }
}
layer {
  name: "relu2_2"
  type: "PReLU"
  bottom: "conv2_2"
  top: "conv2_2"
}
layer {
  name: "res2_2"
  type: "Eltwise"
  bottom: "pool1b"
  bottom: "conv2_2"
  top: "res2_2"
  eltwise_param {
    operation: SUM
  }
}
layer {
  name: "conv2"
  type: "Convolution"
  bottom: "res2_2"
  top: "conv2"
  param {
    lr_mult: 1
    decay_mult: 1
  }
  param {
    lr_mult: 2
    decay_mult: 0
  }
  convolution_param {
    num_output: 128
    kernel_size: 3
    stride: 1
    weight_filler {
      type: "xavier"
    }
    bias_filler {
      type: "constant"
      value: 0
    }
  }
}
layer {
  name: "relu2"
  type: "PReLU"
  bottom: "conv2"
  top: "conv2"
}
layer {
  name: "pool2"
  type: "Pooling"
  bottom: "conv2"
  top: "pool2"
  pooling_param {
    pool: MAX
    kernel_size: 2
    stride: 2
  }
}
layer {
  name: "conv3_1"
  type: "Convolution"
  bottom: "pool2"
  top: "conv3_1"
  param {
    lr_mult: 1
    decay_mult: 1
  }
  param {
    lr_mult: 0
    decay_mult: 0
  }
  convolution_param {
    num_output: 128
    pad: 1
    kernel_size: 3
    stride: 1
    weight_filler {
      type: "gaussian"
      std: 0.01
    }
    bias_filler {
      type: "constant"
      value: 0
    }
  }
}
layer {
  name: "relu3_1"
  type: "PReLU"
  bottom: "conv3_1"
  top: "conv3_1"
}
layer {
  name: "conv3_2"
  type: "Convolution"
  bottom: "conv3_1"
  top: "conv3_2"
  param {
    lr_mult: 1
    decay_mult: 1
  }
  param {
    lr_mult: 0
    decay_mult: 0
  }
  convolution_param {
    num_output: 128
    pad: 1
    kernel_size: 3
    stride: 1
    weight_filler {
      type: "gaussian"
      std: 0.01
    }
    bias_filler {
      type: "constant"
      value: 0
    }
  }
}
layer {
  name: "relu3_2"
  type: "PReLU"
  bottom: "conv3_2"
  top: "conv3_2"
}
layer {
  name: "res3_2"
  type: "Eltwise"
  bottom: "pool2"
  bottom: "conv3_2"
  top: "res3_2"
  eltwise_param {
    operation: SUM
  }
}
layer {
  name: "conv3_3"
  type: "Convolution"
  bottom: "res3_2"
  top: "conv3_3"
  param {
    lr_mult: 1
    decay_mult: 1
  }
  param {
    lr_mult: 0
    decay_mult: 0
  }
  convolution_param {
    num_output: 128
    pad: 1
    kernel_size: 3
    stride: 1
    weight_filler {
      type: "gaussian"
      std: 0.01
    }
    bias_filler {
      type: "constant"
      value: 0
    }
  }
}
layer {
  name: "relu3_3"
  type: "PReLU"
  bottom: "conv3_3"
  top: "conv3_3"
}
layer {
  name: "conv3_4"
  type: "Convolution"
  bottom: "conv3_3"
  top: "conv3_4"
  param {
    lr_mult: 1
    decay_mult: 1
  }
  param {
    lr_mult: 0
    decay_mult: 0
  }
  convolution_param {
    num_output: 128
    pad: 1
    kernel_size: 3
    stride: 1
    weight_filler {
      type: "gaussian"
      std: 0.01
    }
    bias_filler {
      type: "constant"
      value: 0
    }
  }
}
layer {
  name: "relu3_4"
  type: "PReLU"
  bottom: "conv3_4"
  top: "conv3_4"
}
layer {
  name: "res3_4"
  type: "Eltwise"
  bottom: "res3_2"
  bottom: "conv3_4"
  top: "res3_4"
  eltwise_param {
    operation: SUM
  }
}
layer {
  name: "conv3"
  type: "Convolution"
  bottom: "res3_4"
  top: "conv3"
  param {
    lr_mult: 1
    decay_mult: 1
  }
  param {
    lr_mult: 2
    decay_mult: 0
  }
  convolution_param {
    num_output: 256
    kernel_size: 3
    stride: 1
    weight_filler {
      type: "xavier"
    }
    bias_filler {
      type: "constant"
      value: 0
    }
  }
}
layer {
  name: "relu3"
  type: "PReLU"
  bottom: "conv3"
  top: "conv3"
}
layer {
  name: "pool3"
  type: "Pooling"
  bottom: "conv3"
  top: "pool3"
  pooling_param {
    pool: MAX
    kernel_size: 2
    stride: 2
  }
}
layer {
  name: "conv4_1"
  type: "Convolution"
  bottom: "pool3"
  top: "conv4_1"
  param {
    lr_mult: 1
    decay_mult: 1
  }
  param {
    lr_mult: 0
    decay_mult: 0
  }
  convolution_param {
    num_output: 256
    pad: 1
    kernel_size: 3
    stride: 1
    weight_filler {
      type: "gaussian"
      std: 0.01
    }
    bias_filler {
      type: "constant"
      value: 0
    }
  }
}
layer {
  name: "relu4_1"
  type: "PReLU"
  bottom: "conv4_1"
  top: "conv4_1"
}
layer {
  name: "conv4_2"
  type: "Convolution"
  bottom: "conv4_1"
  top: "conv4_2"
  param {
    lr_mult: 1
    decay_mult: 1
  }
  param {
    lr_mult: 0
    decay_mult: 0
  }
  convolution_param {
    num_output: 256
    pad: 1
    kernel_size: 3
    stride: 1
    weight_filler {
      type: "gaussian"
      std: 0.01
    }
    bias_filler {
      type: "constant"
      value: 0
    }
  }
}
layer {
  name: "relu4_2"
  type: "PReLU"
  bottom: "conv4_2"
  top: "conv4_2"
}
layer {
  name: "res4_2"
  type: "Eltwise"
  bottom: "pool3"
  bottom: "conv4_2"
  top: "res4_2"
  eltwise_param {
    operation: SUM
  }
}
layer {
  name: "conv4_3"
  type: "Convolution"
  bottom: "res4_2"
  top: "conv4_3"
  param {
    lr_mult: 1
    decay_mult: 1
  }
  param {
    lr_mult: 0
    decay_mult: 0
  }
  convolution_param {
    num_output: 256
    pad: 1
    kernel_size: 3
    stride: 1
    weight_filler {
      type: "gaussian"
      std: 0.01
    }
    bias_filler {
      type: "constant"
      value: 0
    }
  }
}
layer {
  name: "relu4_3"
  type: "PReLU"
  bottom: "conv4_3"
  top: "conv4_3"
}
layer {
  name: "conv4_4"
  type: "Convolution"
  bottom: "conv4_3"
  top: "conv4_4"
  param {
    lr_mult: 1
    decay_mult: 1
  }
  param {
    lr_mult: 0
    decay_mult: 0
  }
  convolution_param {
    num_output: 256
    pad: 1
    kernel_size: 3
    stride: 1
    weight_filler {
      type: "gaussian"
      std: 0.01
    }
    bias_filler {
      type: "constant"
      value: 0
    }
  }
}
layer {
  name: "relu4_4"
  type: "PReLU"
  bottom: "conv4_4"
  top: "conv4_4"
}
layer {
  name: "res4_4"
  type: "Eltwise"
  bottom: "res4_2"
  bottom: "conv4_4"
  top: "res4_4"
  eltwise_param {
    operation: SUM
  }
}
layer {
  name: "conv4_5"
  type: "Convolution"
  bottom: "res4_4"
  top: "conv4_5"
  param {
    lr_mult: 1
    decay_mult: 1
  }
  param {
    lr_mult: 0
    decay_mult: 0
  }
  convolution_param {
    num_output: 256
    pad: 1
    kernel_size: 3
    stride: 1
    weight_filler {
      type: "gaussian"
      std: 0.01
    }
    bias_filler {
      type: "constant"
      value: 0
    }
  }
}
layer {
  name: "relu4_5"
  type: "PReLU"
  bottom: "conv4_5"
  top: "conv4_5"
}
layer {
  name: "conv4_6"
  type: "Convolution"
  bottom: "conv4_5"
  top: "conv4_6"
  param {
    lr_mult: 1
    decay_mult: 1
  }
  param {
    lr_mult: 0
    decay_mult: 0
  }
  convolution_param {
    num_output: 256
    pad: 1
    kernel_size: 3
    stride: 1
    weight_filler {
      type: "gaussian"
      std: 0.01
    }
    bias_filler {
      type: "constant"
      value: 0
    }
  }
}
layer {
  name: "relu4_6"
  type: "PReLU"
  bottom: "conv4_6"
  top: "conv4_6"
}
layer {
  name: "res4_6"
  type: "Eltwise"
  bottom: "res4_4"
  bottom: "conv4_6"
  top: "res4_6"
  eltwise_param {
    operation: SUM
  }
}
layer {
  name: "conv4_7"
  type: "Convolution"
  bottom: "res4_6"
  top: "conv4_7"
  param {
    lr_mult: 1
    decay_mult: 1
  }
  param {
    lr_mult: 0
    decay_mult: 0
  }
  convolution_param {
    num_output: 256
    pad: 1
    kernel_size: 3
    stride: 1
    weight_filler {
      type: "gaussian"
      std: 0.01
    }
    bias_filler {
      type: "constant"
      value: 0
    }
  }
}
layer {
  name: "relu4_7"
  type: "PReLU"
  bottom: "conv4_7"
  top: "conv4_7"
}
layer {
  name: "conv4_8"
  type: "Convolution"
  bottom: "conv4_7"
  top: "conv4_8"
  param {
    lr_mult: 1
    decay_mult: 1
  }
  param {
    lr_mult: 0
    decay_mult: 0
  }
  convolution_param {
    num_output: 256
    pad: 1
    kernel_size: 3
    stride: 1
    weight_filler {
      type: "gaussian"
      std: 0.01
    }
    bias_filler {
      type: "constant"
      value: 0
    }
  }
}
layer {
  name: "relu4_8"
  type: "PReLU"
  bottom: "conv4_8"
  top: "conv4_8"
}
layer {
  name: "res4_8"
  type: "Eltwise"
  bottom: "res4_6"
  bottom: "conv4_8"
  top: "res4_8"
  eltwise_param {
    operation: SUM
  }
}
layer {
  name: "conv4_9"
  type: "Convolution"
  bottom: "res4_8"
  top: "conv4_9"
  param {
    lr_mult: 1
    decay_mult: 1
  }
  param {
    lr_mult: 0
    decay_mult: 0
  }
  convolution_param {
    num_output: 256
    pad: 1
    kernel_size: 3
    stride: 1
    weight_filler {
      type: "gaussian"
      std: 0.01
    }
    bias_filler {
      type: "constant"
      value: 0
    }
  }
}
layer {
  name: "relu4_9"
  type: "PReLU"
  bottom: "conv4_9"
  top: "conv4_9"
}
layer {
  name: "conv4_10"
  type: "Convolution"
  bottom: "conv4_9"
  top: "conv4_10"
  param {
    lr_mult: 1
    decay_mult: 1
  }
  param {
    lr_mult: 0
    decay_mult: 0
  }
  convolution_param {
    num_output: 256
    pad: 1
    kernel_size: 3
    stride: 1
    weight_filler {
      type: "gaussian"
      std: 0.01
    }
    bias_filler {
      type: "constant"
      value: 0
    }
  }
}
layer {
  name: "relu4_10"
  type: "PReLU"
  bottom: "conv4_10"
  top: "conv4_10"
}
layer {
  name: "res4_10"
  type: "Eltwise"
  bottom: "res4_8"
  bottom: "conv4_10"
  top: "res4_10"
  eltwise_param {
    operation: SUM
  }
}
layer {
  name: "conv4"
  type: "Convolution"
  bottom: "res4_10"
  top: "conv4"
  param {
    lr_mult: 1
    decay_mult: 1
  }
  param {
    lr_mult: 2
    decay_mult: 0
  }
  convolution_param {
    num_output: 512
    kernel_size: 3
    stride: 1
    weight_filler {
      type: "xavier"
    }
    bias_filler {
      type: "constant"
      value: 0
    }
  }
}
layer {
  name: "relu4"
  type: "PReLU"
  bottom: "conv4"
  top: "conv4"
}
layer {
  name: "pool4"
  type: "Pooling"
  bottom: "conv4"
  top: "pool4"
  pooling_param {
    pool: MAX
    kernel_size: 2
    stride: 2
  }
}
layer {
  name: "conv5_1"
  type: "Convolution"
  bottom: "pool4"
  top: "conv5_1"
  param {
    lr_mult: 1
    decay_mult: 1
  }
  param {
    lr_mult: 0
    decay_mult: 0
  }
  convolution_param {
    num_output: 512
    pad: 1
    kernel_size: 3
    stride: 1
    weight_filler {
      type: "gaussian"
      std: 0.01
    }
    bias_filler {
      type: "constant"
      value: 0
    }
  }
}
layer {
  name: "relu5_1"
  type: "PReLU"
  bottom: "conv5_1"
  top: "conv5_1"
}
layer {
  name: "conv5_2"
  type: "Convolution"
  bottom: "conv5_1"
  top: "conv5_2"
  param {
    lr_mult: 1
    decay_mult: 1
  }
  param {
    lr_mult: 0
    decay_mult: 0
  }
  convolution_param {
    num_output: 512
    pad: 1
    kernel_size: 3
    stride: 1
    weight_filler {
      type: "gaussian"
      std: 0.01
    }
    bias_filler {
      type: "constant"
      value: 0
    }
  }
}
layer {
  name: "relu5_2"
  type: "PReLU"
  bottom: "conv5_2"
  top: "conv5_2"
}
layer {
  name: "res5_2"
  type: "Eltwise"
  bottom: "pool4"
  bottom: "conv5_2"
  top: "res5_2"
  eltwise_param {
    operation: SUM
  }
}
layer {
  name: "conv5_3"
  type: "Convolution"
  bottom: "res5_2"
  top: "conv5_3"
  param {
    lr_mult: 1
    decay_mult: 1
  }
  param {
    lr_mult: 0
    decay_mult: 0
  }
  convolution_param {
    num_output: 512
    pad: 1
    kernel_size: 3
    stride: 1
    weight_filler {
      type: "gaussian"
      std: 0.01
    }
    bias_filler {
      type: "constant"
      value: 0
    }
  }
}
layer {
  name: "relu5_3"
  type: "PReLU"
  bottom: "conv5_3"
  top: "conv5_3"
}
layer {
  name: "conv5_4"
  type: "Convolution"
  bottom: "conv5_3"
  top: "conv5_4"
  param {
    lr_mult: 1
    decay_mult: 1
  }
  param {
    lr_mult: 0
    decay_mult: 0
  }
  convolution_param {
    num_output: 512
    pad: 1
    kernel_size: 3
    stride: 1
    weight_filler {
      type: "gaussian"
      std: 0.01
    }
    bias_filler {
      type: "constant"
      value: 0
    }
  }
}
layer {
  name: "relu5_4"
  type: "PReLU"
  bottom: "conv5_4"
  top: "conv5_4"
}
layer {
  name: "res5_4"
  type: "Eltwise"
  bottom: "res5_2"
  bottom: "conv5_4"
  top: "res5_4"
  eltwise_param {
    operation: SUM
  }
}
layer {
  name: "conv5_5"
  type: "Convolution"
  bottom: "res5_4"
  top: "conv5_5"
  param {
    lr_mult: 1
    decay_mult: 1
  }
  param {
    lr_mult: 0
    decay_mult: 0
  }
  convolution_param {
    num_output: 512
    pad: 1
    kernel_size: 3
    stride: 1
    weight_filler {
      type: "gaussian"
      std: 0.01
    }
    bias_filler {
      type: "constant"
      value: 0
    }
  }
}
layer {
  name: "relu5_5"
  type: "PReLU"
  bottom: "conv5_5"
  top: "conv5_5"
}
layer {
  name: "conv5_6"
  type: "Convolution"
  bottom: "conv5_5"
  top: "conv5_6"
  param {
    lr_mult: 1
    decay_mult: 1
  }
  param {
    lr_mult: 0
    decay_mult: 0
  }
  convolution_param {
    num_output: 512
    pad: 1
    kernel_size: 3
    stride: 1
    weight_filler {
      type: "gaussian"
      std: 0.01
    }
    bias_filler {
      type: "constant"
      value: 0
    }
  }
}
layer {
  name: "relu5_6"
  type: "PReLU"
  bottom: "conv5_6"
  top: "conv5_6"
}
layer {
  name: "res5_6"
  type: "Eltwise"
  bottom: "res5_4"
  bottom: "conv5_6"
  top: "res5_6"
  eltwise_param {
    operation: SUM
  }
}
layer {
  name: "fc5_new"
  type: "InnerProduct"
  bottom: "res5_6"
  top: "fc5_new"
  param {
    lr_mult: 1
    decay_mult: 1
  }
  param {
    lr_mult: 2
    decay_mult: 0
  }
  inner_product_param {
    num_output: 512
    weight_filler {
      type: "xavier"
    }
    bias_filler {
      type: "constant"
      value: 0
    }
  }
}
layer {
  name: "fc6_new"
  type: "InnerProduct"
  bottom: "fc5_new"
  top: "fc6_new"
  param {
    lr_mult: 1
    decay_mult: 1
  }
  param {
    lr_mult: 2
    decay_mult: 0
  }
  inner_product_param {
    num_output: 7
    weight_filler {
      type: "xavier"
    }
    bias_filler {
      type: "constant"
      value: 0
    }
  }
}
layer {
  name: "softmax_loss"
  type: "SoftmaxWithLoss"
  bottom: "fc6_new"
  bottom: "label"
  top: "softmax_loss"
}
layer {
  name: "accuracy"
  type: "Accuracy"
  bottom: "fc6_new"
  bottom: "label"
  top: "accuracy"
}
layer {
  name: "center_loss_new"
  type: "CenterLoss"
  bottom: "fc5_new"
  bottom: "label"
  top: "center_loss_new"
  loss_weight: 0.008
  param {
    lr_mult: 1
    decay_mult: 2
  }
  center_loss_param {
    num_output: 7
    center_filler {
      type: "xavier"
    }
  }
}
I1101 20:28:04.681071 34046 layer_factory.hpp:77] Creating layer data
I1101 20:28:04.681120 34046 net.cpp:100] Creating Layer data
I1101 20:28:04.681133 34046 net.cpp:408] data -> data
I1101 20:28:04.681159 34046 net.cpp:408] data -> label
I1101 20:28:04.681488 34046 image_data_layer.cpp:38] Opening file /data/zeng/fer2013_dataset/list/fer2013_train.txt
I1101 20:28:04.687692 34046 image_data_layer.cpp:53] Shuffling data
I1101 20:28:04.689496 34046 image_data_layer.cpp:58] A total of 28709 images.
I1101 20:28:05.119696 34046 image_data_layer.cpp:85] output data size: 64,3,227,227
I1101 20:28:05.213392 34046 net.cpp:150] Setting up data
I1101 20:28:05.213469 34046 net.cpp:157] Top shape: 64 3 227 227 (9893568)
I1101 20:28:05.213484 34046 net.cpp:157] Top shape: 64 (64)
I1101 20:28:05.213491 34046 net.cpp:165] Memory required for data: 39574528
I1101 20:28:05.213507 34046 layer_factory.hpp:77] Creating layer label_data_1_split
I1101 20:28:05.213537 34046 net.cpp:100] Creating Layer label_data_1_split
I1101 20:28:05.213551 34046 net.cpp:434] label_data_1_split <- label
I1101 20:28:05.213573 34046 net.cpp:408] label_data_1_split -> label_data_1_split_0
I1101 20:28:05.213593 34046 net.cpp:408] label_data_1_split -> label_data_1_split_1
I1101 20:28:05.213605 34046 net.cpp:408] label_data_1_split -> label_data_1_split_2
I1101 20:28:05.213716 34046 net.cpp:150] Setting up label_data_1_split
I1101 20:28:05.213735 34046 net.cpp:157] Top shape: 64 (64)
I1101 20:28:05.213748 34046 net.cpp:157] Top shape: 64 (64)
I1101 20:28:05.213759 34046 net.cpp:157] Top shape: 64 (64)
I1101 20:28:05.213769 34046 net.cpp:165] Memory required for data: 39575296
I1101 20:28:05.213778 34046 layer_factory.hpp:77] Creating layer conv1a
I1101 20:28:05.213809 34046 net.cpp:100] Creating Layer conv1a
I1101 20:28:05.213831 34046 net.cpp:434] conv1a <- data
I1101 20:28:05.213845 34046 net.cpp:408] conv1a -> conv1a
I1101 20:28:05.535850 34046 net.cpp:150] Setting up conv1a
I1101 20:28:05.535909 34046 net.cpp:157] Top shape: 64 32 110 110 (24780800)
I1101 20:28:05.535918 34046 net.cpp:165] Memory required for data: 138698496
I1101 20:28:05.535943 34046 layer_factory.hpp:77] Creating layer relu1a
I1101 20:28:05.535967 34046 net.cpp:100] Creating Layer relu1a
I1101 20:28:05.535976 34046 net.cpp:434] relu1a <- conv1a
I1101 20:28:05.535986 34046 net.cpp:395] relu1a -> conv1a (in-place)
I1101 20:28:05.537555 34046 net.cpp:150] Setting up relu1a
I1101 20:28:05.537580 34046 net.cpp:157] Top shape: 64 32 110 110 (24780800)
I1101 20:28:05.537588 34046 net.cpp:165] Memory required for data: 237821696
I1101 20:28:05.537601 34046 layer_factory.hpp:77] Creating layer conv1b
I1101 20:28:05.537623 34046 net.cpp:100] Creating Layer conv1b
I1101 20:28:05.537631 34046 net.cpp:434] conv1b <- conv1a
I1101 20:28:05.537649 34046 net.cpp:408] conv1b -> conv1b
I1101 20:28:05.540486 34046 net.cpp:150] Setting up conv1b
I1101 20:28:05.540541 34046 net.cpp:157] Top shape: 64 64 108 108 (47775744)
I1101 20:28:05.540550 34046 net.cpp:165] Memory required for data: 428924672
I1101 20:28:05.540565 34046 layer_factory.hpp:77] Creating layer relu1b
I1101 20:28:05.540577 34046 net.cpp:100] Creating Layer relu1b
I1101 20:28:05.540585 34046 net.cpp:434] relu1b <- conv1b
I1101 20:28:05.540593 34046 net.cpp:395] relu1b -> conv1b (in-place)
I1101 20:28:05.542652 34046 net.cpp:150] Setting up relu1b
I1101 20:28:05.542677 34046 net.cpp:157] Top shape: 64 64 108 108 (47775744)
I1101 20:28:05.542686 34046 net.cpp:165] Memory required for data: 620027648
I1101 20:28:05.542695 34046 layer_factory.hpp:77] Creating layer pool1b
I1101 20:28:05.542711 34046 net.cpp:100] Creating Layer pool1b
I1101 20:28:05.542721 34046 net.cpp:434] pool1b <- conv1b
I1101 20:28:05.542731 34046 net.cpp:408] pool1b -> pool1b
I1101 20:28:05.542793 34046 net.cpp:150] Setting up pool1b
I1101 20:28:05.542807 34046 net.cpp:157] Top shape: 64 64 54 54 (11943936)
I1101 20:28:05.542814 34046 net.cpp:165] Memory required for data: 667803392
I1101 20:28:05.542821 34046 layer_factory.hpp:77] Creating layer pool1b_pool1b_0_split
I1101 20:28:05.542834 34046 net.cpp:100] Creating Layer pool1b_pool1b_0_split
I1101 20:28:05.542840 34046 net.cpp:434] pool1b_pool1b_0_split <- pool1b
I1101 20:28:05.542850 34046 net.cpp:408] pool1b_pool1b_0_split -> pool1b_pool1b_0_split_0
I1101 20:28:05.542861 34046 net.cpp:408] pool1b_pool1b_0_split -> pool1b_pool1b_0_split_1
I1101 20:28:05.542897 34046 net.cpp:150] Setting up pool1b_pool1b_0_split
I1101 20:28:05.542908 34046 net.cpp:157] Top shape: 64 64 54 54 (11943936)
I1101 20:28:05.542917 34046 net.cpp:157] Top shape: 64 64 54 54 (11943936)
I1101 20:28:05.542923 34046 net.cpp:165] Memory required for data: 763354880
I1101 20:28:05.542930 34046 layer_factory.hpp:77] Creating layer conv2_1
I1101 20:28:05.542945 34046 net.cpp:100] Creating Layer conv2_1
I1101 20:28:05.542954 34046 net.cpp:434] conv2_1 <- pool1b_pool1b_0_split_0
I1101 20:28:05.542963 34046 net.cpp:408] conv2_1 -> conv2_1
I1101 20:28:05.547389 34046 net.cpp:150] Setting up conv2_1
I1101 20:28:05.547416 34046 net.cpp:157] Top shape: 64 64 54 54 (11943936)
I1101 20:28:05.547425 34046 net.cpp:165] Memory required for data: 811130624
I1101 20:28:05.547436 34046 layer_factory.hpp:77] Creating layer relu2_1
I1101 20:28:05.547448 34046 net.cpp:100] Creating Layer relu2_1
I1101 20:28:05.547456 34046 net.cpp:434] relu2_1 <- conv2_1
I1101 20:28:05.547464 34046 net.cpp:395] relu2_1 -> conv2_1 (in-place)
I1101 20:28:05.548876 34046 net.cpp:150] Setting up relu2_1
I1101 20:28:05.548898 34046 net.cpp:157] Top shape: 64 64 54 54 (11943936)
I1101 20:28:05.548907 34046 net.cpp:165] Memory required for data: 858906368
I1101 20:28:05.548919 34046 layer_factory.hpp:77] Creating layer conv2_2
I1101 20:28:05.548936 34046 net.cpp:100] Creating Layer conv2_2
I1101 20:28:05.548945 34046 net.cpp:434] conv2_2 <- conv2_1
I1101 20:28:05.548955 34046 net.cpp:408] conv2_2 -> conv2_2
I1101 20:28:05.551440 34046 net.cpp:150] Setting up conv2_2
I1101 20:28:05.551465 34046 net.cpp:157] Top shape: 64 64 54 54 (11943936)
I1101 20:28:05.551475 34046 net.cpp:165] Memory required for data: 906682112
I1101 20:28:05.551486 34046 layer_factory.hpp:77] Creating layer relu2_2
I1101 20:28:05.551497 34046 net.cpp:100] Creating Layer relu2_2
I1101 20:28:05.551506 34046 net.cpp:434] relu2_2 <- conv2_2
I1101 20:28:05.551514 34046 net.cpp:395] relu2_2 -> conv2_2 (in-place)
I1101 20:28:05.551692 34046 net.cpp:150] Setting up relu2_2
I1101 20:28:05.551707 34046 net.cpp:157] Top shape: 64 64 54 54 (11943936)
I1101 20:28:05.551715 34046 net.cpp:165] Memory required for data: 954457856
I1101 20:28:05.551723 34046 layer_factory.hpp:77] Creating layer res2_2
I1101 20:28:05.551735 34046 net.cpp:100] Creating Layer res2_2
I1101 20:28:05.551743 34046 net.cpp:434] res2_2 <- pool1b_pool1b_0_split_1
I1101 20:28:05.551751 34046 net.cpp:434] res2_2 <- conv2_2
I1101 20:28:05.551759 34046 net.cpp:408] res2_2 -> res2_2
I1101 20:28:05.551790 34046 net.cpp:150] Setting up res2_2
I1101 20:28:05.551815 34046 net.cpp:157] Top shape: 64 64 54 54 (11943936)
I1101 20:28:05.551822 34046 net.cpp:165] Memory required for data: 1002233600
I1101 20:28:05.551829 34046 layer_factory.hpp:77] Creating layer conv2
I1101 20:28:05.551844 34046 net.cpp:100] Creating Layer conv2
I1101 20:28:05.551851 34046 net.cpp:434] conv2 <- res2_2
I1101 20:28:05.551862 34046 net.cpp:408] conv2 -> conv2
I1101 20:28:05.553720 34046 net.cpp:150] Setting up conv2
I1101 20:28:05.553745 34046 net.cpp:157] Top shape: 64 128 52 52 (22151168)
I1101 20:28:05.553755 34046 net.cpp:165] Memory required for data: 1090838272
I1101 20:28:05.553766 34046 layer_factory.hpp:77] Creating layer relu2
I1101 20:28:05.553777 34046 net.cpp:100] Creating Layer relu2
I1101 20:28:05.553786 34046 net.cpp:434] relu2 <- conv2
I1101 20:28:05.553798 34046 net.cpp:395] relu2 -> conv2 (in-place)
I1101 20:28:05.555315 34046 net.cpp:150] Setting up relu2
I1101 20:28:05.555338 34046 net.cpp:157] Top shape: 64 128 52 52 (22151168)
I1101 20:28:05.555346 34046 net.cpp:165] Memory required for data: 1179442944
I1101 20:28:05.555356 34046 layer_factory.hpp:77] Creating layer pool2
I1101 20:28:05.555368 34046 net.cpp:100] Creating Layer pool2
I1101 20:28:05.555377 34046 net.cpp:434] pool2 <- conv2
I1101 20:28:05.555385 34046 net.cpp:408] pool2 -> pool2
I1101 20:28:05.555428 34046 net.cpp:150] Setting up pool2
I1101 20:28:05.555439 34046 net.cpp:157] Top shape: 64 128 26 26 (5537792)
I1101 20:28:05.555445 34046 net.cpp:165] Memory required for data: 1201594112
I1101 20:28:05.555452 34046 layer_factory.hpp:77] Creating layer pool2_pool2_0_split
I1101 20:28:05.555464 34046 net.cpp:100] Creating Layer pool2_pool2_0_split
I1101 20:28:05.555470 34046 net.cpp:434] pool2_pool2_0_split <- pool2
I1101 20:28:05.555480 34046 net.cpp:408] pool2_pool2_0_split -> pool2_pool2_0_split_0
I1101 20:28:05.555490 34046 net.cpp:408] pool2_pool2_0_split -> pool2_pool2_0_split_1
I1101 20:28:05.555527 34046 net.cpp:150] Setting up pool2_pool2_0_split
I1101 20:28:05.555541 34046 net.cpp:157] Top shape: 64 128 26 26 (5537792)
I1101 20:28:05.555549 34046 net.cpp:157] Top shape: 64 128 26 26 (5537792)
I1101 20:28:05.555557 34046 net.cpp:165] Memory required for data: 1245896448
I1101 20:28:05.555563 34046 layer_factory.hpp:77] Creating layer conv3_1
I1101 20:28:05.555578 34046 net.cpp:100] Creating Layer conv3_1
I1101 20:28:05.555586 34046 net.cpp:434] conv3_1 <- pool2_pool2_0_split_0
I1101 20:28:05.555596 34046 net.cpp:408] conv3_1 -> conv3_1
I1101 20:28:05.562932 34046 net.cpp:150] Setting up conv3_1
I1101 20:28:05.562958 34046 net.cpp:157] Top shape: 64 128 26 26 (5537792)
I1101 20:28:05.562966 34046 net.cpp:165] Memory required for data: 1268047616
I1101 20:28:05.562983 34046 layer_factory.hpp:77] Creating layer relu3_1
I1101 20:28:05.562995 34046 net.cpp:100] Creating Layer relu3_1
I1101 20:28:05.563004 34046 net.cpp:434] relu3_1 <- conv3_1
I1101 20:28:05.563012 34046 net.cpp:395] relu3_1 -> conv3_1 (in-place)
I1101 20:28:05.563153 34046 net.cpp:150] Setting up relu3_1
I1101 20:28:05.563169 34046 net.cpp:157] Top shape: 64 128 26 26 (5537792)
I1101 20:28:05.563175 34046 net.cpp:165] Memory required for data: 1290198784
I1101 20:28:05.563184 34046 layer_factory.hpp:77] Creating layer conv3_2
I1101 20:28:05.563200 34046 net.cpp:100] Creating Layer conv3_2
I1101 20:28:05.563208 34046 net.cpp:434] conv3_2 <- conv3_1
I1101 20:28:05.563220 34046 net.cpp:408] conv3_2 -> conv3_2
I1101 20:28:05.570561 34046 net.cpp:150] Setting up conv3_2
I1101 20:28:05.570588 34046 net.cpp:157] Top shape: 64 128 26 26 (5537792)
I1101 20:28:05.570597 34046 net.cpp:165] Memory required for data: 1312349952
I1101 20:28:05.570608 34046 layer_factory.hpp:77] Creating layer relu3_2
I1101 20:28:05.570621 34046 net.cpp:100] Creating Layer relu3_2
I1101 20:28:05.570627 34046 net.cpp:434] relu3_2 <- conv3_2
I1101 20:28:05.570639 34046 net.cpp:395] relu3_2 -> conv3_2 (in-place)
I1101 20:28:05.570775 34046 net.cpp:150] Setting up relu3_2
I1101 20:28:05.570791 34046 net.cpp:157] Top shape: 64 128 26 26 (5537792)
I1101 20:28:05.570811 34046 net.cpp:165] Memory required for data: 1334501120
I1101 20:28:05.570819 34046 layer_factory.hpp:77] Creating layer res3_2
I1101 20:28:05.570830 34046 net.cpp:100] Creating Layer res3_2
I1101 20:28:05.570839 34046 net.cpp:434] res3_2 <- pool2_pool2_0_split_1
I1101 20:28:05.570848 34046 net.cpp:434] res3_2 <- conv3_2
I1101 20:28:05.570857 34046 net.cpp:408] res3_2 -> res3_2
I1101 20:28:05.570888 34046 net.cpp:150] Setting up res3_2
I1101 20:28:05.570901 34046 net.cpp:157] Top shape: 64 128 26 26 (5537792)
I1101 20:28:05.570907 34046 net.cpp:165] Memory required for data: 1356652288
I1101 20:28:05.570914 34046 layer_factory.hpp:77] Creating layer res3_2_res3_2_0_split
I1101 20:28:05.570924 34046 net.cpp:100] Creating Layer res3_2_res3_2_0_split
I1101 20:28:05.570931 34046 net.cpp:434] res3_2_res3_2_0_split <- res3_2
I1101 20:28:05.570940 34046 net.cpp:408] res3_2_res3_2_0_split -> res3_2_res3_2_0_split_0
I1101 20:28:05.570950 34046 net.cpp:408] res3_2_res3_2_0_split -> res3_2_res3_2_0_split_1
I1101 20:28:05.570986 34046 net.cpp:150] Setting up res3_2_res3_2_0_split
I1101 20:28:05.570999 34046 net.cpp:157] Top shape: 64 128 26 26 (5537792)
I1101 20:28:05.571007 34046 net.cpp:157] Top shape: 64 128 26 26 (5537792)
I1101 20:28:05.571014 34046 net.cpp:165] Memory required for data: 1400954624
I1101 20:28:05.571022 34046 layer_factory.hpp:77] Creating layer conv3_3
I1101 20:28:05.571036 34046 net.cpp:100] Creating Layer conv3_3
I1101 20:28:05.571044 34046 net.cpp:434] conv3_3 <- res3_2_res3_2_0_split_0
I1101 20:28:05.571055 34046 net.cpp:408] conv3_3 -> conv3_3
I1101 20:28:05.576344 34046 net.cpp:150] Setting up conv3_3
I1101 20:28:05.576370 34046 net.cpp:157] Top shape: 64 128 26 26 (5537792)
I1101 20:28:05.576377 34046 net.cpp:165] Memory required for data: 1423105792
I1101 20:28:05.576391 34046 layer_factory.hpp:77] Creating layer relu3_3
I1101 20:28:05.576402 34046 net.cpp:100] Creating Layer relu3_3
I1101 20:28:05.576411 34046 net.cpp:434] relu3_3 <- conv3_3
I1101 20:28:05.576421 34046 net.cpp:395] relu3_3 -> conv3_3 (in-place)
I1101 20:28:05.576555 34046 net.cpp:150] Setting up relu3_3
I1101 20:28:05.576570 34046 net.cpp:157] Top shape: 64 128 26 26 (5537792)
I1101 20:28:05.576577 34046 net.cpp:165] Memory required for data: 1445256960
I1101 20:28:05.576586 34046 layer_factory.hpp:77] Creating layer conv3_4
I1101 20:28:05.576611 34046 net.cpp:100] Creating Layer conv3_4
I1101 20:28:05.576619 34046 net.cpp:434] conv3_4 <- conv3_3
I1101 20:28:05.576628 34046 net.cpp:408] conv3_4 -> conv3_4
I1101 20:28:05.585332 34046 net.cpp:150] Setting up conv3_4
I1101 20:28:05.585360 34046 net.cpp:157] Top shape: 64 128 26 26 (5537792)
I1101 20:28:05.585368 34046 net.cpp:165] Memory required for data: 1467408128
I1101 20:28:05.585379 34046 layer_factory.hpp:77] Creating layer relu3_4
I1101 20:28:05.585391 34046 net.cpp:100] Creating Layer relu3_4
I1101 20:28:05.585397 34046 net.cpp:434] relu3_4 <- conv3_4
I1101 20:28:05.585407 34046 net.cpp:395] relu3_4 -> conv3_4 (in-place)
I1101 20:28:05.585544 34046 net.cpp:150] Setting up relu3_4
I1101 20:28:05.585559 34046 net.cpp:157] Top shape: 64 128 26 26 (5537792)
I1101 20:28:05.585567 34046 net.cpp:165] Memory required for data: 1489559296
I1101 20:28:05.585575 34046 layer_factory.hpp:77] Creating layer res3_4
I1101 20:28:05.585587 34046 net.cpp:100] Creating Layer res3_4
I1101 20:28:05.585595 34046 net.cpp:434] res3_4 <- res3_2_res3_2_0_split_1
I1101 20:28:05.585603 34046 net.cpp:434] res3_4 <- conv3_4
I1101 20:28:05.585611 34046 net.cpp:408] res3_4 -> res3_4
I1101 20:28:05.585647 34046 net.cpp:150] Setting up res3_4
I1101 20:28:05.585660 34046 net.cpp:157] Top shape: 64 128 26 26 (5537792)
I1101 20:28:05.585666 34046 net.cpp:165] Memory required for data: 1511710464
I1101 20:28:05.585675 34046 layer_factory.hpp:77] Creating layer conv3
I1101 20:28:05.585687 34046 net.cpp:100] Creating Layer conv3
I1101 20:28:05.585695 34046 net.cpp:434] conv3 <- res3_4
I1101 20:28:05.585705 34046 net.cpp:408] conv3 -> conv3
I1101 20:28:05.589893 34046 net.cpp:150] Setting up conv3
I1101 20:28:05.589931 34046 net.cpp:157] Top shape: 64 256 24 24 (9437184)
I1101 20:28:05.589941 34046 net.cpp:165] Memory required for data: 1549459200
I1101 20:28:05.589951 34046 layer_factory.hpp:77] Creating layer relu3
I1101 20:28:05.589962 34046 net.cpp:100] Creating Layer relu3
I1101 20:28:05.589970 34046 net.cpp:434] relu3 <- conv3
I1101 20:28:05.589979 34046 net.cpp:395] relu3 -> conv3 (in-place)
I1101 20:28:05.590142 34046 net.cpp:150] Setting up relu3
I1101 20:28:05.590158 34046 net.cpp:157] Top shape: 64 256 24 24 (9437184)
I1101 20:28:05.590165 34046 net.cpp:165] Memory required for data: 1587207936
I1101 20:28:05.590173 34046 layer_factory.hpp:77] Creating layer pool3
I1101 20:28:05.590184 34046 net.cpp:100] Creating Layer pool3
I1101 20:28:05.590191 34046 net.cpp:434] pool3 <- conv3
I1101 20:28:05.590201 34046 net.cpp:408] pool3 -> pool3
I1101 20:28:05.590242 34046 net.cpp:150] Setting up pool3
I1101 20:28:05.590255 34046 net.cpp:157] Top shape: 64 256 12 12 (2359296)
I1101 20:28:05.590263 34046 net.cpp:165] Memory required for data: 1596645120
I1101 20:28:05.590273 34046 layer_factory.hpp:77] Creating layer pool3_pool3_0_split
I1101 20:28:05.590282 34046 net.cpp:100] Creating Layer pool3_pool3_0_split
I1101 20:28:05.590289 34046 net.cpp:434] pool3_pool3_0_split <- pool3
I1101 20:28:05.590298 34046 net.cpp:408] pool3_pool3_0_split -> pool3_pool3_0_split_0
I1101 20:28:05.590309 34046 net.cpp:408] pool3_pool3_0_split -> pool3_pool3_0_split_1
I1101 20:28:05.590346 34046 net.cpp:150] Setting up pool3_pool3_0_split
I1101 20:28:05.590358 34046 net.cpp:157] Top shape: 64 256 12 12 (2359296)
I1101 20:28:05.590373 34046 net.cpp:157] Top shape: 64 256 12 12 (2359296)
I1101 20:28:05.590379 34046 net.cpp:165] Memory required for data: 1615519488
I1101 20:28:05.590386 34046 layer_factory.hpp:77] Creating layer conv4_1
I1101 20:28:05.590401 34046 net.cpp:100] Creating Layer conv4_1
I1101 20:28:05.590409 34046 net.cpp:434] conv4_1 <- pool3_pool3_0_split_0
I1101 20:28:05.590420 34046 net.cpp:408] conv4_1 -> conv4_1
I1101 20:28:05.609288 34046 net.cpp:150] Setting up conv4_1
I1101 20:28:05.609316 34046 net.cpp:157] Top shape: 64 256 12 12 (2359296)
I1101 20:28:05.609324 34046 net.cpp:165] Memory required for data: 1624956672
I1101 20:28:05.609335 34046 layer_factory.hpp:77] Creating layer relu4_1
I1101 20:28:05.609349 34046 net.cpp:100] Creating Layer relu4_1
I1101 20:28:05.609357 34046 net.cpp:434] relu4_1 <- conv4_1
I1101 20:28:05.609366 34046 net.cpp:395] relu4_1 -> conv4_1 (in-place)
I1101 20:28:05.609483 34046 net.cpp:150] Setting up relu4_1
I1101 20:28:05.609498 34046 net.cpp:157] Top shape: 64 256 12 12 (2359296)
I1101 20:28:05.609505 34046 net.cpp:165] Memory required for data: 1634393856
I1101 20:28:05.609519 34046 layer_factory.hpp:77] Creating layer conv4_2
I1101 20:28:05.609535 34046 net.cpp:100] Creating Layer conv4_2
I1101 20:28:05.609544 34046 net.cpp:434] conv4_2 <- conv4_1
I1101 20:28:05.609555 34046 net.cpp:408] conv4_2 -> conv4_2
I1101 20:28:05.628490 34046 net.cpp:150] Setting up conv4_2
I1101 20:28:05.628518 34046 net.cpp:157] Top shape: 64 256 12 12 (2359296)
I1101 20:28:05.628526 34046 net.cpp:165] Memory required for data: 1643831040
I1101 20:28:05.628537 34046 layer_factory.hpp:77] Creating layer relu4_2
I1101 20:28:05.628549 34046 net.cpp:100] Creating Layer relu4_2
I1101 20:28:05.628557 34046 net.cpp:434] relu4_2 <- conv4_2
I1101 20:28:05.628566 34046 net.cpp:395] relu4_2 -> conv4_2 (in-place)
I1101 20:28:05.628689 34046 net.cpp:150] Setting up relu4_2
I1101 20:28:05.628703 34046 net.cpp:157] Top shape: 64 256 12 12 (2359296)
I1101 20:28:05.628710 34046 net.cpp:165] Memory required for data: 1653268224
I1101 20:28:05.628720 34046 layer_factory.hpp:77] Creating layer res4_2
I1101 20:28:05.628732 34046 net.cpp:100] Creating Layer res4_2
I1101 20:28:05.628741 34046 net.cpp:434] res4_2 <- pool3_pool3_0_split_1
I1101 20:28:05.628751 34046 net.cpp:434] res4_2 <- conv4_2
I1101 20:28:05.628760 34046 net.cpp:408] res4_2 -> res4_2
I1101 20:28:05.628790 34046 net.cpp:150] Setting up res4_2
I1101 20:28:05.628818 34046 net.cpp:157] Top shape: 64 256 12 12 (2359296)
I1101 20:28:05.628824 34046 net.cpp:165] Memory required for data: 1662705408
I1101 20:28:05.628832 34046 layer_factory.hpp:77] Creating layer res4_2_res4_2_0_split
I1101 20:28:05.628841 34046 net.cpp:100] Creating Layer res4_2_res4_2_0_split
I1101 20:28:05.628849 34046 net.cpp:434] res4_2_res4_2_0_split <- res4_2
I1101 20:28:05.628859 34046 net.cpp:408] res4_2_res4_2_0_split -> res4_2_res4_2_0_split_0
I1101 20:28:05.628871 34046 net.cpp:408] res4_2_res4_2_0_split -> res4_2_res4_2_0_split_1
I1101 20:28:05.628911 34046 net.cpp:150] Setting up res4_2_res4_2_0_split
I1101 20:28:05.628926 34046 net.cpp:157] Top shape: 64 256 12 12 (2359296)
I1101 20:28:05.628932 34046 net.cpp:157] Top shape: 64 256 12 12 (2359296)
I1101 20:28:05.628940 34046 net.cpp:165] Memory required for data: 1681579776
I1101 20:28:05.628948 34046 layer_factory.hpp:77] Creating layer conv4_3
I1101 20:28:05.628962 34046 net.cpp:100] Creating Layer conv4_3
I1101 20:28:05.628970 34046 net.cpp:434] conv4_3 <- res4_2_res4_2_0_split_0
I1101 20:28:05.628980 34046 net.cpp:408] conv4_3 -> conv4_3
I1101 20:28:05.647922 34046 net.cpp:150] Setting up conv4_3
I1101 20:28:05.647949 34046 net.cpp:157] Top shape: 64 256 12 12 (2359296)
I1101 20:28:05.647958 34046 net.cpp:165] Memory required for data: 1691016960
I1101 20:28:05.647969 34046 layer_factory.hpp:77] Creating layer relu4_3
I1101 20:28:05.647981 34046 net.cpp:100] Creating Layer relu4_3
I1101 20:28:05.647989 34046 net.cpp:434] relu4_3 <- conv4_3
I1101 20:28:05.647999 34046 net.cpp:395] relu4_3 -> conv4_3 (in-place)
I1101 20:28:05.648119 34046 net.cpp:150] Setting up relu4_3
I1101 20:28:05.648133 34046 net.cpp:157] Top shape: 64 256 12 12 (2359296)
I1101 20:28:05.648139 34046 net.cpp:165] Memory required for data: 1700454144
I1101 20:28:05.648149 34046 layer_factory.hpp:77] Creating layer conv4_4
I1101 20:28:05.648165 34046 net.cpp:100] Creating Layer conv4_4
I1101 20:28:05.648174 34046 net.cpp:434] conv4_4 <- conv4_3
I1101 20:28:05.648185 34046 net.cpp:408] conv4_4 -> conv4_4
I1101 20:28:05.667171 34046 net.cpp:150] Setting up conv4_4
I1101 20:28:05.667199 34046 net.cpp:157] Top shape: 64 256 12 12 (2359296)
I1101 20:28:05.667207 34046 net.cpp:165] Memory required for data: 1709891328
I1101 20:28:05.667218 34046 layer_factory.hpp:77] Creating layer relu4_4
I1101 20:28:05.667230 34046 net.cpp:100] Creating Layer relu4_4
I1101 20:28:05.667238 34046 net.cpp:434] relu4_4 <- conv4_4
I1101 20:28:05.667248 34046 net.cpp:395] relu4_4 -> conv4_4 (in-place)
I1101 20:28:05.667373 34046 net.cpp:150] Setting up relu4_4
I1101 20:28:05.667388 34046 net.cpp:157] Top shape: 64 256 12 12 (2359296)
I1101 20:28:05.667395 34046 net.cpp:165] Memory required for data: 1719328512
I1101 20:28:05.667407 34046 layer_factory.hpp:77] Creating layer res4_4
I1101 20:28:05.667418 34046 net.cpp:100] Creating Layer res4_4
I1101 20:28:05.667425 34046 net.cpp:434] res4_4 <- res4_2_res4_2_0_split_1
I1101 20:28:05.667435 34046 net.cpp:434] res4_4 <- conv4_4
I1101 20:28:05.667444 34046 net.cpp:408] res4_4 -> res4_4
I1101 20:28:05.667474 34046 net.cpp:150] Setting up res4_4
I1101 20:28:05.667487 34046 net.cpp:157] Top shape: 64 256 12 12 (2359296)
I1101 20:28:05.667493 34046 net.cpp:165] Memory required for data: 1728765696
I1101 20:28:05.667501 34046 layer_factory.hpp:77] Creating layer res4_4_res4_4_0_split
I1101 20:28:05.667511 34046 net.cpp:100] Creating Layer res4_4_res4_4_0_split
I1101 20:28:05.667518 34046 net.cpp:434] res4_4_res4_4_0_split <- res4_4
I1101 20:28:05.667526 34046 net.cpp:408] res4_4_res4_4_0_split -> res4_4_res4_4_0_split_0
I1101 20:28:05.667548 34046 net.cpp:408] res4_4_res4_4_0_split -> res4_4_res4_4_0_split_1
I1101 20:28:05.667587 34046 net.cpp:150] Setting up res4_4_res4_4_0_split
I1101 20:28:05.667598 34046 net.cpp:157] Top shape: 64 256 12 12 (2359296)
I1101 20:28:05.667604 34046 net.cpp:157] Top shape: 64 256 12 12 (2359296)
I1101 20:28:05.667611 34046 net.cpp:165] Memory required for data: 1747640064
I1101 20:28:05.667618 34046 layer_factory.hpp:77] Creating layer conv4_5
I1101 20:28:05.667646 34046 net.cpp:100] Creating Layer conv4_5
I1101 20:28:05.667656 34046 net.cpp:434] conv4_5 <- res4_4_res4_4_0_split_0
I1101 20:28:05.667666 34046 net.cpp:408] conv4_5 -> conv4_5
I1101 20:28:05.686617 34046 net.cpp:150] Setting up conv4_5
I1101 20:28:05.686645 34046 net.cpp:157] Top shape: 64 256 12 12 (2359296)
I1101 20:28:05.686655 34046 net.cpp:165] Memory required for data: 1757077248
I1101 20:28:05.686668 34046 layer_factory.hpp:77] Creating layer relu4_5
I1101 20:28:05.686681 34046 net.cpp:100] Creating Layer relu4_5
I1101 20:28:05.686688 34046 net.cpp:434] relu4_5 <- conv4_5
I1101 20:28:05.686697 34046 net.cpp:395] relu4_5 -> conv4_5 (in-place)
I1101 20:28:05.686827 34046 net.cpp:150] Setting up relu4_5
I1101 20:28:05.686841 34046 net.cpp:157] Top shape: 64 256 12 12 (2359296)
I1101 20:28:05.686849 34046 net.cpp:165] Memory required for data: 1766514432
I1101 20:28:05.686857 34046 layer_factory.hpp:77] Creating layer conv4_6
I1101 20:28:05.686872 34046 net.cpp:100] Creating Layer conv4_6
I1101 20:28:05.686879 34046 net.cpp:434] conv4_6 <- conv4_5
I1101 20:28:05.686890 34046 net.cpp:408] conv4_6 -> conv4_6
I1101 20:28:05.705873 34046 net.cpp:150] Setting up conv4_6
I1101 20:28:05.705899 34046 net.cpp:157] Top shape: 64 256 12 12 (2359296)
I1101 20:28:05.705907 34046 net.cpp:165] Memory required for data: 1775951616
I1101 20:28:05.705919 34046 layer_factory.hpp:77] Creating layer relu4_6
I1101 20:28:05.705932 34046 net.cpp:100] Creating Layer relu4_6
I1101 20:28:05.705940 34046 net.cpp:434] relu4_6 <- conv4_6
I1101 20:28:05.705950 34046 net.cpp:395] relu4_6 -> conv4_6 (in-place)
I1101 20:28:05.706080 34046 net.cpp:150] Setting up relu4_6
I1101 20:28:05.706095 34046 net.cpp:157] Top shape: 64 256 12 12 (2359296)
I1101 20:28:05.706102 34046 net.cpp:165] Memory required for data: 1785388800
I1101 20:28:05.706111 34046 layer_factory.hpp:77] Creating layer res4_6
I1101 20:28:05.706121 34046 net.cpp:100] Creating Layer res4_6
I1101 20:28:05.706130 34046 net.cpp:434] res4_6 <- res4_4_res4_4_0_split_1
I1101 20:28:05.706138 34046 net.cpp:434] res4_6 <- conv4_6
I1101 20:28:05.706147 34046 net.cpp:408] res4_6 -> res4_6
I1101 20:28:05.706178 34046 net.cpp:150] Setting up res4_6
I1101 20:28:05.706192 34046 net.cpp:157] Top shape: 64 256 12 12 (2359296)
I1101 20:28:05.706198 34046 net.cpp:165] Memory required for data: 1794825984
I1101 20:28:05.706207 34046 layer_factory.hpp:77] Creating layer res4_6_res4_6_0_split
I1101 20:28:05.706218 34046 net.cpp:100] Creating Layer res4_6_res4_6_0_split
I1101 20:28:05.706225 34046 net.cpp:434] res4_6_res4_6_0_split <- res4_6
I1101 20:28:05.706234 34046 net.cpp:408] res4_6_res4_6_0_split -> res4_6_res4_6_0_split_0
I1101 20:28:05.706244 34046 net.cpp:408] res4_6_res4_6_0_split -> res4_6_res4_6_0_split_1
I1101 20:28:05.706285 34046 net.cpp:150] Setting up res4_6_res4_6_0_split
I1101 20:28:05.706297 34046 net.cpp:157] Top shape: 64 256 12 12 (2359296)
I1101 20:28:05.706305 34046 net.cpp:157] Top shape: 64 256 12 12 (2359296)
I1101 20:28:05.706311 34046 net.cpp:165] Memory required for data: 1813700352
I1101 20:28:05.706318 34046 layer_factory.hpp:77] Creating layer conv4_7
I1101 20:28:05.706332 34046 net.cpp:100] Creating Layer conv4_7
I1101 20:28:05.706341 34046 net.cpp:434] conv4_7 <- res4_6_res4_6_0_split_0
I1101 20:28:05.706352 34046 net.cpp:408] conv4_7 -> conv4_7
I1101 20:28:05.725347 34046 net.cpp:150] Setting up conv4_7
I1101 20:28:05.725375 34046 net.cpp:157] Top shape: 64 256 12 12 (2359296)
I1101 20:28:05.725383 34046 net.cpp:165] Memory required for data: 1823137536
I1101 20:28:05.725394 34046 layer_factory.hpp:77] Creating layer relu4_7
I1101 20:28:05.725409 34046 net.cpp:100] Creating Layer relu4_7
I1101 20:28:05.725417 34046 net.cpp:434] relu4_7 <- conv4_7
I1101 20:28:05.725427 34046 net.cpp:395] relu4_7 -> conv4_7 (in-place)
I1101 20:28:05.725560 34046 net.cpp:150] Setting up relu4_7
I1101 20:28:05.725575 34046 net.cpp:157] Top shape: 64 256 12 12 (2359296)
I1101 20:28:05.725582 34046 net.cpp:165] Memory required for data: 1832574720
I1101 20:28:05.725605 34046 layer_factory.hpp:77] Creating layer conv4_8
I1101 20:28:05.725626 34046 net.cpp:100] Creating Layer conv4_8
I1101 20:28:05.725634 34046 net.cpp:434] conv4_8 <- conv4_7
I1101 20:28:05.725652 34046 net.cpp:408] conv4_8 -> conv4_8
I1101 20:28:05.743868 34046 net.cpp:150] Setting up conv4_8
I1101 20:28:05.743896 34046 net.cpp:157] Top shape: 64 256 12 12 (2359296)
I1101 20:28:05.743904 34046 net.cpp:165] Memory required for data: 1842011904
I1101 20:28:05.743916 34046 layer_factory.hpp:77] Creating layer relu4_8
I1101 20:28:05.743927 34046 net.cpp:100] Creating Layer relu4_8
I1101 20:28:05.743935 34046 net.cpp:434] relu4_8 <- conv4_8
I1101 20:28:05.743944 34046 net.cpp:395] relu4_8 -> conv4_8 (in-place)
I1101 20:28:05.744076 34046 net.cpp:150] Setting up relu4_8
I1101 20:28:05.744091 34046 net.cpp:157] Top shape: 64 256 12 12 (2359296)
I1101 20:28:05.744098 34046 net.cpp:165] Memory required for data: 1851449088
I1101 20:28:05.744107 34046 layer_factory.hpp:77] Creating layer res4_8
I1101 20:28:05.744119 34046 net.cpp:100] Creating Layer res4_8
I1101 20:28:05.744128 34046 net.cpp:434] res4_8 <- res4_6_res4_6_0_split_1
I1101 20:28:05.744138 34046 net.cpp:434] res4_8 <- conv4_8
I1101 20:28:05.744148 34046 net.cpp:408] res4_8 -> res4_8
I1101 20:28:05.744179 34046 net.cpp:150] Setting up res4_8
I1101 20:28:05.744192 34046 net.cpp:157] Top shape: 64 256 12 12 (2359296)
I1101 20:28:05.744199 34046 net.cpp:165] Memory required for data: 1860886272
I1101 20:28:05.744207 34046 layer_factory.hpp:77] Creating layer res4_8_res4_8_0_split
I1101 20:28:05.744217 34046 net.cpp:100] Creating Layer res4_8_res4_8_0_split
I1101 20:28:05.744225 34046 net.cpp:434] res4_8_res4_8_0_split <- res4_8
I1101 20:28:05.744233 34046 net.cpp:408] res4_8_res4_8_0_split -> res4_8_res4_8_0_split_0
I1101 20:28:05.744244 34046 net.cpp:408] res4_8_res4_8_0_split -> res4_8_res4_8_0_split_1
I1101 20:28:05.744285 34046 net.cpp:150] Setting up res4_8_res4_8_0_split
I1101 20:28:05.744298 34046 net.cpp:157] Top shape: 64 256 12 12 (2359296)
I1101 20:28:05.744307 34046 net.cpp:157] Top shape: 64 256 12 12 (2359296)
I1101 20:28:05.744314 34046 net.cpp:165] Memory required for data: 1879760640
I1101 20:28:05.744323 34046 layer_factory.hpp:77] Creating layer conv4_9
I1101 20:28:05.744336 34046 net.cpp:100] Creating Layer conv4_9
I1101 20:28:05.744344 34046 net.cpp:434] conv4_9 <- res4_8_res4_8_0_split_0
I1101 20:28:05.744355 34046 net.cpp:408] conv4_9 -> conv4_9
I1101 20:28:05.763367 34046 net.cpp:150] Setting up conv4_9
I1101 20:28:05.763394 34046 net.cpp:157] Top shape: 64 256 12 12 (2359296)
I1101 20:28:05.763402 34046 net.cpp:165] Memory required for data: 1889197824
I1101 20:28:05.763413 34046 layer_factory.hpp:77] Creating layer relu4_9
I1101 20:28:05.763425 34046 net.cpp:100] Creating Layer relu4_9
I1101 20:28:05.763433 34046 net.cpp:434] relu4_9 <- conv4_9
I1101 20:28:05.763443 34046 net.cpp:395] relu4_9 -> conv4_9 (in-place)
I1101 20:28:05.763576 34046 net.cpp:150] Setting up relu4_9
I1101 20:28:05.763592 34046 net.cpp:157] Top shape: 64 256 12 12 (2359296)
I1101 20:28:05.763598 34046 net.cpp:165] Memory required for data: 1898635008
I1101 20:28:05.763607 34046 layer_factory.hpp:77] Creating layer conv4_10
I1101 20:28:05.763624 34046 net.cpp:100] Creating Layer conv4_10
I1101 20:28:05.763634 34046 net.cpp:434] conv4_10 <- conv4_9
I1101 20:28:05.763645 34046 net.cpp:408] conv4_10 -> conv4_10
I1101 20:28:05.783485 34046 net.cpp:150] Setting up conv4_10
I1101 20:28:05.783512 34046 net.cpp:157] Top shape: 64 256 12 12 (2359296)
I1101 20:28:05.783520 34046 net.cpp:165] Memory required for data: 1908072192
I1101 20:28:05.783532 34046 layer_factory.hpp:77] Creating layer relu4_10
I1101 20:28:05.783546 34046 net.cpp:100] Creating Layer relu4_10
I1101 20:28:05.783555 34046 net.cpp:434] relu4_10 <- conv4_10
I1101 20:28:05.783563 34046 net.cpp:395] relu4_10 -> conv4_10 (in-place)
I1101 20:28:05.783700 34046 net.cpp:150] Setting up relu4_10
I1101 20:28:05.783716 34046 net.cpp:157] Top shape: 64 256 12 12 (2359296)
I1101 20:28:05.783723 34046 net.cpp:165] Memory required for data: 1917509376
I1101 20:28:05.783745 34046 layer_factory.hpp:77] Creating layer res4_10
I1101 20:28:05.783758 34046 net.cpp:100] Creating Layer res4_10
I1101 20:28:05.783766 34046 net.cpp:434] res4_10 <- res4_8_res4_8_0_split_1
I1101 20:28:05.783774 34046 net.cpp:434] res4_10 <- conv4_10
I1101 20:28:05.783784 34046 net.cpp:408] res4_10 -> res4_10
I1101 20:28:05.783818 34046 net.cpp:150] Setting up res4_10
I1101 20:28:05.783829 34046 net.cpp:157] Top shape: 64 256 12 12 (2359296)
I1101 20:28:05.783835 34046 net.cpp:165] Memory required for data: 1926946560
I1101 20:28:05.783843 34046 layer_factory.hpp:77] Creating layer conv4
I1101 20:28:05.783856 34046 net.cpp:100] Creating Layer conv4
I1101 20:28:05.783864 34046 net.cpp:434] conv4 <- res4_10
I1101 20:28:05.783875 34046 net.cpp:408] conv4 -> conv4
I1101 20:28:05.794308 34046 net.cpp:150] Setting up conv4
I1101 20:28:05.794337 34046 net.cpp:157] Top shape: 64 512 10 10 (3276800)
I1101 20:28:05.794344 34046 net.cpp:165] Memory required for data: 1940053760
I1101 20:28:05.794356 34046 layer_factory.hpp:77] Creating layer relu4
I1101 20:28:05.794368 34046 net.cpp:100] Creating Layer relu4
I1101 20:28:05.794376 34046 net.cpp:434] relu4 <- conv4
I1101 20:28:05.794386 34046 net.cpp:395] relu4 -> conv4 (in-place)
I1101 20:28:05.794543 34046 net.cpp:150] Setting up relu4
I1101 20:28:05.794559 34046 net.cpp:157] Top shape: 64 512 10 10 (3276800)
I1101 20:28:05.794566 34046 net.cpp:165] Memory required for data: 1953160960
I1101 20:28:05.794577 34046 layer_factory.hpp:77] Creating layer pool4
I1101 20:28:05.794589 34046 net.cpp:100] Creating Layer pool4
I1101 20:28:05.794597 34046 net.cpp:434] pool4 <- conv4
I1101 20:28:05.794606 34046 net.cpp:408] pool4 -> pool4
I1101 20:28:05.794656 34046 net.cpp:150] Setting up pool4
I1101 20:28:05.794668 34046 net.cpp:157] Top shape: 64 512 5 5 (819200)
I1101 20:28:05.794675 34046 net.cpp:165] Memory required for data: 1956437760
I1101 20:28:05.794682 34046 layer_factory.hpp:77] Creating layer pool4_pool4_0_split
I1101 20:28:05.794699 34046 net.cpp:100] Creating Layer pool4_pool4_0_split
I1101 20:28:05.794708 34046 net.cpp:434] pool4_pool4_0_split <- pool4
I1101 20:28:05.794718 34046 net.cpp:408] pool4_pool4_0_split -> pool4_pool4_0_split_0
I1101 20:28:05.794728 34046 net.cpp:408] pool4_pool4_0_split -> pool4_pool4_0_split_1
I1101 20:28:05.794771 34046 net.cpp:150] Setting up pool4_pool4_0_split
I1101 20:28:05.794783 34046 net.cpp:157] Top shape: 64 512 5 5 (819200)
I1101 20:28:05.794791 34046 net.cpp:157] Top shape: 64 512 5 5 (819200)
I1101 20:28:05.794797 34046 net.cpp:165] Memory required for data: 1962991360
I1101 20:28:05.794806 34046 layer_factory.hpp:77] Creating layer conv5_1
I1101 20:28:05.794822 34046 net.cpp:100] Creating Layer conv5_1
I1101 20:28:05.794831 34046 net.cpp:434] conv5_1 <- pool4_pool4_0_split_0
I1101 20:28:05.794842 34046 net.cpp:408] conv5_1 -> conv5_1
I1101 20:28:05.862334 34046 net.cpp:150] Setting up conv5_1
I1101 20:28:05.862365 34046 net.cpp:157] Top shape: 64 512 5 5 (819200)
I1101 20:28:05.862373 34046 net.cpp:165] Memory required for data: 1966268160
I1101 20:28:05.862397 34046 layer_factory.hpp:77] Creating layer relu5_1
I1101 20:28:05.862412 34046 net.cpp:100] Creating Layer relu5_1
I1101 20:28:05.862421 34046 net.cpp:434] relu5_1 <- conv5_1
I1101 20:28:05.862431 34046 net.cpp:395] relu5_1 -> conv5_1 (in-place)
I1101 20:28:05.862562 34046 net.cpp:150] Setting up relu5_1
I1101 20:28:05.862577 34046 net.cpp:157] Top shape: 64 512 5 5 (819200)
I1101 20:28:05.862586 34046 net.cpp:165] Memory required for data: 1969544960
I1101 20:28:05.862593 34046 layer_factory.hpp:77] Creating layer conv5_2
I1101 20:28:05.862610 34046 net.cpp:100] Creating Layer conv5_2
I1101 20:28:05.862619 34046 net.cpp:434] conv5_2 <- conv5_1
I1101 20:28:05.862630 34046 net.cpp:408] conv5_2 -> conv5_2
I1101 20:28:05.929306 34046 net.cpp:150] Setting up conv5_2
I1101 20:28:05.929334 34046 net.cpp:157] Top shape: 64 512 5 5 (819200)
I1101 20:28:05.929343 34046 net.cpp:165] Memory required for data: 1972821760
I1101 20:28:05.929384 34046 layer_factory.hpp:77] Creating layer relu5_2
I1101 20:28:05.929399 34046 net.cpp:100] Creating Layer relu5_2
I1101 20:28:05.929406 34046 net.cpp:434] relu5_2 <- conv5_2
I1101 20:28:05.929415 34046 net.cpp:395] relu5_2 -> conv5_2 (in-place)
I1101 20:28:05.929536 34046 net.cpp:150] Setting up relu5_2
I1101 20:28:05.929551 34046 net.cpp:157] Top shape: 64 512 5 5 (819200)
I1101 20:28:05.929558 34046 net.cpp:165] Memory required for data: 1976098560
I1101 20:28:05.929566 34046 layer_factory.hpp:77] Creating layer res5_2
I1101 20:28:05.929577 34046 net.cpp:100] Creating Layer res5_2
I1101 20:28:05.929584 34046 net.cpp:434] res5_2 <- pool4_pool4_0_split_1
I1101 20:28:05.929594 34046 net.cpp:434] res5_2 <- conv5_2
I1101 20:28:05.929602 34046 net.cpp:408] res5_2 -> res5_2
I1101 20:28:05.929653 34046 net.cpp:150] Setting up res5_2
I1101 20:28:05.929667 34046 net.cpp:157] Top shape: 64 512 5 5 (819200)
I1101 20:28:05.929674 34046 net.cpp:165] Memory required for data: 1979375360
I1101 20:28:05.929683 34046 layer_factory.hpp:77] Creating layer res5_2_res5_2_0_split
I1101 20:28:05.929694 34046 net.cpp:100] Creating Layer res5_2_res5_2_0_split
I1101 20:28:05.929702 34046 net.cpp:434] res5_2_res5_2_0_split <- res5_2
I1101 20:28:05.929711 34046 net.cpp:408] res5_2_res5_2_0_split -> res5_2_res5_2_0_split_0
I1101 20:28:05.929723 34046 net.cpp:408] res5_2_res5_2_0_split -> res5_2_res5_2_0_split_1
I1101 20:28:05.929769 34046 net.cpp:150] Setting up res5_2_res5_2_0_split
I1101 20:28:05.929781 34046 net.cpp:157] Top shape: 64 512 5 5 (819200)
I1101 20:28:05.929788 34046 net.cpp:157] Top shape: 64 512 5 5 (819200)
I1101 20:28:05.929795 34046 net.cpp:165] Memory required for data: 1985928960
I1101 20:28:05.929806 34046 layer_factory.hpp:77] Creating layer conv5_3
I1101 20:28:05.929822 34046 net.cpp:100] Creating Layer conv5_3
I1101 20:28:05.929831 34046 net.cpp:434] conv5_3 <- res5_2_res5_2_0_split_0
I1101 20:28:05.929841 34046 net.cpp:408] conv5_3 -> conv5_3
I1101 20:28:05.982511 34046 net.cpp:150] Setting up conv5_3
I1101 20:28:05.982547 34046 net.cpp:157] Top shape: 64 512 5 5 (819200)
I1101 20:28:05.982554 34046 net.cpp:165] Memory required for data: 1989205760
I1101 20:28:05.982563 34046 layer_factory.hpp:77] Creating layer relu5_3
I1101 20:28:05.982573 34046 net.cpp:100] Creating Layer relu5_3
I1101 20:28:05.982578 34046 net.cpp:434] relu5_3 <- conv5_3
I1101 20:28:05.982585 34046 net.cpp:395] relu5_3 -> conv5_3 (in-place)
I1101 20:28:05.982681 34046 net.cpp:150] Setting up relu5_3
I1101 20:28:05.982693 34046 net.cpp:157] Top shape: 64 512 5 5 (819200)
I1101 20:28:05.982699 34046 net.cpp:165] Memory required for data: 1992482560
I1101 20:28:05.982705 34046 layer_factory.hpp:77] Creating layer conv5_4
I1101 20:28:05.982718 34046 net.cpp:100] Creating Layer conv5_4
I1101 20:28:05.982724 34046 net.cpp:434] conv5_4 <- conv5_3
I1101 20:28:05.982733 34046 net.cpp:408] conv5_4 -> conv5_4
I1101 20:28:06.033402 34046 net.cpp:150] Setting up conv5_4
I1101 20:28:06.033442 34046 net.cpp:157] Top shape: 64 512 5 5 (819200)
I1101 20:28:06.033448 34046 net.cpp:165] Memory required for data: 1995759360
I1101 20:28:06.033457 34046 layer_factory.hpp:77] Creating layer relu5_4
I1101 20:28:06.033468 34046 net.cpp:100] Creating Layer relu5_4
I1101 20:28:06.033474 34046 net.cpp:434] relu5_4 <- conv5_4
I1101 20:28:06.033481 34046 net.cpp:395] relu5_4 -> conv5_4 (in-place)
I1101 20:28:06.033579 34046 net.cpp:150] Setting up relu5_4
I1101 20:28:06.033591 34046 net.cpp:157] Top shape: 64 512 5 5 (819200)
I1101 20:28:06.033597 34046 net.cpp:165] Memory required for data: 1999036160
I1101 20:28:06.033604 34046 layer_factory.hpp:77] Creating layer res5_4
I1101 20:28:06.033614 34046 net.cpp:100] Creating Layer res5_4
I1101 20:28:06.033619 34046 net.cpp:434] res5_4 <- res5_2_res5_2_0_split_1
I1101 20:28:06.033627 34046 net.cpp:434] res5_4 <- conv5_4
I1101 20:28:06.033633 34046 net.cpp:408] res5_4 -> res5_4
I1101 20:28:06.033684 34046 net.cpp:150] Setting up res5_4
I1101 20:28:06.033696 34046 net.cpp:157] Top shape: 64 512 5 5 (819200)
I1101 20:28:06.033725 34046 net.cpp:165] Memory required for data: 2002312960
I1101 20:28:06.033732 34046 layer_factory.hpp:77] Creating layer res5_4_res5_4_0_split
I1101 20:28:06.033754 34046 net.cpp:100] Creating Layer res5_4_res5_4_0_split
I1101 20:28:06.033761 34046 net.cpp:434] res5_4_res5_4_0_split <- res5_4
I1101 20:28:06.033767 34046 net.cpp:408] res5_4_res5_4_0_split -> res5_4_res5_4_0_split_0
I1101 20:28:06.033785 34046 net.cpp:408] res5_4_res5_4_0_split -> res5_4_res5_4_0_split_1
I1101 20:28:06.033826 34046 net.cpp:150] Setting up res5_4_res5_4_0_split
I1101 20:28:06.033838 34046 net.cpp:157] Top shape: 64 512 5 5 (819200)
I1101 20:28:06.033845 34046 net.cpp:157] Top shape: 64 512 5 5 (819200)
I1101 20:28:06.033850 34046 net.cpp:165] Memory required for data: 2008866560
I1101 20:28:06.033855 34046 layer_factory.hpp:77] Creating layer conv5_5
I1101 20:28:06.033867 34046 net.cpp:100] Creating Layer conv5_5
I1101 20:28:06.033874 34046 net.cpp:434] conv5_5 <- res5_4_res5_4_0_split_0
I1101 20:28:06.033885 34046 net.cpp:408] conv5_5 -> conv5_5
I1101 20:28:06.084408 34046 net.cpp:150] Setting up conv5_5
I1101 20:28:06.084444 34046 net.cpp:157] Top shape: 64 512 5 5 (819200)
I1101 20:28:06.084451 34046 net.cpp:165] Memory required for data: 2012143360
I1101 20:28:06.084460 34046 layer_factory.hpp:77] Creating layer relu5_5
I1101 20:28:06.084471 34046 net.cpp:100] Creating Layer relu5_5
I1101 20:28:06.084478 34046 net.cpp:434] relu5_5 <- conv5_5
I1101 20:28:06.084486 34046 net.cpp:395] relu5_5 -> conv5_5 (in-place)
I1101 20:28:06.084583 34046 net.cpp:150] Setting up relu5_5
I1101 20:28:06.084596 34046 net.cpp:157] Top shape: 64 512 5 5 (819200)
I1101 20:28:06.084601 34046 net.cpp:165] Memory required for data: 2015420160
I1101 20:28:06.084609 34046 layer_factory.hpp:77] Creating layer conv5_6
I1101 20:28:06.084620 34046 net.cpp:100] Creating Layer conv5_6
I1101 20:28:06.084627 34046 net.cpp:434] conv5_6 <- conv5_5
I1101 20:28:06.084642 34046 net.cpp:408] conv5_6 -> conv5_6
I1101 20:28:06.135246 34046 net.cpp:150] Setting up conv5_6
I1101 20:28:06.135284 34046 net.cpp:157] Top shape: 64 512 5 5 (819200)
I1101 20:28:06.135290 34046 net.cpp:165] Memory required for data: 2018696960
I1101 20:28:06.135299 34046 layer_factory.hpp:77] Creating layer relu5_6
I1101 20:28:06.135309 34046 net.cpp:100] Creating Layer relu5_6
I1101 20:28:06.135316 34046 net.cpp:434] relu5_6 <- conv5_6
I1101 20:28:06.135324 34046 net.cpp:395] relu5_6 -> conv5_6 (in-place)
I1101 20:28:06.135434 34046 net.cpp:150] Setting up relu5_6
I1101 20:28:06.135447 34046 net.cpp:157] Top shape: 64 512 5 5 (819200)
I1101 20:28:06.135453 34046 net.cpp:165] Memory required for data: 2021973760
I1101 20:28:06.135459 34046 layer_factory.hpp:77] Creating layer res5_6
I1101 20:28:06.135470 34046 net.cpp:100] Creating Layer res5_6
I1101 20:28:06.135476 34046 net.cpp:434] res5_6 <- res5_4_res5_4_0_split_1
I1101 20:28:06.135483 34046 net.cpp:434] res5_6 <- conv5_6
I1101 20:28:06.135491 34046 net.cpp:408] res5_6 -> res5_6
I1101 20:28:06.135519 34046 net.cpp:150] Setting up res5_6
I1101 20:28:06.135527 34046 net.cpp:157] Top shape: 64 512 5 5 (819200)
I1101 20:28:06.135532 34046 net.cpp:165] Memory required for data: 2025250560
I1101 20:28:06.135537 34046 layer_factory.hpp:77] Creating layer fc5_new
I1101 20:28:06.135550 34046 net.cpp:100] Creating Layer fc5_new
I1101 20:28:06.135555 34046 net.cpp:434] fc5_new <- res5_6
I1101 20:28:06.135565 34046 net.cpp:408] fc5_new -> fc5_new
I1101 20:28:06.168910 34046 net.cpp:150] Setting up fc5_new
I1101 20:28:06.168961 34046 net.cpp:157] Top shape: 64 512 (32768)
I1101 20:28:06.168967 34046 net.cpp:165] Memory required for data: 2025381632
I1101 20:28:06.168977 34046 layer_factory.hpp:77] Creating layer fc5_new_fc5_new_0_split
I1101 20:28:06.168987 34046 net.cpp:100] Creating Layer fc5_new_fc5_new_0_split
I1101 20:28:06.168992 34046 net.cpp:434] fc5_new_fc5_new_0_split <- fc5_new
I1101 20:28:06.169003 34046 net.cpp:408] fc5_new_fc5_new_0_split -> fc5_new_fc5_new_0_split_0
I1101 20:28:06.169011 34046 net.cpp:408] fc5_new_fc5_new_0_split -> fc5_new_fc5_new_0_split_1
I1101 20:28:06.169077 34046 net.cpp:150] Setting up fc5_new_fc5_new_0_split
I1101 20:28:06.169087 34046 net.cpp:157] Top shape: 64 512 (32768)
I1101 20:28:06.169093 34046 net.cpp:157] Top shape: 64 512 (32768)
I1101 20:28:06.169098 34046 net.cpp:165] Memory required for data: 2025643776
I1101 20:28:06.169103 34046 layer_factory.hpp:77] Creating layer fc6_new
I1101 20:28:06.169114 34046 net.cpp:100] Creating Layer fc6_new
I1101 20:28:06.169121 34046 net.cpp:434] fc6_new <- fc5_new_fc5_new_0_split_0
I1101 20:28:06.169128 34046 net.cpp:408] fc6_new -> fc6_new
I1101 20:28:06.169251 34046 net.cpp:150] Setting up fc6_new
I1101 20:28:06.169263 34046 net.cpp:157] Top shape: 64 7 (448)
I1101 20:28:06.169268 34046 net.cpp:165] Memory required for data: 2025645568
I1101 20:28:06.169276 34046 layer_factory.hpp:77] Creating layer fc6_new_fc6_new_0_split
I1101 20:28:06.169283 34046 net.cpp:100] Creating Layer fc6_new_fc6_new_0_split
I1101 20:28:06.169288 34046 net.cpp:434] fc6_new_fc6_new_0_split <- fc6_new
I1101 20:28:06.169296 34046 net.cpp:408] fc6_new_fc6_new_0_split -> fc6_new_fc6_new_0_split_0
I1101 20:28:06.169304 34046 net.cpp:408] fc6_new_fc6_new_0_split -> fc6_new_fc6_new_0_split_1
I1101 20:28:06.169342 34046 net.cpp:150] Setting up fc6_new_fc6_new_0_split
I1101 20:28:06.169355 34046 net.cpp:157] Top shape: 64 7 (448)
I1101 20:28:06.169361 34046 net.cpp:157] Top shape: 64 7 (448)
I1101 20:28:06.169365 34046 net.cpp:165] Memory required for data: 2025649152
I1101 20:28:06.169370 34046 layer_factory.hpp:77] Creating layer softmax_loss
I1101 20:28:06.169389 34046 net.cpp:100] Creating Layer softmax_loss
I1101 20:28:06.169395 34046 net.cpp:434] softmax_loss <- fc6_new_fc6_new_0_split_0
I1101 20:28:06.169402 34046 net.cpp:434] softmax_loss <- label_data_1_split_0
I1101 20:28:06.169409 34046 net.cpp:408] softmax_loss -> softmax_loss
…
I1101 20:28:06.173177 34046 net.cpp:58] Initializing net from parameters: 
name: "fer2013_experiment"
state {
  phase: TEST
}
layer {
  name: "data"
  type: "ImageData"
  top: "data"
  top: "label"
  include {
    phase: TEST
  }
  transform_param {
    scale: 0.0078125
    mirror: false
    crop_size: 227
    mean_value: 127.5
    mean_value: 127.5
    mean_value: 127.5
  }
  image_data_param {
    source: "/data/zeng/fer2013_dataset/list/fer2013_val.txt"
    batch_size: 4
    shuffle: false
    new_height: 256
    new_width: 256
    root_folder: "/data/zeng/fer2013_dataset/data/"
  }
}
layer {
  name: "conv1a"
  type: "Convolution"
  bottom: "data"
  top: "conv1a"
  param {
    lr_mult: 1
    decay_mult: 1
  }
  param {
    lr_mult: 2
    decay_mult: 0
  }
  convolution_param {
    num_output: 32
    kernel_size: 9
    stride: 2
    weight_filler {
      type: "xavier"
    }
    bias_filler {
      type: "constant"
      value: 0
    }
  }
}
layer {
  name: "relu1a"
  type: "PReLU"
  bottom: "conv1a"
  top: "conv1a"
}
layer {
  name: "conv1b"
  type: "Convolution"
  bottom: "conv1a"
  top: "conv1b"
  param {
    lr_mult: 1
    decay_mult: 1
  }
  param {
    lr_mult: 2
    decay_mult: 0
  }
  convolution_param {
    num_output: 64
    kernel_size: 3
    stride: 1
    weight_filler {
      type: "xavier"
    }
    bias_filler {
      type: "constant"
      value: 0
    }
  }
}
layer {
  name: "relu1b"
  type: "PReLU"
  bottom: "conv1b"
  top: "conv1b"
}
layer {
  name: "pool1b"
  type: "Pooling"
  bottom: "conv1b"
  top: "pool1b"
  pooling_param {
    pool: MAX
    kernel_size: 2
    stride: 2
  }
}
layer {
  name: "conv2_1"
  type: "Convolution"
  bottom: "pool1b"
  top: "conv2_1"
  param {
    lr_mult: 1
    decay_mult: 1
  }
  param {
    lr_mult: 0
    decay_mult: 0
  }
  convolution_param {
    num_output: 64
    pad: 1
    kernel_size: 3
    stride: 1
    weight_filler {
      type: "gaussian"
      std: 0.01
    }
    bias_filler {
      type: "constant"
      value: 0
    }
  }
}
layer {
  name: "relu2_1"
  type: "PReLU"
  bottom: "conv2_1"
  top: "conv2_1"
}
layer {
  name: "conv2_2"
  type: "Convolution"
  bottom: "conv2_1"
  top: "conv2_2"
  param {
    lr_mult: 1
    decay_mult: 1
  }
  param {
    lr_mult: 0
    decay_mult: 0
  }
  convolution_param {
    num_output: 64
    pad: 1
    kernel_size: 3
    stride: 1
    weight_filler {
      type: "gaussian"
      std: 0.01
    }
    bias_filler {
      type: "constant"
      value: 0
    }
  }
}
layer {
  name: "relu2_2"
  type: "PReLU"
  bottom: "conv2_2"
  top: "conv2_2"
}
layer {
  name: "res2_2"
  type: "Eltwise"
  bottom: "pool1b"
  bottom: "conv2_2"
  top: "res2_2"
  eltwise_param {
    operation: SUM
  }
}
layer {
  name: "conv2"
  type: "Convolution"
  bottom: "res2_2"
  top: "conv2"
  param {
    lr_mult: 1
    decay_mult: 1
  }
  param {
    lr_mult: 2
    decay_mult: 0
  }
  convolution_param {
    num_output: 128
    kernel_size: 3
    stride: 1
    weight_filler {
      type: "xavier"
    }
    bias_filler {
      type: "constant"
      value: 0
    }
  }
}
layer {
  name: "relu2"
  type: "PReLU"
  bottom: "conv2"
  top: "conv2"
}
layer {
  name: "pool2"
  type: "Pooling"
  bottom: "conv2"
  top: "pool2"
  pooling_param {
    pool: MAX
    kernel_size: 2
    stride: 2
  }
}
layer {
  name: "conv3_1"
  type: "Convolution"
  bottom: "pool2"
  top: "conv3_1"
  param {
    lr_mult: 1
    decay_mult: 1
  }
  param {
    lr_mult: 0
    decay_mult: 0
  }
  convolution_param {
    num_output: 128
    pad: 1
    kernel_size: 3
    stride: 1
    weight_filler {
      type: "gaussian"
      std: 0.01
    }
    bias_filler {
      type: "constant"
      value: 0
    }
  }
}
layer {
  name: "relu3_1"
  type: "PReLU"
  bottom: "conv3_1"
  top: "conv3_1"
}
layer {
  name: "conv3_2"
  type: "Convolution"
  bottom: "conv3_1"
  top: "conv3_2"
  param {
    lr_mult: 1
    decay_mult: 1
  }
  param {
    lr_mult: 0
    decay_mult: 0
  }
  convolution_param {
    num_output: 128
    pad: 1
    kernel_size: 3
    stride: 1
    weight_filler {
      type: "gaussian"
      std: 0.01
    }
    bias_filler {
      type: "constant"
      value: 0
    }
  }
}
layer {
  name: "relu3_2"
  type: "PReLU"
  bottom: "conv3_2"
  top: "conv3_2"
}
layer {
  name: "res3_2"
  type: "Eltwise"
  bottom: "pool2"
  bottom: "conv3_2"
  top: "res3_2"
  eltwise_param {
    operation: SUM
  }
}
layer {
  name: "conv3_3"
  type: "Convolution"
  bottom: "res3_2"
  top: "conv3_3"
  param {
    lr_mult: 1
    decay_mult: 1
  }
  param {
    lr_mult: 0
    decay_mult: 0
  }
  convolution_param {
    num_output: 128
    pad: 1
    kernel_size: 3
    stride: 1
    weight_filler {
      type: "gaussian"
      std: 0.01
    }
    bias_filler {
      type: "constant"
      value: 0
    }
  }
}
layer {
  name: "relu3_3"
  type: "PReLU"
  bottom: "conv3_3"
  top: "conv3_3"
}
layer {
  name: "conv3_4"
  type: "Convolution"
  bottom: "conv3_3"
  top: "conv3_4"
  param {
    lr_mult: 1
    decay_mult: 1
  }
  param {
    lr_mult: 0
    decay_mult: 0
  }
  convolution_param {
    num_output: 128
    pad: 1
    kernel_size: 3
    stride: 1
    weight_filler {
      type: "gaussian"
      std: 0.01
    }
    bias_filler {
      type: "constant"
      value: 0
    }
  }
}
layer {
  name: "relu3_4"
  type: "PReLU"
  bottom: "conv3_4"
  top: "conv3_4"
}
layer {
  name: "res3_4"
  type: "Eltwise"
  bottom: "res3_2"
  bottom: "conv3_4"
  top: "res3_4"
  eltwise_param {
    operation: SUM
  }
}
layer {
  name: "conv3"
  type: "Convolution"
  bottom: "res3_4"
  top: "conv3"
  param {
    lr_mult: 1
    decay_mult: 1
  }
  param {
    lr_mult: 2
    decay_mult: 0
  }
  convolution_param {
    num_output: 256
    kernel_size: 3
    stride: 1
    weight_filler {
      type: "xavier"
    }
    bias_filler {
      type: "constant"
      value: 0
    }
  }
}
layer {
  name: "relu3"
  type: "PReLU"
  bottom: "conv3"
  top: "conv3"
}
layer {
  name: "pool3"
  type: "Pooling"
  bottom: "conv3"
  top: "pool3"
  pooling_param {
    pool: MAX
    kernel_size: 2
    stride: 2
  }
}
layer {
  name: "conv4_1"
  type: "Convolution"
  bottom: "pool3"
  top: "conv4_1"
  param {
    lr_mult: 1
    decay_mult: 1
  }
  param {
    lr_mult: 0
    decay_mult: 0
  }
  convolution_param {
    num_output: 256
    pad: 1
    kernel_size: 3
    stride: 1
    weight_filler {
      type: "gaussian"
      std: 0.01
    }
    bias_filler {
      type: "constant"
      value: 0
    }
  }
}
layer {
  name: "relu4_1"
  type: "PReLU"
  bottom: "conv4_1"
  top: "conv4_1"
}
layer {
  name: "conv4_2"
  type: "Convolution"
  bottom: "conv4_1"
  top: "conv4_2"
  param {
    lr_mult: 1
    decay_mult: 1
  }
  param {
    lr_mult: 0
    decay_mult: 0
  }
  convolution_param {
    num_output: 256
    pad: 1
    kernel_size: 3
    stride: 1
    weight_filler {
      type: "gaussian"
      std: 0.01
    }
    bias_filler {
      type: "constant"
      value: 0
    }
  }
}
layer {
  name: "relu4_2"
  type: "PReLU"
  bottom: "conv4_2"
  top: "conv4_2"
}
layer {
  name: "res4_2"
  type: "Eltwise"
  bottom: "pool3"
  bottom: "conv4_2"
  top: "res4_2"
  eltwise_param {
    operation: SUM
  }
}
layer {
  name: "conv4_3"
  type: "Convolution"
  bottom: "res4_2"
  top: "conv4_3"
  param {
    lr_mult: 1
    decay_mult: 1
  }
  param {
    lr_mult: 0
    decay_mult: 0
  }
  convolution_param {
    num_output: 256
    pad: 1
    kernel_size: 3
    stride: 1
    weight_filler {
      type: "gaussian"
      std: 0.01
    }
    bias_filler {
      type: "constant"
      value: 0
    }
  }
}
layer {
  name: "relu4_3"
  type: "PReLU"
  bottom: "conv4_3"
  top: "conv4_3"
}
layer {
  name: "conv4_4"
  type: "Convolution"
  bottom: "conv4_3"
  top: "conv4_4"
  param {
    lr_mult: 1
    decay_mult: 1
  }
  param {
    lr_mult: 0
    decay_mult: 0
  }
  convolution_param {
    num_output: 256
    pad: 1
    kernel_size: 3
    stride: 1
    weight_filler {
      type: "gaussian"
      std: 0.01
    }
    bias_filler {
      type: "constant"
      value: 0
    }
  }
}
layer {
  name: "relu4_4"
  type: "PReLU"
  bottom: "conv4_4"
  top: "conv4_4"
}
layer {
  name: "res4_4"
  type: "Eltwise"
  bottom: "res4_2"
  bottom: "conv4_4"
  top: "res4_4"
  eltwise_param {
    operation: SUM
  }
}
layer {
  name: "conv4_5"
  type: "Convolution"
  bottom: "res4_4"
  top: "conv4_5"
  param {
    lr_mult: 1
    decay_mult: 1
  }
  param {
    lr_mult: 0
    decay_mult: 0
  }
  convolution_param {
    num_output: 256
    pad: 1
    kernel_size: 3
    stride: 1
    weight_filler {
      type: "gaussian"
      std: 0.01
    }
    bias_filler {
      type: "constant"
      value: 0
    }
  }
}
layer {
  name: "relu4_5"
  type: "PReLU"
  bottom: "conv4_5"
  top: "conv4_5"
}
layer {
  name: "conv4_6"
  type: "Convolution"
  bottom: "conv4_5"
  top: "conv4_6"
  param {
    lr_mult: 1
    decay_mult: 1
  }
  param {
    lr_mult: 0
    decay_mult: 0
  }
  convolution_param {
    num_output: 256
    pad: 1
    kernel_size: 3
    stride: 1
    weight_filler {
      type: "gaussian"
      std: 0.01
    }
    bias_filler {
      type: "constant"
      value: 0
    }
  }
}
layer {
  name: "relu4_6"
  type: "PReLU"
  bottom: "conv4_6"
  top: "conv4_6"
}
layer {
  name: "res4_6"
  type: "Eltwise"
  bottom: "res4_4"
  bottom: "conv4_6"
  top: "res4_6"
  eltwise_param {
    operation: SUM
  }
}
layer {
  name: "conv4_7"
  type: "Convolution"
  bottom: "res4_6"
  top: "conv4_7"
  param {
    lr_mult: 1
    decay_mult: 1
  }
  param {
    lr_mult: 0
    decay_mult: 0
  }
  convolution_param {
    num_output: 256
    pad: 1
    kernel_size: 3
    stride: 1
    weight_filler {
      type: "gaussian"
      std: 0.01
    }
    bias_filler {
      type: "constant"
      value: 0
    }
  }
}
layer {
  name: "relu4_7"
  type: "PReLU"
  bottom: "conv4_7"
  top: "conv4_7"
}
layer {
  name: "conv4_8"
  type: "Convolution"
  bottom: "conv4_7"
  top: "conv4_8"
  param {
    lr_mult: 1
    decay_mult: 1
  }
  param {
    lr_mult: 0
    decay_mult: 0
  }
  convolution_param {
    num_output: 256
    pad: 1
    kernel_size: 3
    stride: 1
    weight_filler {
      type: "gaussian"
      std: 0.01
    }
    bias_filler {
      type: "constant"
      value: 0
    }
  }
}
layer {
  name: "relu4_8"
  type: "PReLU"
  bottom: "conv4_8"
  top: "conv4_8"
}
layer {
  name: "res4_8"
  type: "Eltwise"
  bottom: "res4_6"
  bottom: "conv4_8"
  top: "res4_8"
  eltwise_param {
    operation: SUM
  }
}
layer {
  name: "conv4_9"
  type: "Convolution"
  bottom: "res4_8"
  top: "conv4_9"
  param {
    lr_mult: 1
    decay_mult: 1
  }
  param {
    lr_mult: 0
    decay_mult: 0
  }
  convolution_param {
    num_output: 256
    pad: 1
    kernel_size: 3
    stride: 1
    weight_filler {
      type: "gaussian"
      std: 0.01
    }
    bias_filler {
      type: "constant"
      value: 0
    }
  }
}
layer {
  name: "relu4_9"
  type: "PReLU"
  bottom: "conv4_9"
  top: "conv4_9"
}
layer {
  name: "conv4_10"
  type: "Convolution"
  bottom: "conv4_9"
  top: "conv4_10"
  param {
    lr_mult: 1
    decay_mult: 1
  }
  param {
    lr_mult: 0
    decay_mult: 0
  }
  convolution_param {
    num_output: 256
    pad: 1
    kernel_size: 3
    stride: 1
    weight_filler {
      type: "gaussian"
      std: 0.01
    }
    bias_filler {
      type: "constant"
      value: 0
    }
  }
}
layer {
  name: "relu4_10"
  type: "PReLU"
  bottom: "conv4_10"
  top: "conv4_10"
}
layer {
  name: "res4_10"
  type: "Eltwise"
  bottom: "res4_8"
  bottom: "conv4_10"
  top: "res4_10"
  eltwise_param {
    operation: SUM
  }
}
layer {
  name: "conv4"
  type: "Convolution"
  bottom: "res4_10"
  top: "conv4"
  param {
    lr_mult: 1
    decay_mult: 1
  }
  param {
    lr_mult: 2
    decay_mult: 0
  }
  convolution_param {
    num_output: 512
    kernel_size: 3
    stride: 1
    weight_filler {
      type: "xavier"
    }
    bias_filler {
      type: "constant"
      value: 0
    }
  }
}
layer {
  name: "relu4"
  type: "PReLU"
  bottom: "conv4"
  top: "conv4"
}
layer {
  name: "pool4"
  type: "Pooling"
  bottom: "conv4"
  top: "pool4"
  pooling_param {
    pool: MAX
    kernel_size: 2
    stride: 2
  }
}
layer {
  name: "conv5_1"
  type: "Convolution"
  bottom: "pool4"
  top: "conv5_1"
  param {
    lr_mult: 1
    decay_mult: 1
  }
  param {
    lr_mult: 0
    decay_mult: 0
  }
  convolution_param {
    num_output: 512
    pad: 1
    kernel_size: 3
    stride: 1
    weight_filler {
      type: "gaussian"
      std: 0.01
    }
    bias_filler {
      type: "constant"
      value: 0
    }
  }
}
layer {
  name: "relu5_1"
  type: "PReLU"
  bottom: "conv5_1"
  top: "conv5_1"
}
layer {
  name: "conv5_2"
  type: "Convolution"
  bottom: "conv5_1"
  top: "conv5_2"
  param {
    lr_mult: 1
    decay_mult: 1
  }
  param {
    lr_mult: 0
    decay_mult: 0
  }
  convolution_param {
    num_output: 512
    pad: 1
    kernel_size: 3
    stride: 1
    weight_filler {
      type: "gaussian"
      std: 0.01
    }
    bias_filler {
      type: "constant"
      value: 0
    }
  }
}
layer {
  name: "relu5_2"
  type: "PReLU"
  bottom: "conv5_2"
  top: "conv5_2"
}
layer {
  name: "res5_2"
  type: "Eltwise"
  bottom: "pool4"
  bottom: "conv5_2"
  top: "res5_2"
  eltwise_param {
    operation: SUM
  }
}
layer {
  name: "conv5_3"
  type: "Convolution"
  bottom: "res5_2"
  top: "conv5_3"
  param {
    lr_mult: 1
    decay_mult: 1
  }
  param {
    lr_mult: 0
    decay_mult: 0
  }
  convolution_param {
    num_output: 512
    pad: 1
    kernel_size: 3
    stride: 1
    weight_filler {
      type: "gaussian"
      std: 0.01
    }
    bias_filler {
      type: "constant"
      value: 0
    }
  }
}
layer {
  name: "relu5_3"
  type: "PReLU"
  bottom: "conv5_3"
  top: "conv5_3"
}
layer {
  name: "conv5_4"
  type: "Convolution"
  bottom: "conv5_3"
  top: "conv5_4"
  param {
    lr_mult: 1
    decay_mult: 1
  }
  param {
    lr_mult: 0
    decay_mult: 0
  }
  convolution_param {
    num_output: 512
    pad: 1
    kernel_size: 3
    stride: 1
    weight_filler {
      type: "gaussian"
      std: 0.01
    }
    bias_filler {
      type: "constant"
      value: 0
    }
  }
}
layer {
  name: "relu5_4"
  type: "PReLU"
  bottom: "conv5_4"
  top: "conv5_4"
}
layer {
  name: "res5_4"
  type: "Eltwise"
  bottom: "res5_2"
  bottom: "conv5_4"
  top: "res5_4"
  eltwise_param {
    operation: SUM
  }
}
layer {
  name: "conv5_5"
  type: "Convolution"
  bottom: "res5_4"
  top: "conv5_5"
  param {
    lr_mult: 1
    decay_mult: 1
  }
  param {
    lr_mult: 0
    decay_mult: 0
  }
  convolution_param {
    num_output: 512
    pad: 1
    kernel_size: 3
    stride: 1
    weight_filler {
      type: "gaussian"
      std: 0.01
    }
    bias_filler {
      type: "constant"
      value: 0
    }
  }
}
layer {
  name: "relu5_5"
  type: "PReLU"
  bottom: "conv5_5"
  top: "conv5_5"
}
layer {
  name: "conv5_6"
  type: "Convolution"
  bottom: "conv5_5"
  top: "conv5_6"
  param {
    lr_mult: 1
    decay_mult: 1
  }
  param {
    lr_mult: 0
    decay_mult: 0
  }
  convolution_param {
    num_output: 512
    pad: 1
    kernel_size: 3
    stride: 1
    weight_filler {
      type: "gaussian"
      std: 0.01
    }
    bias_filler {
      type: "constant"
      value: 0
    }
  }
}
layer {
  name: "relu5_6"
  type: "PReLU"
  bottom: "conv5_6"
  top: "conv5_6"
}
layer {
  name: "res5_6"
  type: "Eltwise"
  bottom: "res5_4"
  bottom: "conv5_6"
  top: "res5_6"
  eltwise_param {
    operation: SUM
  }
}
layer {
  name: "fc5_new"
  type: "InnerProduct"
  bottom: "res5_6"
  top: "fc5_new"
  param {
    lr_mult: 1
    decay_mult: 1
  }
  param {
    lr_mult: 2
    decay_mult: 0
  }
  inner_product_param {
    num_output: 512
    weight_filler {
      type: "xavier"
    }
    bias_filler {
      type: "constant"
      value: 0
    }
  }
}
layer {
  name: "fc6_new"
  type: "InnerProduct"
  bottom: "fc5_new"
  top: "fc6_new"
  param {
    lr_mult: 1
    decay_mult: 1
  }
  param {
    lr_mult: 2
    decay_mult: 0
  }
  inner_product_param {
    num_output: 7
    weight_filler {
      type: "xavier"
    }
    bias_filler {
      type: "constant"
      value: 0
    }
  }
}
layer {
  name: "softmax_loss"
  type: "SoftmaxWithLoss"
  bottom: "fc6_new"
  bottom: "label"
  top: "softmax_loss"
}
layer {
  name: "accuracy"
  type: "Accuracy"
  bottom: "fc6_new"
  bottom: "label"
  top: "accuracy"
}
layer {
  name: "center_loss_new"
  type: "CenterLoss"
  bottom: "fc5_new"
  bottom: "label"
  top: "center_loss_new"
  loss_weight: 0.008
  param {
    lr_mult: 1
    decay_mult: 2
  }
  center_loss_param {
    num_output: 7
    center_filler {
      type: "xavier"
    }
  }
}
I1101 20:28:06.175638 34046 layer_factory.hpp:77] Creating layer data
I1101 20:28:06.175660 34046 net.cpp:100] Creating Layer data
I1101 20:28:06.175668 34046 net.cpp:408] data -> data
I1101 20:28:06.175678 34046 net.cpp:408] data -> label
I1101 20:28:06.175690 34046 image_data_layer.cpp:38] Opening file /data/zeng/fer2013_dataset/list/fer2013_val.txt
I1101 20:28:06.176522 34046 image_data_layer.cpp:58] A total of 3589 images.
I1101 20:28:06.176940 34046 image_data_layer.cpp:85] output data size: 4,3,227,227
I1101 20:28:06.183887 34046 net.cpp:150] Setting up data
I1101 20:28:06.183907 34046 net.cpp:157] Top shape: 4 3 227 227 (618348)
I1101 20:28:06.183913 34046 net.cpp:157] Top shape: 4 (4)
I1101 20:28:06.183918 34046 net.cpp:165] Memory required for data: 2473408
I1101 20:28:06.183924 34046 layer_factory.hpp:77] Creating layer label_data_1_split
I1101 20:28:06.183933 34046 net.cpp:100] Creating Layer label_data_1_split
I1101 20:28:06.183940 34046 net.cpp:434] label_data_1_split <- label
I1101 20:28:06.183957 34046 net.cpp:408] label_data_1_split -> label_data_1_split_0
I1101 20:28:06.183967 34046 net.cpp:408] label_data_1_split -> label_data_1_split_1
I1101 20:28:06.183975 34046 net.cpp:408] label_data_1_split -> label_data_1_split_2
I1101 20:28:06.184065 34046 net.cpp:150] Setting up label_data_1_split
I1101 20:28:06.184077 34046 net.cpp:157] Top shape: 4 (4)
I1101 20:28:06.184083 34046 net.cpp:157] Top shape: 4 (4)
I1101 20:28:06.184089 34046 net.cpp:157] Top shape: 4 (4)
I1101 20:28:06.184094 34046 net.cpp:165] Memory required for data: 2473456
I1101 20:28:06.184099 34046 layer_factory.hpp:77] Creating layer conv1a
I1101 20:28:06.184110 34046 net.cpp:100] Creating Layer conv1a
I1101 20:28:06.184115 34046 net.cpp:434] conv1a <- data
I1101 20:28:06.184123 34046 net.cpp:408] conv1a -> conv1a
I1101 20:28:06.185914 34046 net.cpp:150] Setting up conv1a
I1101 20:28:06.185935 34046 net.cpp:157] Top shape: 4 32 110 110 (1548800)
I1101 20:28:06.185941 34046 net.cpp:165] Memory required for data: 8668656
I1101 20:28:06.185952 34046 layer_factory.hpp:77] Creating layer relu1a
I1101 20:28:06.185963 34046 net.cpp:100] Creating Layer relu1a
I1101 20:28:06.185969 34046 net.cpp:434] relu1a <- conv1a
I1101 20:28:06.185976 34046 net.cpp:395] relu1a -> conv1a (in-place)
I1101 20:28:06.187352 34046 net.cpp:150] Setting up relu1a
I1101 20:28:06.187371 34046 net.cpp:157] Top shape: 4 32 110 110 (1548800)
I1101 20:28:06.187377 34046 net.cpp:165] Memory required for data: 14863856
I1101 20:28:06.187386 34046 layer_factory.hpp:77] Creating layer conv1b
I1101 20:28:06.187399 34046 net.cpp:100] Creating Layer conv1b
I1101 20:28:06.187407 34046 net.cpp:434] conv1b <- conv1a
I1101 20:28:06.187414 34046 net.cpp:408] conv1b -> conv1b
I1101 20:28:06.190485 34046 net.cpp:150] Setting up conv1b
I1101 20:28:06.190521 34046 net.cpp:157] Top shape: 4 64 108 108 (2985984)
I1101 20:28:06.190528 34046 net.cpp:165] Memory required for data: 26807792
I1101 20:28:06.190539 34046 layer_factory.hpp:77] Creating layer relu1b
I1101 20:28:06.190551 34046 net.cpp:100] Creating Layer relu1b
I1101 20:28:06.190557 34046 net.cpp:434] relu1b <- conv1b
I1101 20:28:06.190563 34046 net.cpp:395] relu1b -> conv1b (in-place)
I1101 20:28:06.192370 34046 net.cpp:150] Setting up relu1b
I1101 20:28:06.192389 34046 net.cpp:157] Top shape: 4 64 108 108 (2985984)
I1101 20:28:06.192395 34046 net.cpp:165] Memory required for data: 38751728
I1101 20:28:06.192402 34046 layer_factory.hpp:77] Creating layer pool1b
I1101 20:28:06.192414 34046 net.cpp:100] Creating Layer pool1b
I1101 20:28:06.192420 34046 net.cpp:434] pool1b <- conv1b
I1101 20:28:06.192427 34046 net.cpp:408] pool1b -> pool1b
I1101 20:28:06.192471 34046 net.cpp:150] Setting up pool1b
I1101 20:28:06.192481 34046 net.cpp:157] Top shape: 4 64 54 54 (746496)
I1101 20:28:06.192486 34046 net.cpp:165] Memory required for data: 41737712
I1101 20:28:06.192489 34046 layer_factory.hpp:77] Creating layer pool1b_pool1b_0_split
I1101 20:28:06.192512 34046 net.cpp:100] Creating Layer pool1b_pool1b_0_split
I1101 20:28:06.192517 34046 net.cpp:434] pool1b_pool1b_0_split <- pool1b
I1101 20:28:06.192526 34046 net.cpp:408] pool1b_pool1b_0_split -> pool1b_pool1b_0_split_0
I1101 20:28:06.192535 34046 net.cpp:408] pool1b_pool1b_0_split -> pool1b_pool1b_0_split_1
I1101 20:28:06.192574 34046 net.cpp:150] Setting up pool1b_pool1b_0_split
I1101 20:28:06.192585 34046 net.cpp:157] Top shape: 4 64 54 54 (746496)
I1101 20:28:06.192592 34046 net.cpp:157] Top shape: 4 64 54 54 (746496)
I1101 20:28:06.192597 34046 net.cpp:165] Memory required for data: 47709680
I1101 20:28:06.192602 34046 layer_factory.hpp:77] Creating layer conv2_1
I1101 20:28:06.192615 34046 net.cpp:100] Creating Layer conv2_1
I1101 20:28:06.192622 34046 net.cpp:434] conv2_1 <- pool1b_pool1b_0_split_0
I1101 20:28:06.192631 34046 net.cpp:408] conv2_1 -> conv2_1
I1101 20:28:06.194844 34046 net.cpp:150] Setting up conv2_1
I1101 20:28:06.194880 34046 net.cpp:157] Top shape: 4 64 54 54 (746496)
I1101 20:28:06.194886 34046 net.cpp:165] Memory required for data: 50695664
I1101 20:28:06.194905 34046 layer_factory.hpp:77] Creating layer relu2_1
I1101 20:28:06.194914 34046 net.cpp:100] Creating Layer relu2_1
I1101 20:28:06.194921 34046 net.cpp:434] relu2_1 <- conv2_1
I1101 20:28:06.194929 34046 net.cpp:395] relu2_1 -> conv2_1 (in-place)
I1101 20:28:06.195169 34046 net.cpp:150] Setting up relu2_1
I1101 20:28:06.195183 34046 net.cpp:157] Top shape: 4 64 54 54 (746496)
I1101 20:28:06.195188 34046 net.cpp:165] Memory required for data: 53681648
I1101 20:28:06.195199 34046 layer_factory.hpp:77] Creating layer conv2_2
I1101 20:28:06.195212 34046 net.cpp:100] Creating Layer conv2_2
I1101 20:28:06.195219 34046 net.cpp:434] conv2_2 <- conv2_1
I1101 20:28:06.195227 34046 net.cpp:408] conv2_2 -> conv2_2
I1101 20:28:06.196765 34046 net.cpp:150] Setting up conv2_2
I1101 20:28:06.196797 34046 net.cpp:157] Top shape: 4 64 54 54 (746496)
I1101 20:28:06.196804 34046 net.cpp:165] Memory required for data: 56667632
I1101 20:28:06.196811 34046 layer_factory.hpp:77] Creating layer relu2_2
I1101 20:28:06.196820 34046 net.cpp:100] Creating Layer relu2_2
I1101 20:28:06.196826 34046 net.cpp:434] relu2_2 <- conv2_2
I1101 20:28:06.196833 34046 net.cpp:395] relu2_2 -> conv2_2 (in-place)
I1101 20:28:06.198185 34046 net.cpp:150] Setting up relu2_2
I1101 20:28:06.198220 34046 net.cpp:157] Top shape: 4 64 54 54 (746496)
I1101 20:28:06.198226 34046 net.cpp:165] Memory required for data: 59653616
I1101 20:28:06.198233 34046 layer_factory.hpp:77] Creating layer res2_2
I1101 20:28:06.198242 34046 net.cpp:100] Creating Layer res2_2
I1101 20:28:06.198248 34046 net.cpp:434] res2_2 <- pool1b_pool1b_0_split_1
I1101 20:28:06.198256 34046 net.cpp:434] res2_2 <- conv2_2
I1101 20:28:06.198264 34046 net.cpp:408] res2_2 -> res2_2
I1101 20:28:06.198295 34046 net.cpp:150] Setting up res2_2
I1101 20:28:06.198305 34046 net.cpp:157] Top shape: 4 64 54 54 (746496)
I1101 20:28:06.198310 34046 net.cpp:165] Memory required for data: 62639600
I1101 20:28:06.198315 34046 layer_factory.hpp:77] Creating layer conv2
I1101 20:28:06.198328 34046 net.cpp:100] Creating Layer conv2
I1101 20:28:06.198335 34046 net.cpp:434] conv2 <- res2_2
I1101 20:28:06.198346 34046 net.cpp:408] conv2 -> conv2
I1101 20:28:06.200316 34046 net.cpp:150] Setting up conv2
I1101 20:28:06.200356 34046 net.cpp:157] Top shape: 4 128 52 52 (1384448)
I1101 20:28:06.200362 34046 net.cpp:165] Memory required for data: 68177392
I1101 20:28:06.200371 34046 layer_factory.hpp:77] Creating layer relu2
I1101 20:28:06.200379 34046 net.cpp:100] Creating Layer relu2
I1101 20:28:06.200386 34046 net.cpp:434] relu2 <- conv2
I1101 20:28:06.200392 34046 net.cpp:395] relu2 -> conv2 (in-place)
I1101 20:28:06.201752 34046 net.cpp:150] Setting up relu2
I1101 20:28:06.201786 34046 net.cpp:157] Top shape: 4 128 52 52 (1384448)
I1101 20:28:06.201792 34046 net.cpp:165] Memory required for data: 73715184
I1101 20:28:06.201800 34046 layer_factory.hpp:77] Creating layer pool2
I1101 20:28:06.201815 34046 net.cpp:100] Creating Layer pool2
I1101 20:28:06.201822 34046 net.cpp:434] pool2 <- conv2
I1101 20:28:06.201831 34046 net.cpp:408] pool2 -> pool2
I1101 20:28:06.201894 34046 net.cpp:150] Setting up pool2
I1101 20:28:06.201906 34046 net.cpp:157] Top shape: 4 128 26 26 (346112)
I1101 20:28:06.201911 34046 net.cpp:165] Memory required for data: 75099632
I1101 20:28:06.201916 34046 layer_factory.hpp:77] Creating layer pool2_pool2_0_split
I1101 20:28:06.201927 34046 net.cpp:100] Creating Layer pool2_pool2_0_split
I1101 20:28:06.201933 34046 net.cpp:434] pool2_pool2_0_split <- pool2
I1101 20:28:06.201956 34046 net.cpp:408] pool2_pool2_0_split -> pool2_pool2_0_split_0
I1101 20:28:06.201962 34046 net.cpp:408] pool2_pool2_0_split -> pool2_pool2_0_split_1
I1101 20:28:06.202005 34046 net.cpp:150] Setting up pool2_pool2_0_split
I1101 20:28:06.202015 34046 net.cpp:157] Top shape: 4 128 26 26 (346112)
I1101 20:28:06.202023 34046 net.cpp:157] Top shape: 4 128 26 26 (346112)
I1101 20:28:06.202028 34046 net.cpp:165] Memory required for data: 77868528
I1101 20:28:06.202033 34046 layer_factory.hpp:77] Creating layer conv3_1
I1101 20:28:06.202055 34046 net.cpp:100] Creating Layer conv3_1
I1101 20:28:06.202064 34046 net.cpp:434] conv3_1 <- pool2_pool2_0_split_0
I1101 20:28:06.202071 34046 net.cpp:408] conv3_1 -> conv3_1
I1101 20:28:06.207152 34046 net.cpp:150] Setting up conv3_1
I1101 20:28:06.207187 34046 net.cpp:157] Top shape: 4 128 26 26 (346112)
I1101 20:28:06.207195 34046 net.cpp:165] Memory required for data: 79252976
I1101 20:28:06.207212 34046 layer_factory.hpp:77] Creating layer relu3_1
I1101 20:28:06.207222 34046 net.cpp:100] Creating Layer relu3_1
I1101 20:28:06.207228 34046 net.cpp:434] relu3_1 <- conv3_1
I1101 20:28:06.207237 34046 net.cpp:395] relu3_1 -> conv3_1 (in-place)
I1101 20:28:06.207370 34046 net.cpp:150] Setting up relu3_1
I1101 20:28:06.207391 34046 net.cpp:157] Top shape: 4 128 26 26 (346112)
I1101 20:28:06.207397 34046 net.cpp:165] Memory required for data: 80637424
I1101 20:28:06.207403 34046 layer_factory.hpp:77] Creating layer conv3_2
I1101 20:28:06.207415 34046 net.cpp:100] Creating Layer conv3_2
I1101 20:28:06.207422 34046 net.cpp:434] conv3_2 <- conv3_1
I1101 20:28:06.207432 34046 net.cpp:408] conv3_2 -> conv3_2
I1101 20:28:06.212442 34046 net.cpp:150] Setting up conv3_2
I1101 20:28:06.212479 34046 net.cpp:157] Top shape: 4 128 26 26 (346112)
I1101 20:28:06.212486 34046 net.cpp:165] Memory required for data: 82021872
I1101 20:28:06.212494 34046 layer_factory.hpp:77] Creating layer relu3_2
I1101 20:28:06.212505 34046 net.cpp:100] Creating Layer relu3_2
I1101 20:28:06.212512 34046 net.cpp:434] relu3_2 <- conv3_2
I1101 20:28:06.212518 34046 net.cpp:395] relu3_2 -> conv3_2 (in-place)
I1101 20:28:06.212654 34046 net.cpp:150] Setting up relu3_2
I1101 20:28:06.212668 34046 net.cpp:157] Top shape: 4 128 26 26 (346112)
I1101 20:28:06.212674 34046 net.cpp:165] Memory required for data: 83406320
I1101 20:28:06.212682 34046 layer_factory.hpp:77] Creating layer res3_2
I1101 20:28:06.212688 34046 net.cpp:100] Creating Layer res3_2
I1101 20:28:06.212694 34046 net.cpp:434] res3_2 <- pool2_pool2_0_split_1
I1101 20:28:06.212702 34046 net.cpp:434] res3_2 <- conv3_2
I1101 20:28:06.212708 34046 net.cpp:408] res3_2 -> res3_2
I1101 20:28:06.212738 34046 net.cpp:150] Setting up res3_2
I1101 20:28:06.212746 34046 net.cpp:157] Top shape: 4 128 26 26 (346112)
I1101 20:28:06.212752 34046 net.cpp:165] Memory required for data: 84790768
I1101 20:28:06.212757 34046 layer_factory.hpp:77] Creating layer res3_2_res3_2_0_split
I1101 20:28:06.212766 34046 net.cpp:100] Creating Layer res3_2_res3_2_0_split
I1101 20:28:06.212771 34046 net.cpp:434] res3_2_res3_2_0_split <- res3_2
I1101 20:28:06.212779 34046 net.cpp:408] res3_2_res3_2_0_split -> res3_2_res3_2_0_split_0
I1101 20:28:06.212786 34046 net.cpp:408] res3_2_res3_2_0_split -> res3_2_res3_2_0_split_1
I1101 20:28:06.212826 34046 net.cpp:150] Setting up res3_2_res3_2_0_split
I1101 20:28:06.212836 34046 net.cpp:157] Top shape: 4 128 26 26 (346112)
I1101 20:28:06.212841 34046 net.cpp:157] Top shape: 4 128 26 26 (346112)
I1101 20:28:06.212846 34046 net.cpp:165] Memory required for data: 87559664
I1101 20:28:06.212852 34046 layer_factory.hpp:77] Creating layer conv3_3
I1101 20:28:06.212862 34046 net.cpp:100] Creating Layer conv3_3
I1101 20:28:06.212869 34046 net.cpp:434] conv3_3 <- res3_2_res3_2_0_split_0
I1101 20:28:06.212878 34046 net.cpp:408] conv3_3 -> conv3_3
I1101 20:28:06.219177 34046 net.cpp:150] Setting up conv3_3
I1101 20:28:06.219213 34046 net.cpp:157] Top shape: 4 128 26 26 (346112)
I1101 20:28:06.219220 34046 net.cpp:165] Memory required for data: 88944112
I1101 20:28:06.219228 34046 layer_factory.hpp:77] Creating layer relu3_3
I1101 20:28:06.219238 34046 net.cpp:100] Creating Layer relu3_3
I1101 20:28:06.219244 34046 net.cpp:434] relu3_3 <- conv3_3
I1101 20:28:06.219252 34046 net.cpp:395] relu3_3 -> conv3_3 (in-place)
I1101 20:28:06.219385 34046 net.cpp:150] Setting up relu3_3
I1101 20:28:06.219399 34046 net.cpp:157] Top shape: 4 128 26 26 (346112)
I1101 20:28:06.219405 34046 net.cpp:165] Memory required for data: 90328560
I1101 20:28:06.219411 34046 layer_factory.hpp:77] Creating layer conv3_4
I1101 20:28:06.219434 34046 net.cpp:100] Creating Layer conv3_4
I1101 20:28:06.219441 34046 net.cpp:434] conv3_4 <- conv3_3
I1101 20:28:06.219449 34046 net.cpp:408] conv3_4 -> conv3_4
I1101 20:28:06.224465 34046 net.cpp:150] Setting up conv3_4
I1101 20:28:06.224501 34046 net.cpp:157] Top shape: 4 128 26 26 (346112)
I1101 20:28:06.224508 34046 net.cpp:165] Memory required for data: 91713008
I1101 20:28:06.224519 34046 layer_factory.hpp:77] Creating layer relu3_4
I1101 20:28:06.224526 34046 net.cpp:100] Creating Layer relu3_4
I1101 20:28:06.224532 34046 net.cpp:434] relu3_4 <- conv3_4
I1101 20:28:06.224541 34046 net.cpp:395] relu3_4 -> conv3_4 (in-place)
I1101 20:28:06.224673 34046 net.cpp:150] Setting up relu3_4
I1101 20:28:06.224685 34046 net.cpp:157] Top shape: 4 128 26 26 (346112)
I1101 20:28:06.224691 34046 net.cpp:165] Memory required for data: 93097456
I1101 20:28:06.224697 34046 layer_factory.hpp:77] Creating layer res3_4
I1101 20:28:06.224705 34046 net.cpp:100] Creating Layer res3_4
I1101 20:28:06.224711 34046 net.cpp:434] res3_4 <- res3_2_res3_2_0_split_1
I1101 20:28:06.224717 34046 net.cpp:434] res3_4 <- conv3_4
I1101 20:28:06.224726 34046 net.cpp:408] res3_4 -> res3_4
I1101 20:28:06.224756 34046 net.cpp:150] Setting up res3_4
I1101 20:28:06.224772 34046 net.cpp:157] Top shape: 4 128 26 26 (346112)
I1101 20:28:06.224777 34046 net.cpp:165] Memory required for data: 94481904
I1101 20:28:06.224782 34046 layer_factory.hpp:77] Creating layer conv3
I1101 20:28:06.224793 34046 net.cpp:100] Creating Layer conv3
I1101 20:28:06.224800 34046 net.cpp:434] conv3 <- res3_4
I1101 20:28:06.224809 34046 net.cpp:408] conv3 -> conv3
I1101 20:28:06.228478 34046 net.cpp:150] Setting up conv3
I1101 20:28:06.228500 34046 net.cpp:157] Top shape: 4 256 24 24 (589824)
I1101 20:28:06.228507 34046 net.cpp:165] Memory required for data: 96841200
I1101 20:28:06.228515 34046 layer_factory.hpp:77] Creating layer relu3
I1101 20:28:06.228525 34046 net.cpp:100] Creating Layer relu3
I1101 20:28:06.228533 34046 net.cpp:434] relu3 <- conv3
I1101 20:28:06.228540 34046 net.cpp:395] relu3 -> conv3 (in-place)
I1101 20:28:06.228690 34046 net.cpp:150] Setting up relu3
I1101 20:28:06.228703 34046 net.cpp:157] Top shape: 4 256 24 24 (589824)
I1101 20:28:06.228709 34046 net.cpp:165] Memory required for data: 99200496
I1101 20:28:06.228715 34046 layer_factory.hpp:77] Creating layer pool3
I1101 20:28:06.228725 34046 net.cpp:100] Creating Layer pool3
I1101 20:28:06.228731 34046 net.cpp:434] pool3 <- conv3
I1101 20:28:06.228739 34046 net.cpp:408] pool3 -> pool3
I1101 20:28:06.228781 34046 net.cpp:150] Setting up pool3
I1101 20:28:06.228799 34046 net.cpp:157] Top shape: 4 256 12 12 (147456)
I1101 20:28:06.228804 34046 net.cpp:165] Memory required for data: 99790320
I1101 20:28:06.228809 34046 layer_factory.hpp:77] Creating layer pool3_pool3_0_split
I1101 20:28:06.228816 34046 net.cpp:100] Creating Layer pool3_pool3_0_split
I1101 20:28:06.228824 34046 net.cpp:434] pool3_pool3_0_split <- pool3
I1101 20:28:06.228830 34046 net.cpp:408] pool3_pool3_0_split -> pool3_pool3_0_split_0
I1101 20:28:06.228838 34046 net.cpp:408] pool3_pool3_0_split -> pool3_pool3_0_split_1
I1101 20:28:06.228878 34046 net.cpp:150] Setting up pool3_pool3_0_split
I1101 20:28:06.228893 34046 net.cpp:157] Top shape: 4 256 12 12 (147456)
I1101 20:28:06.228899 34046 net.cpp:157] Top shape: 4 256 12 12 (147456)
I1101 20:28:06.228904 34046 net.cpp:165] Memory required for data: 100969968
I1101 20:28:06.228910 34046 layer_factory.hpp:77] Creating layer conv4_1
I1101 20:28:06.228924 34046 net.cpp:100] Creating Layer conv4_1
I1101 20:28:06.228929 34046 net.cpp:434] conv4_1 <- pool3_pool3_0_split_0
I1101 20:28:06.228940 34046 net.cpp:408] conv4_1 -> conv4_1
I1101 20:28:06.243904 34046 net.cpp:150] Setting up conv4_1
I1101 20:28:06.243942 34046 net.cpp:157] Top shape: 4 256 12 12 (147456)
I1101 20:28:06.243948 34046 net.cpp:165] Memory required for data: 101559792
I1101 20:28:06.243957 34046 layer_factory.hpp:77] Creating layer relu4_1
I1101 20:28:06.243966 34046 net.cpp:100] Creating Layer relu4_1
I1101 20:28:06.243988 34046 net.cpp:434] relu4_1 <- conv4_1
I1101 20:28:06.243994 34046 net.cpp:395] relu4_1 -> conv4_1 (in-place)
I1101 20:28:06.244109 34046 net.cpp:150] Setting up relu4_1
I1101 20:28:06.244122 34046 net.cpp:157] Top shape: 4 256 12 12 (147456)
I1101 20:28:06.244127 34046 net.cpp:165] Memory required for data: 102149616
I1101 20:28:06.244139 34046 layer_factory.hpp:77] Creating layer conv4_2
I1101 20:28:06.244153 34046 net.cpp:100] Creating Layer conv4_2
I1101 20:28:06.244158 34046 net.cpp:434] conv4_2 <- conv4_1
I1101 20:28:06.244166 34046 net.cpp:408] conv4_2 -> conv4_2
I1101 20:28:06.259053 34046 net.cpp:150] Setting up conv4_2
I1101 20:28:06.259090 34046 net.cpp:157] Top shape: 4 256 12 12 (147456)
I1101 20:28:06.259096 34046 net.cpp:165] Memory required for data: 102739440
I1101 20:28:06.259107 34046 layer_factory.hpp:77] Creating layer relu4_2
I1101 20:28:06.259115 34046 net.cpp:100] Creating Layer relu4_2
I1101 20:28:06.259121 34046 net.cpp:434] relu4_2 <- conv4_2
I1101 20:28:06.259130 34046 net.cpp:395] relu4_2 -> conv4_2 (in-place)
I1101 20:28:06.259248 34046 net.cpp:150] Setting up relu4_2
I1101 20:28:06.259260 34046 net.cpp:157] Top shape: 4 256 12 12 (147456)
I1101 20:28:06.259266 34046 net.cpp:165] Memory required for data: 103329264
I1101 20:28:06.259274 34046 layer_factory.hpp:77] Creating layer res4_2
I1101 20:28:06.259284 34046 net.cpp:100] Creating Layer res4_2
I1101 20:28:06.259290 34046 net.cpp:434] res4_2 <- pool3_pool3_0_split_1
I1101 20:28:06.259297 34046 net.cpp:434] res4_2 <- conv4_2
I1101 20:28:06.259305 34046 net.cpp:408] res4_2 -> res4_2
I1101 20:28:06.259336 34046 net.cpp:150] Setting up res4_2
I1101 20:28:06.259346 34046 net.cpp:157] Top shape: 4 256 12 12 (147456)
I1101 20:28:06.259351 34046 net.cpp:165] Memory required for data: 103919088
I1101 20:28:06.259357 34046 layer_factory.hpp:77] Creating layer res4_2_res4_2_0_split
I1101 20:28:06.259364 34046 net.cpp:100] Creating Layer res4_2_res4_2_0_split
I1101 20:28:06.259369 34046 net.cpp:434] res4_2_res4_2_0_split <- res4_2
I1101 20:28:06.259378 34046 net.cpp:408] res4_2_res4_2_0_split -> res4_2_res4_2_0_split_0
I1101 20:28:06.259388 34046 net.cpp:408] res4_2_res4_2_0_split -> res4_2_res4_2_0_split_1
I1101 20:28:06.259431 34046 net.cpp:150] Setting up res4_2_res4_2_0_split
I1101 20:28:06.259440 34046 net.cpp:157] Top shape: 4 256 12 12 (147456)
I1101 20:28:06.259446 34046 net.cpp:157] Top shape: 4 256 12 12 (147456)
I1101 20:28:06.259451 34046 net.cpp:165] Memory required for data: 105098736
I1101 20:28:06.259456 34046 layer_factory.hpp:77] Creating layer conv4_3
I1101 20:28:06.259467 34046 net.cpp:100] Creating Layer conv4_3
I1101 20:28:06.259474 34046 net.cpp:434] conv4_3 <- res4_2_res4_2_0_split_0
I1101 20:28:06.259486 34046 net.cpp:408] conv4_3 -> conv4_3
I1101 20:28:06.275162 34046 net.cpp:150] Setting up conv4_3
I1101 20:28:06.275199 34046 net.cpp:157] Top shape: 4 256 12 12 (147456)
I1101 20:28:06.275205 34046 net.cpp:165] Memory required for data: 105688560
I1101 20:28:06.275214 34046 layer_factory.hpp:77] Creating layer relu4_3
I1101 20:28:06.275225 34046 net.cpp:100] Creating Layer relu4_3
I1101 20:28:06.275231 34046 net.cpp:434] relu4_3 <- conv4_3
I1101 20:28:06.275238 34046 net.cpp:395] relu4_3 -> conv4_3 (in-place)
I1101 20:28:06.275360 34046 net.cpp:150] Setting up relu4_3
I1101 20:28:06.275373 34046 net.cpp:157] Top shape: 4 256 12 12 (147456)
I1101 20:28:06.275379 34046 net.cpp:165] Memory required for data: 106278384
I1101 20:28:06.275385 34046 layer_factory.hpp:77] Creating layer conv4_4
I1101 20:28:06.275398 34046 net.cpp:100] Creating Layer conv4_4
I1101 20:28:06.275404 34046 net.cpp:434] conv4_4 <- conv4_3
I1101 20:28:06.275413 34046 net.cpp:408] conv4_4 -> conv4_4
I1101 20:28:06.289829 34046 net.cpp:150] Setting up conv4_4
I1101 20:28:06.289866 34046 net.cpp:157] Top shape: 4 256 12 12 (147456)
I1101 20:28:06.289872 34046 net.cpp:165] Memory required for data: 106868208
I1101 20:28:06.289881 34046 layer_factory.hpp:77] Creating layer relu4_4
I1101 20:28:06.289892 34046 net.cpp:100] Creating Layer relu4_4
I1101 20:28:06.289909 34046 net.cpp:434] relu4_4 <- conv4_4
I1101 20:28:06.289919 34046 net.cpp:395] relu4_4 -> conv4_4 (in-place)
I1101 20:28:06.290061 34046 net.cpp:150] Setting up relu4_4
I1101 20:28:06.290074 34046 net.cpp:157] Top shape: 4 256 12 12 (147456)
I1101 20:28:06.290081 34046 net.cpp:165] Memory required for data: 107458032
I1101 20:28:06.290086 34046 layer_factory.hpp:77] Creating layer res4_4
I1101 20:28:06.290094 34046 net.cpp:100] Creating Layer res4_4
I1101 20:28:06.290100 34046 net.cpp:434] res4_4 <- res4_2_res4_2_0_split_1
I1101 20:28:06.290107 34046 net.cpp:434] res4_4 <- conv4_4
I1101 20:28:06.290115 34046 net.cpp:408] res4_4 -> res4_4
I1101 20:28:06.290146 34046 net.cpp:150] Setting up res4_4
I1101 20:28:06.290163 34046 net.cpp:157] Top shape: 4 256 12 12 (147456)
I1101 20:28:06.290168 34046 net.cpp:165] Memory required for data: 108047856
I1101 20:28:06.290174 34046 layer_factory.hpp:77] Creating layer res4_4_res4_4_0_split
I1101 20:28:06.290180 34046 net.cpp:100] Creating Layer res4_4_res4_4_0_split
I1101 20:28:06.290186 34046 net.cpp:434] res4_4_res4_4_0_split <- res4_4
I1101 20:28:06.290192 34046 net.cpp:408] res4_4_res4_4_0_split -> res4_4_res4_4_0_split_0
I1101 20:28:06.290202 34046 net.cpp:408] res4_4_res4_4_0_split -> res4_4_res4_4_0_split_1
I1101 20:28:06.290242 34046 net.cpp:150] Setting up res4_4_res4_4_0_split
I1101 20:28:06.290252 34046 net.cpp:157] Top shape: 4 256 12 12 (147456)
I1101 20:28:06.290259 34046 net.cpp:157] Top shape: 4 256 12 12 (147456)
I1101 20:28:06.290263 34046 net.cpp:165] Memory required for data: 109227504
I1101 20:28:06.290268 34046 layer_factory.hpp:77] Creating layer conv4_5
I1101 20:28:06.290282 34046 net.cpp:100] Creating Layer conv4_5
I1101 20:28:06.290287 34046 net.cpp:434] conv4_5 <- res4_4_res4_4_0_split_0
I1101 20:28:06.290295 34046 net.cpp:408] conv4_5 -> conv4_5
I1101 20:28:06.305208 34046 net.cpp:150] Setting up conv4_5
I1101 20:28:06.305248 34046 net.cpp:157] Top shape: 4 256 12 12 (147456)
I1101 20:28:06.305253 34046 net.cpp:165] Memory required for data: 109817328
I1101 20:28:06.305263 34046 layer_factory.hpp:77] Creating layer relu4_5
I1101 20:28:06.305272 34046 net.cpp:100] Creating Layer relu4_5
I1101 20:28:06.305279 34046 net.cpp:434] relu4_5 <- conv4_5
I1101 20:28:06.305286 34046 net.cpp:395] relu4_5 -> conv4_5 (in-place)
I1101 20:28:06.305413 34046 net.cpp:150] Setting up relu4_5
I1101 20:28:06.305425 34046 net.cpp:157] Top shape: 4 256 12 12 (147456)
I1101 20:28:06.305431 34046 net.cpp:165] Memory required for data: 110407152
I1101 20:28:06.305438 34046 layer_factory.hpp:77] Creating layer conv4_6
I1101 20:28:06.305449 34046 net.cpp:100] Creating Layer conv4_6
I1101 20:28:06.305456 34046 net.cpp:434] conv4_6 <- conv4_5
I1101 20:28:06.305465 34046 net.cpp:408] conv4_6 -> conv4_6
I1101 20:28:06.320607 34046 net.cpp:150] Setting up conv4_6
I1101 20:28:06.320644 34046 net.cpp:157] Top shape: 4 256 12 12 (147456)
I1101 20:28:06.320652 34046 net.cpp:165] Memory required for data: 110996976
I1101 20:28:06.320659 34046 layer_factory.hpp:77] Creating layer relu4_6
I1101 20:28:06.320667 34046 net.cpp:100] Creating Layer relu4_6
I1101 20:28:06.320674 34046 net.cpp:434] relu4_6 <- conv4_6
I1101 20:28:06.320683 34046 net.cpp:395] relu4_6 -> conv4_6 (in-place)
I1101 20:28:06.320804 34046 net.cpp:150] Setting up relu4_6
I1101 20:28:06.320817 34046 net.cpp:157] Top shape: 4 256 12 12 (147456)
I1101 20:28:06.320822 34046 net.cpp:165] Memory required for data: 111586800
I1101 20:28:06.320828 34046 layer_factory.hpp:77] Creating layer res4_6
I1101 20:28:06.320838 34046 net.cpp:100] Creating Layer res4_6
I1101 20:28:06.320844 34046 net.cpp:434] res4_6 <- res4_4_res4_4_0_split_1
I1101 20:28:06.320852 34046 net.cpp:434] res4_6 <- conv4_6
I1101 20:28:06.320858 34046 net.cpp:408] res4_6 -> res4_6
I1101 20:28:06.320889 34046 net.cpp:150] Setting up res4_6
I1101 20:28:06.320920 34046 net.cpp:157] Top shape: 4 256 12 12 (147456)
I1101 20:28:06.320925 34046 net.cpp:165] Memory required for data: 112176624
I1101 20:28:06.320931 34046 layer_factory.hpp:77] Creating layer res4_6_res4_6_0_split
I1101 20:28:06.320948 34046 net.cpp:100] Creating Layer res4_6_res4_6_0_split
I1101 20:28:06.320955 34046 net.cpp:434] res4_6_res4_6_0_split <- res4_6
I1101 20:28:06.320963 34046 net.cpp:408] res4_6_res4_6_0_split -> res4_6_res4_6_0_split_0
I1101 20:28:06.320972 34046 net.cpp:408] res4_6_res4_6_0_split -> res4_6_res4_6_0_split_1
I1101 20:28:06.321014 34046 net.cpp:150] Setting up res4_6_res4_6_0_split
I1101 20:28:06.321025 34046 net.cpp:157] Top shape: 4 256 12 12 (147456)
I1101 20:28:06.321032 34046 net.cpp:157] Top shape: 4 256 12 12 (147456)
I1101 20:28:06.321038 34046 net.cpp:165] Memory required for data: 113356272
I1101 20:28:06.321043 34046 layer_factory.hpp:77] Creating layer conv4_7
I1101 20:28:06.321054 34046 net.cpp:100] Creating Layer conv4_7
I1101 20:28:06.321061 34046 net.cpp:434] conv4_7 <- res4_6_res4_6_0_split_0
I1101 20:28:06.321069 34046 net.cpp:408] conv4_7 -> conv4_7
I1101 20:28:06.336091 34046 net.cpp:150] Setting up conv4_7
I1101 20:28:06.336129 34046 net.cpp:157] Top shape: 4 256 12 12 (147456)
I1101 20:28:06.336138 34046 net.cpp:165] Memory required for data: 113946096
I1101 20:28:06.336145 34046 layer_factory.hpp:77] Creating layer relu4_7
I1101 20:28:06.336154 34046 net.cpp:100] Creating Layer relu4_7
I1101 20:28:06.336160 34046 net.cpp:434] relu4_7 <- conv4_7
I1101 20:28:06.336168 34046 net.cpp:395] relu4_7 -> conv4_7 (in-place)
I1101 20:28:06.336292 34046 net.cpp:150] Setting up relu4_7
I1101 20:28:06.336305 34046 net.cpp:157] Top shape: 4 256 12 12 (147456)
I1101 20:28:06.336310 34046 net.cpp:165] Memory required for data: 114535920
I1101 20:28:06.336318 34046 layer_factory.hpp:77] Creating layer conv4_8
I1101 20:28:06.336339 34046 net.cpp:100] Creating Layer conv4_8
I1101 20:28:06.336345 34046 net.cpp:434] conv4_8 <- conv4_7
I1101 20:28:06.336354 34046 net.cpp:408] conv4_8 -> conv4_8
I1101 20:28:06.351353 34046 net.cpp:150] Setting up conv4_8
I1101 20:28:06.351390 34046 net.cpp:157] Top shape: 4 256 12 12 (147456)
I1101 20:28:06.351397 34046 net.cpp:165] Memory required for data: 115125744
I1101 20:28:06.351405 34046 layer_factory.hpp:77] Creating layer relu4_8
I1101 20:28:06.351415 34046 net.cpp:100] Creating Layer relu4_8
I1101 20:28:06.351423 34046 net.cpp:434] relu4_8 <- conv4_8
I1101 20:28:06.351429 34046 net.cpp:395] relu4_8 -> conv4_8 (in-place)
I1101 20:28:06.351558 34046 net.cpp:150] Setting up relu4_8
I1101 20:28:06.351572 34046 net.cpp:157] Top shape: 4 256 12 12 (147456)
I1101 20:28:06.351577 34046 net.cpp:165] Memory required for data: 115715568
I1101 20:28:06.351583 34046 layer_factory.hpp:77] Creating layer res4_8
I1101 20:28:06.351593 34046 net.cpp:100] Creating Layer res4_8
I1101 20:28:06.351598 34046 net.cpp:434] res4_8 <- res4_6_res4_6_0_split_1
I1101 20:28:06.351605 34046 net.cpp:434] res4_8 <- conv4_8
I1101 20:28:06.351613 34046 net.cpp:408] res4_8 -> res4_8
I1101 20:28:06.351642 34046 net.cpp:150] Setting up res4_8
I1101 20:28:06.351651 34046 net.cpp:157] Top shape: 4 256 12 12 (147456)
I1101 20:28:06.351656 34046 net.cpp:165] Memory required for data: 116305392
I1101 20:28:06.351661 34046 layer_factory.hpp:77] Creating layer res4_8_res4_8_0_split
I1101 20:28:06.351670 34046 net.cpp:100] Creating Layer res4_8_res4_8_0_split
I1101 20:28:06.351676 34046 net.cpp:434] res4_8_res4_8_0_split <- res4_8
I1101 20:28:06.351682 34046 net.cpp:408] res4_8_res4_8_0_split -> res4_8_res4_8_0_split_0
I1101 20:28:06.351691 34046 net.cpp:408] res4_8_res4_8_0_split -> res4_8_res4_8_0_split_1
I1101 20:28:06.351733 34046 net.cpp:150] Setting up res4_8_res4_8_0_split
I1101 20:28:06.351743 34046 net.cpp:157] Top shape: 4 256 12 12 (147456)
I1101 20:28:06.351749 34046 net.cpp:157] Top shape: 4 256 12 12 (147456)
I1101 20:28:06.351753 34046 net.cpp:165] Memory required for data: 117485040
I1101 20:28:06.351758 34046 layer_factory.hpp:77] Creating layer conv4_9
I1101 20:28:06.351770 34046 net.cpp:100] Creating Layer conv4_9
I1101 20:28:06.351776 34046 net.cpp:434] conv4_9 <- res4_8_res4_8_0_split_0
I1101 20:28:06.351785 34046 net.cpp:408] conv4_9 -> conv4_9
I1101 20:28:06.366708 34046 net.cpp:150] Setting up conv4_9
I1101 20:28:06.366744 34046 net.cpp:157] Top shape: 4 256 12 12 (147456)
I1101 20:28:06.366751 34046 net.cpp:165] Memory required for data: 118074864
I1101 20:28:06.366761 34046 layer_factory.hpp:77] Creating layer relu4_9
I1101 20:28:06.366771 34046 net.cpp:100] Creating Layer relu4_9
I1101 20:28:06.366777 34046 net.cpp:434] relu4_9 <- conv4_9
I1101 20:28:06.366786 34046 net.cpp:395] relu4_9 -> conv4_9 (in-place)
I1101 20:28:06.366914 34046 net.cpp:150] Setting up relu4_9
I1101 20:28:06.366927 34046 net.cpp:157] Top shape: 4 256 12 12 (147456)
I1101 20:28:06.366932 34046 net.cpp:165] Memory required for data: 118664688
I1101 20:28:06.366940 34046 layer_factory.hpp:77] Creating layer conv4_10
I1101 20:28:06.366951 34046 net.cpp:100] Creating Layer conv4_10
I1101 20:28:06.366958 34046 net.cpp:434] conv4_10 <- conv4_9
I1101 20:28:06.366966 34046 net.cpp:408] conv4_10 -> conv4_10
I1101 20:28:06.382007 34046 net.cpp:150] Setting up conv4_10
I1101 20:28:06.382043 34046 net.cpp:157] Top shape: 4 256 12 12 (147456)
I1101 20:28:06.382050 34046 net.cpp:165] Memory required for data: 119254512
I1101 20:28:06.382059 34046 layer_factory.hpp:77] Creating layer relu4_10
I1101 20:28:06.382069 34046 net.cpp:100] Creating Layer relu4_10
I1101 20:28:06.382076 34046 net.cpp:434] relu4_10 <- conv4_10
I1101 20:28:06.382083 34046 net.cpp:395] relu4_10 -> conv4_10 (in-place)
I1101 20:28:06.382216 34046 net.cpp:150] Setting up relu4_10
I1101 20:28:06.382228 34046 net.cpp:157] Top shape: 4 256 12 12 (147456)
I1101 20:28:06.382235 34046 net.cpp:165] Memory required for data: 119844336
I1101 20:28:06.382241 34046 layer_factory.hpp:77] Creating layer res4_10
I1101 20:28:06.382248 34046 net.cpp:100] Creating Layer res4_10
I1101 20:28:06.382254 34046 net.cpp:434] res4_10 <- res4_8_res4_8_0_split_1
I1101 20:28:06.382261 34046 net.cpp:434] res4_10 <- conv4_10
I1101 20:28:06.382269 34046 net.cpp:408] res4_10 -> res4_10
I1101 20:28:06.382300 34046 net.cpp:150] Setting up res4_10
I1101 20:28:06.382316 34046 net.cpp:157] Top shape: 4 256 12 12 (147456)
I1101 20:28:06.382323 34046 net.cpp:165] Memory required for data: 120434160
I1101 20:28:06.382328 34046 layer_factory.hpp:77] Creating layer conv4
I1101 20:28:06.382340 34046 net.cpp:100] Creating Layer conv4
I1101 20:28:06.382347 34046 net.cpp:434] conv4 <- res4_10
I1101 20:28:06.382354 34046 net.cpp:408] conv4 -> conv4
I1101 20:28:06.390859 34046 net.cpp:150] Setting up conv4
I1101 20:28:06.390897 34046 net.cpp:157] Top shape: 4 512 10 10 (204800)
I1101 20:28:06.390903 34046 net.cpp:165] Memory required for data: 121253360
I1101 20:28:06.390913 34046 layer_factory.hpp:77] Creating layer relu4
I1101 20:28:06.390920 34046 net.cpp:100] Creating Layer relu4
I1101 20:28:06.390926 34046 net.cpp:434] relu4 <- conv4
I1101 20:28:06.390935 34046 net.cpp:395] relu4 -> conv4 (in-place)
I1101 20:28:06.391083 34046 net.cpp:150] Setting up relu4
I1101 20:28:06.391095 34046 net.cpp:157] Top shape: 4 512 10 10 (204800)
I1101 20:28:06.391101 34046 net.cpp:165] Memory required for data: 122072560
I1101 20:28:06.391108 34046 layer_factory.hpp:77] Creating layer pool4
I1101 20:28:06.391119 34046 net.cpp:100] Creating Layer pool4
I1101 20:28:06.391124 34046 net.cpp:434] pool4 <- conv4
I1101 20:28:06.391130 34046 net.cpp:408] pool4 -> pool4
I1101 20:28:06.391180 34046 net.cpp:150] Setting up pool4
I1101 20:28:06.391188 34046 net.cpp:157] Top shape: 4 512 5 5 (51200)
I1101 20:28:06.391193 34046 net.cpp:165] Memory required for data: 122277360
I1101 20:28:06.391199 34046 layer_factory.hpp:77] Creating layer pool4_pool4_0_split
I1101 20:28:06.391214 34046 net.cpp:100] Creating Layer pool4_pool4_0_split
I1101 20:28:06.391221 34046 net.cpp:434] pool4_pool4_0_split <- pool4
I1101 20:28:06.391228 34046 net.cpp:408] pool4_pool4_0_split -> pool4_pool4_0_split_0
I1101 20:28:06.391238 34046 net.cpp:408] pool4_pool4_0_split -> pool4_pool4_0_split_1
I1101 20:28:06.391279 34046 net.cpp:150] Setting up pool4_pool4_0_split
I1101 20:28:06.391289 34046 net.cpp:157] Top shape: 4 512 5 5 (51200)
I1101 20:28:06.391305 34046 net.cpp:157] Top shape: 4 512 5 5 (51200)
I1101 20:28:06.391311 34046 net.cpp:165] Memory required for data: 122686960
I1101 20:28:06.391316 34046 layer_factory.hpp:77] Creating layer conv5_1
I1101 20:28:06.391329 34046 net.cpp:100] Creating Layer conv5_1
I1101 20:28:06.391335 34046 net.cpp:434] conv5_1 <- pool4_pool4_0_split_0
I1101 20:28:06.391345 34046 net.cpp:408] conv5_1 -> conv5_1
I1101 20:28:06.442888 34046 net.cpp:150] Setting up conv5_1
I1101 20:28:06.442925 34046 net.cpp:157] Top shape: 4 512 5 5 (51200)
I1101 20:28:06.442932 34046 net.cpp:165] Memory required for data: 122891760
I1101 20:28:06.442955 34046 layer_factory.hpp:77] Creating layer relu5_1
I1101 20:28:06.442972 34046 net.cpp:100] Creating Layer relu5_1
I1101 20:28:06.442978 34046 net.cpp:434] relu5_1 <- conv5_1
I1101 20:28:06.442986 34046 net.cpp:395] relu5_1 -> conv5_1 (in-place)
I1101 20:28:06.443115 34046 net.cpp:150] Setting up relu5_1
I1101 20:28:06.443128 34046 net.cpp:157] Top shape: 4 512 5 5 (51200)
I1101 20:28:06.443135 34046 net.cpp:165] Memory required for data: 123096560
I1101 20:28:06.443140 34046 layer_factory.hpp:77] Creating layer conv5_2
I1101 20:28:06.443153 34046 net.cpp:100] Creating Layer conv5_2
I1101 20:28:06.443161 34046 net.cpp:434] conv5_2 <- conv5_1
I1101 20:28:06.443168 34046 net.cpp:408] conv5_2 -> conv5_2
I1101 20:28:06.494650 34046 net.cpp:150] Setting up conv5_2
I1101 20:28:06.494690 34046 net.cpp:157] Top shape: 4 512 5 5 (51200)
I1101 20:28:06.494696 34046 net.cpp:165] Memory required for data: 123301360
I1101 20:28:06.494705 34046 layer_factory.hpp:77] Creating layer relu5_2
I1101 20:28:06.494717 34046 net.cpp:100] Creating Layer relu5_2
I1101 20:28:06.494724 34046 net.cpp:434] relu5_2 <- conv5_2
I1101 20:28:06.494730 34046 net.cpp:395] relu5_2 -> conv5_2 (in-place)
I1101 20:28:06.494850 34046 net.cpp:150] Setting up relu5_2
I1101 20:28:06.494863 34046 net.cpp:157] Top shape: 4 512 5 5 (51200)
I1101 20:28:06.494868 34046 net.cpp:165] Memory required for data: 123506160
I1101 20:28:06.494874 34046 layer_factory.hpp:77] Creating layer res5_2
I1101 20:28:06.494886 34046 net.cpp:100] Creating Layer res5_2
I1101 20:28:06.494892 34046 net.cpp:434] res5_2 <- pool4_pool4_0_split_1
I1101 20:28:06.494899 34046 net.cpp:434] res5_2 <- conv5_2
I1101 20:28:06.494907 34046 net.cpp:408] res5_2 -> res5_2
I1101 20:28:06.494940 34046 net.cpp:150] Setting up res5_2
I1101 20:28:06.494951 34046 net.cpp:157] Top shape: 4 512 5 5 (51200)
I1101 20:28:06.494956 34046 net.cpp:165] Memory required for data: 123710960
I1101 20:28:06.494972 34046 layer_factory.hpp:77] Creating layer res5_2_res5_2_0_split
I1101 20:28:06.494981 34046 net.cpp:100] Creating Layer res5_2_res5_2_0_split
I1101 20:28:06.494985 34046 net.cpp:434] res5_2_res5_2_0_split <- res5_2
I1101 20:28:06.494994 34046 net.cpp:408] res5_2_res5_2_0_split -> res5_2_res5_2_0_split_0
I1101 20:28:06.495002 34046 net.cpp:408] res5_2_res5_2_0_split -> res5_2_res5_2_0_split_1
I1101 20:28:06.495046 34046 net.cpp:150] Setting up res5_2_res5_2_0_split
I1101 20:28:06.495055 34046 net.cpp:157] Top shape: 4 512 5 5 (51200)
I1101 20:28:06.495061 34046 net.cpp:157] Top shape: 4 512 5 5 (51200)
I1101 20:28:06.495066 34046 net.cpp:165] Memory required for data: 124120560
I1101 20:28:06.495071 34046 layer_factory.hpp:77] Creating layer conv5_3
I1101 20:28:06.495085 34046 net.cpp:100] Creating Layer conv5_3
I1101 20:28:06.495090 34046 net.cpp:434] conv5_3 <- res5_2_res5_2_0_split_0
I1101 20:28:06.495100 34046 net.cpp:408] conv5_3 -> conv5_3
I1101 20:28:06.545842 34046 net.cpp:150] Setting up conv5_3
I1101 20:28:06.545881 34046 net.cpp:157] Top shape: 4 512 5 5 (51200)
I1101 20:28:06.545886 34046 net.cpp:165] Memory required for data: 124325360
I1101 20:28:06.545897 34046 layer_factory.hpp:77] Creating layer relu5_3
I1101 20:28:06.545904 34046 net.cpp:100] Creating Layer relu5_3
I1101 20:28:06.545912 34046 net.cpp:434] relu5_3 <- conv5_3
I1101 20:28:06.545922 34046 net.cpp:395] relu5_3 -> conv5_3 (in-place)
I1101 20:28:06.546058 34046 net.cpp:150] Setting up relu5_3
I1101 20:28:06.546087 34046 net.cpp:157] Top shape: 4 512 5 5 (51200)
I1101 20:28:06.546093 34046 net.cpp:165] Memory required for data: 124530160
I1101 20:28:06.546100 34046 layer_factory.hpp:77] Creating layer conv5_4
I1101 20:28:06.546114 34046 net.cpp:100] Creating Layer conv5_4
I1101 20:28:06.546121 34046 net.cpp:434] conv5_4 <- conv5_3
I1101 20:28:06.546129 34046 net.cpp:408] conv5_4 -> conv5_4
I1101 20:28:06.597666 34046 net.cpp:150] Setting up conv5_4
I1101 20:28:06.597704 34046 net.cpp:157] Top shape: 4 512 5 5 (51200)
I1101 20:28:06.597712 34046 net.cpp:165] Memory required for data: 124734960
I1101 20:28:06.597720 34046 layer_factory.hpp:77] Creating layer relu5_4
I1101 20:28:06.597729 34046 net.cpp:100] Creating Layer relu5_4
I1101 20:28:06.597735 34046 net.cpp:434] relu5_4 <- conv5_4
I1101 20:28:06.597744 34046 net.cpp:395] relu5_4 -> conv5_4 (in-place)
I1101 20:28:06.597867 34046 net.cpp:150] Setting up relu5_4
I1101 20:28:06.597879 34046 net.cpp:157] Top shape: 4 512 5 5 (51200)
I1101 20:28:06.597885 34046 net.cpp:165] Memory required for data: 124939760
I1101 20:28:06.597892 34046 layer_factory.hpp:77] Creating layer res5_4
I1101 20:28:06.597901 34046 net.cpp:100] Creating Layer res5_4
I1101 20:28:06.597908 34046 net.cpp:434] res5_4 <- res5_2_res5_2_0_split_1
I1101 20:28:06.597914 34046 net.cpp:434] res5_4 <- conv5_4
I1101 20:28:06.597921 34046 net.cpp:408] res5_4 -> res5_4
I1101 20:28:06.597955 34046 net.cpp:150] Setting up res5_4
I1101 20:28:06.597981 34046 net.cpp:157] Top shape: 4 512 5 5 (51200)
I1101 20:28:06.597987 34046 net.cpp:165] Memory required for data: 125144560
I1101 20:28:06.597992 34046 layer_factory.hpp:77] Creating layer res5_4_res5_4_0_split
I1101 20:28:06.598001 34046 net.cpp:100] Creating Layer res5_4_res5_4_0_split
I1101 20:28:06.598006 34046 net.cpp:434] res5_4_res5_4_0_split <- res5_4
I1101 20:28:06.598013 34046 net.cpp:408] res5_4_res5_4_0_split -> res5_4_res5_4_0_split_0
I1101 20:28:06.598031 34046 net.cpp:408] res5_4_res5_4_0_split -> res5_4_res5_4_0_split_1
I1101 20:28:06.598074 34046 net.cpp:150] Setting up res5_4_res5_4_0_split
I1101 20:28:06.598085 34046 net.cpp:157] Top shape: 4 512 5 5 (51200)
I1101 20:28:06.598091 34046 net.cpp:157] Top shape: 4 512 5 5 (51200)
I1101 20:28:06.598096 34046 net.cpp:165] Memory required for data: 125554160
I1101 20:28:06.598104 34046 layer_factory.hpp:77] Creating layer conv5_5
I1101 20:28:06.598117 34046 net.cpp:100] Creating Layer conv5_5
I1101 20:28:06.598124 34046 net.cpp:434] conv5_5 <- res5_4_res5_4_0_split_0
I1101 20:28:06.598131 34046 net.cpp:408] conv5_5 -> conv5_5
I1101 20:28:06.649502 34046 net.cpp:150] Setting up conv5_5
I1101 20:28:06.649540 34046 net.cpp:157] Top shape: 4 512 5 5 (51200)
I1101 20:28:06.649546 34046 net.cpp:165] Memory required for data: 125758960
I1101 20:28:06.649555 34046 layer_factory.hpp:77] Creating layer relu5_5
I1101 20:28:06.649564 34046 net.cpp:100] Creating Layer relu5_5
I1101 20:28:06.649570 34046 net.cpp:434] relu5_5 <- conv5_5
I1101 20:28:06.649580 34046 net.cpp:395] relu5_5 -> conv5_5 (in-place)
I1101 20:28:06.649729 34046 net.cpp:150] Setting up relu5_5
I1101 20:28:06.649744 34046 net.cpp:157] Top shape: 4 512 5 5 (51200)
I1101 20:28:06.649749 34046 net.cpp:165] Memory required for data: 125963760
I1101 20:28:06.649755 34046 layer_factory.hpp:77] Creating layer conv5_6
I1101 20:28:06.649770 34046 net.cpp:100] Creating Layer conv5_6
I1101 20:28:06.649777 34046 net.cpp:434] conv5_6 <- conv5_5
I1101 20:28:06.649785 34046 net.cpp:408] conv5_6 -> conv5_6
I1101 20:28:06.701316 34046 net.cpp:150] Setting up conv5_6
I1101 20:28:06.701354 34046 net.cpp:157] Top shape: 4 512 5 5 (51200)
I1101 20:28:06.701360 34046 net.cpp:165] Memory required for data: 126168560
I1101 20:28:06.701370 34046 layer_factory.hpp:77] Creating layer relu5_6
I1101 20:28:06.701380 34046 net.cpp:100] Creating Layer relu5_6
I1101 20:28:06.701386 34046 net.cpp:434] relu5_6 <- conv5_6
I1101 20:28:06.701393 34046 net.cpp:395] relu5_6 -> conv5_6 (in-place)
I1101 20:28:06.701527 34046 net.cpp:150] Setting up relu5_6
I1101 20:28:06.701539 34046 net.cpp:157] Top shape: 4 512 5 5 (51200)
I1101 20:28:06.701560 34046 net.cpp:165] Memory required for data: 126373360
I1101 20:28:06.701567 34046 layer_factory.hpp:77] Creating layer res5_6
I1101 20:28:06.701576 34046 net.cpp:100] Creating Layer res5_6
I1101 20:28:06.701582 34046 net.cpp:434] res5_6 <- res5_4_res5_4_0_split_1
I1101 20:28:06.701588 34046 net.cpp:434] res5_6 <- conv5_6
I1101 20:28:06.701597 34046 net.cpp:408] res5_6 -> res5_6
I1101 20:28:06.701629 34046 net.cpp:150] Setting up res5_6
I1101 20:28:06.701640 34046 net.cpp:157] Top shape: 4 512 5 5 (51200)
I1101 20:28:06.701668 34046 net.cpp:165] Memory required for data: 126578160
I1101 20:28:06.701673 34046 layer_factory.hpp:77] Creating layer fc5_new
I1101 20:28:06.701683 34046 net.cpp:100] Creating Layer fc5_new
I1101 20:28:06.701690 34046 net.cpp:434] fc5_new <- res5_6
I1101 20:28:06.701699 34046 net.cpp:408] fc5_new -> fc5_new
I1101 20:28:06.735072 34046 net.cpp:150] Setting up fc5_new
I1101 20:28:06.735123 34046 net.cpp:157] Top shape: 4 512 (2048)
I1101 20:28:06.735131 34046 net.cpp:165] Memory required for data: 126586352
I1101 20:28:06.735141 34046 layer_factory.hpp:77] Creating layer fc5_new_fc5_new_0_split
I1101 20:28:06.735150 34046 net.cpp:100] Creating Layer fc5_new_fc5_new_0_split
I1101 20:28:06.735157 34046 net.cpp:434] fc5_new_fc5_new_0_split <- fc5_new
I1101 20:28:06.735165 34046 net.cpp:408] fc5_new_fc5_new_0_split -> fc5_new_fc5_new_0_split_0
I1101 20:28:06.735174 34046 net.cpp:408] fc5_new_fc5_new_0_split -> fc5_new_fc5_new_0_split_1
I1101 20:28:06.735227 34046 net.cpp:150] Setting up fc5_new_fc5_new_0_split
I1101 20:28:06.735236 34046 net.cpp:157] Top shape: 4 512 (2048)
I1101 20:28:06.735242 34046 net.cpp:157] Top shape: 4 512 (2048)
I1101 20:28:06.735247 34046 net.cpp:165] Memory required for data: 126602736
I1101 20:28:06.735252 34046 layer_factory.hpp:77] Creating layer fc6_new
I1101 20:28:06.735262 34046 net.cpp:100] Creating Layer fc6_new
I1101 20:28:06.735268 34046 net.cpp:434] fc6_new <- fc5_new_fc5_new_0_split_0
I1101 20:28:06.735276 34046 net.cpp:408] fc6_new -> fc6_new
I1101 20:28:06.735430 34046 net.cpp:150] Setting up fc6_new
I1101 20:28:06.735441 34046 net.cpp:157] Top shape: 4 7 (28)
I1101 20:28:06.735446 34046 net.cpp:165] Memory required for data: 126602848
I1101 20:28:06.735455 34046 layer_factory.hpp:77] Creating layer fc6_new_fc6_new_0_split
I1101 20:28:06.735461 34046 net.cpp:100] Creating Layer fc6_new_fc6_new_0_split
I1101 20:28:06.735467 34046 net.cpp:434] fc6_new_fc6_new_0_split <- fc6_new
I1101 20:28:06.735481 34046 net.cpp:408] fc6_new_fc6_new_0_split -> fc6_new_fc6_new_0_split_0
I1101 20:28:06.735488 34046 net.cpp:408] fc6_new_fc6_new_0_split -> fc6_new_fc6_new_0_split_1
I1101 20:28:06.735532 34046 net.cpp:150] Setting up fc6_new_fc6_new_0_split
I1101 20:28:06.735543 34046 net.cpp:157] Top shape: 4 7 (28)
I1101 20:28:06.735548 34046 net.cpp:157] Top shape: 4 7 (28)
I1101 20:28:06.735553 34046 net.cpp:165] Memory required for data: 126603072
I1101 20:28:06.735558 34046 layer_factory.hpp:77] Creating layer softmax_loss
I1101 20:28:06.735566 34046 net.cpp:100] Creating Layer softmax_loss
I1101 20:28:06.735572 34046 net.cpp:434] softmax_loss <- fc6_new_fc6_new_0_split_0
I1101 20:28:06.735579 34046 net.cpp:434] softmax_loss <- label_data_1_split_0
I1101 20:28:06.735585 34046 net.cpp:408] softmax_loss -> softmax_loss
…
